…
    mean_value: 125.972
    max_rotation_angle: 10
    contrast_brightness_adjustment: true
    smooth_filtering: true
    min_contrast: 0.8
    max_contrast: 1.2
    max_smooth: 6
    apply_probability: 0.5
    debug_params: false
    max_color_shift: 20
  }
  image_data_param {
    source: "/home/wuxiaodong/data/ai_challenge/ai_challenger_scene_train_20170904_/train.txt"
    batch_size: 15
    shuffle: true
    new_height: 256
    new_width: 256
    root_folder: "/home/wuxiaodong/data/ai_challenge/ai_challenger_scene_train_20170904_/scene_train_images_20170904/"
  }
}
layer {
  name: "conv1"
  type: "Convolution"
  bottom: "data"
  top: "conv1"
  convolution_param {
    num_output: 128
    pad: 3
    kernel_size: 7
    stride: 2
  }
}
layer {
  name: "conv1/relu"
  type: "ReLU"
  bottom: "conv1"
  top: "conv1"
}
layer {
  name: "pool2"
  type: "Pooling"
  bottom: "conv1"
  top: "pool2"
  pooling_param {
    pool: MAX
    kernel_size: 2
    stride: 2
  }
}
layer {
  name: "inception_3a/1x1"
  type: "Convolution"
  bottom: "pool2"
  top: "inception_3a/1x1"
  convolution_param {
    num_output: 64
    kernel_size: 1
  }
}
layer {
  name: "inception_3a/relu_1x1"
  type: "ReLU"
  bottom: "inception_3a/1x1"
  top: "inception_3a/1x1"
}
layer {
  name: "inception_3a/3x3"
  type: "Convolution"
  bottom: "pool2"
  top: "inception_3a/3x3"
  convolution_param {
    num_output: 64
    pad: 1
    kernel_size: 3
  }
}
layer {
  name: "inception_3a/relu_3x3"
  type: "ReLU"
  bottom: "inception_3a/3x3"
  top: "inception_3a/3x3"
}
layer {
  name: "inception_3a/double3x3a"
  type: "Convolution"
  bottom: "pool2"
  top: "inception_3a/double3x3a"
  convolution_param {
    num_output: 128
    pad: 1
    kernel_size: 3
  }
}
layer {
  name: "inception_3a/relu_double3x3a"
  type: "ReLU"
  bottom: "inception_3a/double3x3a"
  top: "inception_3a/double3x3a"
}
layer {
  name: "inception_3a/double3x3b"
  type: "Convolution"
  bottom: "inception_3a/double3x3a"
  top: "inception_3a/double3x3b"
  convolution_param {
    num_output: 128
    pad: 1
    kernel_size: 3
  }
}
layer {
  name: "inception_3a/relu_double3x3b"
  type: "ReLU"
  bottom: "inception_3a/double3x3b"
  top: "inception_3a/double3x3b"
}
layer {
  name: "inception_3a/output"
  type: "Concat"
  bottom: "inception_3a/1x1"
  bottom: "inception_3a/3x3"
  bottom: "inception_3a/double3x3b"
  top: "inception_3a/output"
}
layer {
  name: "inception_3b/1x1"
  type: "Convolution"
  bottom: "inception_3a/output"
  top: "inception_3b/1x1"
  convolution_param {
    num_output: 64
    kernel_size: 1
  }
}
layer {
  name: "inception_3b/relu_1x1"
  type: "ReLU"
  bottom: "inception_3b/1x1"
  top: "inception_3b/1x1"
}
layer {
  name: "inception_3b/3x3"
  type: "Convolution"
  bottom: "inception_3a/output"
  top: "inception_3b/3x3"
  convolution_param {
    num_output: 64
    pad: 1
    kernel_size: 3
  }
}
layer {
  name: "inception_3b/relu_3x3"
  type: "ReLU"
  bottom: "inception_3b/3x3"
  top: "inception_3b/3x3"
}
layer {
  name: "inception_3b/double3x3a"
  type: "Convolution"
  bottom: "inception_3a/output"
  top: "inception_3b/double3x3a"
  convolution_param {
    num_output: 128
    pad: 1
    kernel_size: 3
  }
}
layer {
  name: "inception_3b/relu_double3x3a"
  type: "ReLU"
  bottom: "inception_3b/double3x3a"
  top: "inception_3b/double3x3a"
}
layer {
  name: "inception_3b/double3x3b"
  type: "Convolution"
  bottom: "inception_3b/double3x3a"
  top: "inception_3b/double3x3b"
  convolution_param {
    num_output: 128
    pad: 1
    kernel_size: 3
  }
}
layer {
  name: "inception_3b/relu_double3x3b"
  type: "ReLU"
  bottom: "inception_3b/double3x3b"
  top: "inception_3b/double3x3b"
}
layer {
  name: "inception_3b/output"
  type: "Concat"
  bottom: "inception_3b/1x1"
  bottom: "inception_3b/3x3"
  bottom: "inception_3b/double3x3b"
  top: "inception_3b/output"
}
layer {
  name: "inception_3c/1x1"
  type: "Convolution"
  bottom: "inception_3b/output"
  top: "inception_3c/1x1"
  convolution_param {
    num_output: 64
    kernel_size: 1
  }
}
layer {
  name: "inception_3c/relu_1x1"
  type: "ReLU"
  bottom: "inception_3c/1x1"
  top: "inception_3c/1x1"
}
layer {
  name: "inception_3c/3x3"
  type: "Convolution"
  bottom: "inception_3b/output"
  top: "inception_3c/3x3"
  convolution_param {
    num_output: 64
    pad: 1
    kernel_size: 3
  }
}
layer {
  name: "inception_3c/relu_3x3"
  type: "ReLU"
  bottom: "inception_3c/3x3"
  top: "inception_3c/3x3"
}
layer {
  name: "inception_3c/double3x3a"
  type: "Convolution"
  bottom: "inception_3b/output"
  top: "inception_3c/double3x3a"
  convolution_param {
    num_output: 128
    pad: 1
    kernel_size: 3
  }
}
layer {
  name: "inception_3c/relu_double3x3a"
  type: "ReLU"
  bottom: "inception_3c/double3x3a"
  top: "inception_3c/double3x3a"
}
layer {
  name: "inception_3c/double3x3b"
  type: "Convolution"
  bottom: "inception_3c/double3x3a"
  top: "inception_3c/double3x3b"
  convolution_param {
    num_output: 128
    pad: 1
    kernel_size: 3
  }
}
layer {
  name: "inception_3c/relu_double3x3b"
  type: "ReLU"
  bottom: "inception_3c/double3x3b"
  top: "inception_3c/double3x3b"
}
layer {
  name: "inception_3c/output"
  type: "Concat"
  bottom: "inception_3c/1x1"
  bottom: "inception_3c/3x3"
  bottom: "inception_3c/double3x3b"
  top: "inception_3c/output"
}
layer {
  name: "inception_3d/1x1"
  type: "Convolution"
  bottom: "inception_3c/output"
  top: "inception_3d/1x1"
  convolution_param {
    num_output: 64
    kernel_size: 1
  }
}
layer {
  name: "inception_3d/relu_1x1"
  type: "ReLU"
  bottom: "inception_3d/1x1"
  top: "inception_3d/1x1"
}
layer {
  name: "inception_3d/3x3"
  type: "Convolution"
  bottom: "inception_3c/output"
  top: "inception_3d/3x3"
  convolution_param {
    num_output: 64
    pad: 1
    kernel_size: 3
  }
}
layer {
  name: "inception_3d/relu_3x3"
  type: "ReLU"
  bottom: "inception_3d/3x3"
  top: "inception_3d/3x3"
}
layer {
  name: "inception_3d/double3x3a"
  type: "Convolution"
  bottom: "inception_3c/output"
  top: "inception_3d/double3x3a"
  convolution_param {
    num_output: 128
    pad: 1
    kernel_size: 3
  }
}
layer {
  name: "inception_3d/relu_double3x3a"
  type: "ReLU"
  bottom: "inception_3d/double3x3a"
  top: "inception_3d/double3x3a"
}
layer {
  name: "inception_3d/double3x3b"
  type: "Convolution"
  bottom: "inception_3d/double3x3a"
  top: "inception_3d/double3x3b"
  convolution_param {
    num_output: 128
    pad: 1
    kernel_size: 3
  }
}
layer {
  name: "inception_3d/relu_double3x3b"
  type: "ReLU"
  bottom: "inception_3d/double3x3b"
  top: "inception_3d/double3x3b"
}
layer {
  name: "inception_3d/output"
  type: "Concat"
  bottom: "inception_3d/1x1"
  bottom: "inception_3d/3x3"
  bottom: "inception_3d/double3x3b"
  top: "inception_3d/output"
}
layer {
  name: "pool3"
  type: "Pooling"
  bottom: "inception_3d/output"
  top: "pool3"
  pooling_param {
    pool: MAX
    kernel_size: 2
    stride: 2
  }
}
layer {
  name: "inception_4a/1x1"
  type: "Convolution"
  bottom: "pool3"
  top: "inception_4a/1x1"
  convolution_param {
    num_output: 128
    kernel_size: 1
  }
}
layer {
  name: "inception_4a/relu_1x1"
  type: "ReLU"
  bottom: "inception_4a/1x1"
  top: "inception_4a/1x1"
}
layer {
  name: "inception_4a/3x3"
  type: "Convolution"
  bottom: "pool3"
  top: "inception_4a/3x3"
  convolution_param {
    num_output: 128
    pad: 1
    kernel_size: 3
  }
}
layer {
  name: "inception_4a/relu_3x3"
  type: "ReLU"
  bottom: "inception_4a/3x3"
  top: "inception_4a/3x3"
}
layer {
  name: "inception_4a/double3x3a"
  type: "Convolution"
  bottom: "pool3"
  top: "inception_4a/double3x3a"
  convolution_param {
    num_output: 256
    pad: 1
    kernel_size: 3
  }
}
layer {
  name: "inception_4a/relu_double3x3a"
  type: "ReLU"
  bottom: "inception_4a/double3x3a"
  top: "inception_4a/double3x3a"
}
layer {
  name: "inception_4a/double3x3b"
  type: "Convolution"
  bottom: "inception_4a/double3x3a"
  top: "inception_4a/double3x3b"
  convolution_param {
    num_output: 256
    pad: 1
    kernel_size: 3
  }
}
layer {
  name: "inception_4a/relu_double3x3b"
  type: "ReLU"
  bottom: "inception_4a/double3x3b"
  top: "inception_4a/double3x3b"
}
layer {
  name: "inception_4a/output"
  type: "Concat"
  bottom: "inception_4a/1x1"
  bottom: "inception_4a/3x3"
  bottom: "inception_4a/double3x3b"
  top: "inception_4a/output"
}
layer {
  name: "inception_4b/1x1"
  type: "Convolution"
  bottom: "inception_4a/output"
  top: "inception_4b/1x1"
  convolution_param {
    num_output: 128
    kernel_size: 1
  }
}
layer {
  name: "inception_4b/relu_1x1"
  type: "ReLU"
  bottom: "inception_4b/1x1"
  top: "inception_4b/1x1"
}
layer {
  name: "inception_4b/3x3"
  type: "Convolution"
  bottom: "inception_4a/output"
  top: "inception_4b/3x3"
  convolution_param {
    num_output: 128
    pad: 1
    kernel_size: 3
  }
}
layer {
  name: "inception_4b/relu_3x3"
  type: "ReLU"
  bottom: "inception_4b/3x3"
  top: "inception_4b/3x3"
}
layer {
  name: "inception_4b/double3x3a"
  type: "Convolution"
  bottom: "inception_4a/output"
  top: "inception_4b/double3x3a"
  convolution_param {
    num_output: 256
    pad: 1
    kernel_size: 3
  }
}
layer {
  name: "inception_4b/relu_double3x3a"
  type: "ReLU"
  bottom: "inception_4b/double3x3a"
  top: "inception_4b/double3x3a"
}
layer {
  name: "inception_4b/double3x3b"
  type: "Convolution"
  bottom: "inception_4b/double3x3a"
  top: "inception_4b/double3x3b"
  convolution_param {
    num_output: 256
    pad: 1
    kernel_size: 3
  }
}
layer {
  name: "inception_4b/relu_double3x3b"
  type: "ReLU"
  bottom: "inception_4b/double3x3b"
  top: "inception_4b/double3x3b"
}
layer {
  name: "inception_4b/output"
  type: "Concat"
  bottom: "inception_4b/1x1"
  bottom: "inception_4b/3x3"
  bottom: "inception_4b/double3x3b"
  top: "inception_4b/output"
}
layer {
  name: "inception_4c/1x1"
  type: "Convolution"
  bottom: "inception_4b/output"
  top: "inception_4c/1x1"
  convolution_param {
    num_output: 128
    kernel_size: 1
  }
}
layer {
  name: "inception_4c/relu_1x1"
  type: "ReLU"
  bottom: "inception_4c/1x1"
  top: "inception_4c/1x1"
}
layer {
  name: "inception_4c/3x3"
  type: "Convolution"
  bottom: "inception_4b/output"
  top: "inception_4c/3x3"
  convolution_param {
    num_output: 128
    pad: 1
    kernel_size: 3
  }
}
layer {
  name: "inception_4c/relu_3x3"
  type: "ReLU"
  bottom: "inception_4c/3x3"
  top: "inception_4c/3x3"
}
layer {
  name: "inception_4c/double3x3a"
  type: "Convolution"
  bottom: "inception_4b/output"
  top: "inception_4c/double3x3a"
  convolution_param {
    num_output: 256
    pad: 1
    kernel_size: 3
  }
}
layer {
  name: "inception_4c/relu_double3x3a"
  type: "ReLU"
  bottom: "inception_4c/double3x3a"
  top: "inception_4c/double3x3a"
}
layer {
  name: "inception_4c/double3x3b"
  type: "Convolution"
  bottom: "inception_4c/double3x3a"
  top: "inception_4c/double3x3b"
  convolution_param {
    num_output: 256
    pad: 1
    kernel_size: 3
  }
}
layer {
  name: "inception_4c/relu_double3x3b"
  type: "ReLU"
  bottom: "inception_4c/double3x3b"
  top: "inception_4c/double3x3b"
}
layer {
  name: "inception_4c/output"
  type: "Concat"
  bottom: "inception_4c/1x1"
  bottom: "inception_4c/3x3"
  bottom: "inception_4c/double3x3b"
  top: "inception_4c/output"
}
layer {
  name: "inception_4d/1x1"
  type: "Convolution"
  bottom: "inception_4c/output"
  top: "inception_4d/1x1"
  convolution_param {
    num_output: 128
    kernel_size: 1
  }
}
layer {
  name: "inception_4d/relu_1x1"
  type: "ReLU"
  bottom: "inception_4d/1x1"
  top: "inception_4d/1x1"
}
layer {
  name: "inception_4d/3x3"
  type: "Convolution"
  bottom: "inception_4c/output"
  top: "inception_4d/3x3"
  convolution_param {
    num_output: 128
    pad: 1
    kernel_size: 3
  }
}
layer {
  name: "inception_4d/relu_3x3"
  type: "ReLU"
  bottom: "inception_4d/3x3"
  top: "inception_4d/3x3"
}
layer {
  name: "inception_4d/double3x3a"
  type: "Convolution"
  bottom: "inception_4c/output"
  top: "inception_4d/double3x3a"
  convolution_param {
    num_output: 256
    pad: 1
    kernel_size: 3
  }
}
layer {
  name: "inception_4d/relu_double3x3a"
  type: "ReLU"
  bottom: "inception_4d/double3x3a"
  top: "inception_4d/double3x3a"
}
layer {
  name: "inception_4d/double3x3b"
  type: "Convolution"
  bottom: "inception_4d/double3x3a"
  top: "inception_4d/double3x3b"
  convolution_param {
    num_output: 256
    pad: 1
    kernel_size: 3
  }
}
layer {
  name: "inception_4d/relu_double3x3b"
  type: "ReLU"
  bottom: "inception_4d/double3x3b"
  top: "inception_4d/double3x3b"
}
layer {
  name: "inception_4d/output"
  type: "Concat"
  bottom: "inception_4d/1x1"
  bottom: "inception_4d/3x3"
  bottom: "inception_4d/double3x3b"
  top: "inception_4d/output"
}
layer {
  name: "pool4"
  type: "Pooling"
  bottom: "inception_4d/output"
  top: "pool4"
  pooling_param {
    pool: MAX
    kernel_size: 2
    stride: 2
  }
}
layer {
  name: "inception_5a/1x1"
  type: "Convolution"
  bottom: "pool4"
  top: "inception_5a/1x1"
  convolution_param {
    num_output: 128
    kernel_size: 1
  }
}
layer {
  name: "inception_5a/relu_1x1"
  type: "ReLU"
  bottom: "inception_5a/1x1"
  top: "inception_5a/1x1"
}
layer {
  name: "inception_5a/3x3"
  type: "Convolution"
  bottom: "pool4"
  top: "inception_5a/3x3"
  convolution_param {
    num_output: 128
    pad: 1
    kernel_size: 3
  }
}
layer {
  name: "inception_5a/relu_3x3"
  type: "ReLU"
  bottom: "inception_5a/3x3"
  top: "inception_5a/3x3"
}
layer {
  name: "inception_5a/double3x3a"
  type: "Convolution"
  bottom: "pool4"
  top: "inception_5a/double3x3a"
  convolution_param {
    num_output: 256
    pad: 1
    kernel_size: 3
  }
}
layer {
  name: "inception_5a/relu_double3x3a"
  type: "ReLU"
  bottom: "inception_5a/double3x3a"
  top: "inception_5a/double3x3a"
}
layer {
  name: "inception_5a/double3x3b"
  type: "Convolution"
  bottom: "inception_5a/double3x3a"
  top: "inception_5a/double3x3b"
  convolution_param {
    num_output: 256
    pad: 1
    kernel_size: 3
  }
}
layer {
  name: "inception_5a/relu_double3x3b"
  type: "ReLU"
  bottom: "inception_5a/double3x3b"
  top: "inception_5a/double3x3b"
}
layer {
  name: "inception_5a/output"
  type: "Concat"
  bottom: "inception_5a/1x1"
  bottom: "inception_5a/3x3"
  bottom: "inception_5a/double3x3b"
  top: "inception_5a/output"
}
layer {
  name: "inception_5b/1x1"
  type: "Convolution"
  bottom: "inception_5a/output"
  top: "inception_5b/1x1"
  convolution_param {
    num_output: 128
    kernel_size: 1
  }
}
layer {
  name: "inception_5b/relu_1x1"
  type: "ReLU"
  bottom: "inception_5b/1x1"
  top: "inception_5b/1x1"
}
layer {
  name: "inception_5b/3x3"
  type: "Convolution"
  bottom: "inception_5a/output"
  top: "inception_5b/3x3"
  convolution_param {
    num_output: 128
    pad: 1
    kernel_size: 3
  }
}
layer {
  name: "inception_5b/relu_3x3"
  type: "ReLU"
  bottom: "inception_5b/3x3"
  top: "inception_5b/3x3"
}
layer {
  name: "inception_5b/double3x3a"
  type: "Convolution"
  bottom: "inception_5a/output"
  top: "inception_5b/double3x3a"
  convolution_param {
    num_output: 256
    pad: 1
    kernel_size: 3
  }
}
layer {
  name: "inception_5b/relu_double3x3a"
  type: "ReLU"
  bottom: "inception_5b/double3x3a"
  top: "inception_5b/double3x3a"
}
layer {
  name: "inception_5b/double3x3b"
  type: "Convolution"
  bottom: "inception_5b/double3x3a"
  top: "inception_5b/double3x3b"
  convolution_param {
    num_output: 256
    pad: 1
    kernel_size: 3
  }
}
layer {
  name: "inception_5b/relu_double3x3b"
  type: "ReLU"
  bottom: "inception_5b/double3x3b"
  top: "inception_5b/double3x3b"
}
layer {
  name: "inception_5b/output"
  type: "Concat"
  bottom: "inception_5b/1x1"
  bottom: "inception_5b/3x3"
  bottom: "inception_5b/double3x3b"
  top: "inception_5b/output"
}
layer {
  name: "inception_5c/1x1"
  type: "Convolution"
  bottom: "inception_5b/output"
  top: "inception_5c/1x1"
  convolution_param {
    num_output: 128
    kernel_size: 1
  }
}
layer {
  name: "inception_5c/relu_1x1"
  type: "ReLU"
  bottom: "inception_5c/1x1"
  top: "inception_5c/1x1"
}
layer {
  name: "inception_5c/3x3"
  type: "Convolution"
  bottom: "inception_5b/output"
  top: "inception_5c/3x3"
  convolution_param {
    num_output: 128
    pad: 1
    kernel_size: 3
  }
}
layer {
  name: "inception_5c/relu_3x3"
  type: "ReLU"
  bottom: "inception_5c/3x3"
  top: "inception_5c/3x3"
}
layer {
  name: "inception_5c/double3x3a"
  type: "Convolution"
  bottom: "inception_5b/output"
  top: "inception_5c/double3x3a"
  convolution_param {
    num_output: 256
    pad: 1
    kernel_size: 3
  }
}
layer {
  name: "inception_5c/relu_double3x3a"
  type: "ReLU"
  bottom: "inception_5c/double3x3a"
  top: "inception_5c/double3x3a"
}
layer {
  name: "inception_5c/double3x3b"
  type: "Convolution"
  bottom: "inception_5c/double3x3a"
  top: "inception_5c/double3x3b"
  convolution_param {
    num_output: 256
    pad: 1
    kernel_size: 3
  }
}
layer {
  name: "inception_5c/relu_double3x3b"
  type: "ReLU"
  bottom: "inception_5c/double3x3b"
  top: "inception_5c/double3x3b"
}
layer {
  name: "inception_5c/output"
  type: "Concat"
  bottom: "inception_5c/1x1"
  bottom: "inception_5c/3x3"
  bottom: "inception_5c/double3x3b"
  top: "inception_5c/output"
}
layer {
  name: "inception_5d/1x1"
  type: "Convolution"
  bottom: "inception_5c/output"
  top: "inception_5d/1x1"
  convolution_param {
    num_output: 128
    kernel_size: 1
  }
}
layer {
  name: "inception_5d/relu_1x1"
  type: "ReLU"
  bottom: "inception_5d/1x1"
  top: "inception_5d/1x1"
}
layer {
  name: "inception_5d/3x3"
  type: "Convolution"
  bottom: "inception_5c/output"
  top: "inception_5d/3x3"
  convolution_param {
    num_output: 128
    pad: 1
    kernel_size: 3
  }
}
layer {
  name: "inception_5d/relu_3x3"
  type: "ReLU"
  bottom: "inception_5d/3x3"
  top: "inception_5d/3x3"
}
layer {
  name: "inception_5d/double3x3a"
  type: "Convolution"
  bottom: "inception_5c/output"
  top: "inception_5d/double3x3a"
  convolution_param {
    num_output: 256
    pad: 1
    kernel_size: 3
  }
}
layer {
  name: "inception_5d/relu_double3x3a"
  type: "ReLU"
  bottom: "inception_5d/double3x3a"
  top: "inception_5d/double3x3a"
}
layer {
  name: "inception_5d/double3x3b"
  type: "Convolution"
  bottom: "inception_5d/double3x3a"
  top: "inception_5d/double3x3b"
  convolution_param {
    num_output: 256
    pad: 1
    kernel_size: 3
  }
}
layer {
  name: "inception_5d/relu_double3x3b"
  type: "ReLU"
  bottom: "inception_5d/double3x3b"
  top: "inception_5d/double3x3b"
}
layer {
  name: "inception_5d/output"
  type: "Concat"
  bottom: "inception_5d/1x1"
  bottom: "inception_5d/3x3"
  bottom: "inception_5d/double3x3b"
  top: "inception_5d/output"
}
layer {
  name: "pool5/spm7"
  type: "Pooling"
  bottom: "inception_5d/output"
  top: "pool5/spm7"
  pooling_param {
    pool: MAX
    kernel_size: 2
    stride: 2
  }
}
layer {
  name: "pool5/spm7_flatten"
  type: "Flatten"
  bottom: "pool5/spm7"
  top: "pool5/spm7_flatten"
}
layer {
  name: "pool5/spm3"
  type: "Pooling"
  bottom: "inception_5d/output"
  top: "pool5/spm3"
  pooling_param {
    pool: MAX
    kernel_size: 5
    stride: 5
  }
}
layer {
  name: "pool5/spm3_flatten"
  type: "Flatten"
  bottom: "pool5/spm3"
  top: "pool5/spm3_flatten"
}
layer {
  name: "pool5/spm2"
  type: "Pooling"
  bottom: "inception_5d/output"
  top: "pool5/spm2"
  pooling_param {
    pool: MAX
    kernel_size: 7
    stride: 7
  }
}
layer {
  name: "pool5/spm2_flatten"
  type: "Flatten"
  bottom: "pool5/spm2"
  top: "pool5/spm2_flatten"
}
layer {
  name: "pool5/spm1"
  type: "Pooling"
  bottom: "inception_5d/output"
  top: "pool5/spm1"
  pooling_param {
    pool: MAX
    kernel_size: 14
    stride: 14
  }
}
layer {
  name: "pool5/spm1_flatten"
  type: "Flatten"
  bottom: "pool5/spm1"
  top: "pool5/spm1_flatten"
}
layer {
  name: "pool5/spm"
  type: "Concat"
  bottom: "pool5/spm1_flatten"
  bottom: "pool5/spm2_flatten"
  bottom: "pool5/spm3_flatten"
  bottom: "pool5/spm7_flatten"
  top: "pool5/spm"
  concat_param {
    concat_dim: 1
  }
}
layer {
  name: "fc6"
  type: "InnerProduct"
  bottom: "pool5/spm"
  top: "fc6"
  inner_product_param {
    num_output: 4096
  }
}
layer {
  name: "fc6/relu"
  type: "ReLU"
  bottom: "fc6"
  top: "fc6"
}
layer {
  name: "fc6/dropout"
  type: "Dropout"
  bottom: "fc6"
  top: "fc6"
  dropout_param {
    dropout_ratio: 0.5
  }
}
layer {
  name: "fc7"
  type: "InnerProduct"
  bottom: "fc6"
  top: "fc7"
  inner_product_param {
    num_output: 4096
  }
}
layer {
  name: "fc7/relu"
  type: "ReLU"
  bottom: "fc7"
  top: "fc7"
}
layer {
  name: "fc7/dropout"
  type: "Dropout"
  bottom: "fc7"
  top: "fc7"
  dropout_param {
    dropout_ratio: 0.5
  }
}
layer {
  name: "classifier_re"
  type: "InnerProduct"
  bottom: "fc7"
  top: "classifier_re"
  param {
    lr_mult: 10
    decay_mult: 1
  }
  param {
    lr_mult: 20
    decay_mult: 0
  }
  inner_product_param {
    num_output: 80
    weight_filler {
      type: "gaussian"
      std: 0.01
    }
    bias_filler {
      type: "constant"
      value: 0
    }
  }
}
layer {
  name: "loss"
  type: "SoftmaxWithLoss"
  bottom: "classifier_re"
  bottom: "label"
  top: "loss"
}
I1201 03:59:29.189831 18504 layer_factory.hpp:77] Creating layer data
I1201 03:59:29.189890 18504 net.cpp:84] Creating Layer data
I1201 03:59:29.189908 18504 net.cpp:380] data -> data
I1201 03:59:29.189945 18504 net.cpp:380] data -> label
I1201 03:59:29.190527 18504 image_data_layer.cpp:38] Opening file /home/wuxiaodong/data/ai_challenge/ai_challenger_scene_train_20170904_/train.txt
I1201 03:59:29.233038 18504 image_data_layer.cpp:53] Shuffling data
I1201 03:59:29.241034 18504 image_data_layer.cpp:63] A total of 53879 images.
I1201 03:59:29.247756 18504 image_data_layer.cpp:90] output data size: 15,3,224,224
I1201 03:59:29.284267 18504 net.cpp:122] Setting up data
I1201 03:59:29.284327 18504 net.cpp:129] Top shape: 15 3 224 224 (2257920)
I1201 03:59:29.284340 18504 net.cpp:129] Top shape: 15 (15)
I1201 03:59:29.284348 18504 net.cpp:137] Memory required for data: 9031740
I1201 03:59:29.284366 18504 layer_factory.hpp:77] Creating layer conv1
I1201 03:59:29.284409 18504 net.cpp:84] Creating Layer conv1
I1201 03:59:29.284423 18504 net.cpp:406] conv1 <- data
I1201 03:59:29.284454 18504 net.cpp:380] conv1 -> conv1
I1201 03:59:30.202231 18504 net.cpp:122] Setting up conv1
I1201 03:59:30.202296 18504 net.cpp:129] Top shape: 15 128 112 112 (24084480)
I1201 03:59:30.202304 18504 net.cpp:137] Memory required for data: 105369660
I1201 03:59:30.202339 18504 layer_factory.hpp:77] Creating layer conv1/relu
I1201 03:59:30.202365 18504 net.cpp:84] Creating Layer conv1/relu
I1201 03:59:30.202374 18504 net.cpp:406] conv1/relu <- conv1
I1201 03:59:30.202385 18504 net.cpp:367] conv1/relu -> conv1 (in-place)
I1201 03:59:30.202673 18504 net.cpp:122] Setting up conv1/relu
I1201 03:59:30.202687 18504 net.cpp:129] Top shape: 15 128 112 112 (24084480)
I1201 03:59:30.202693 18504 net.cpp:137] Memory required for data: 201707580
I1201 03:59:30.202699 18504 layer_factory.hpp:77] Creating layer pool2
I1201 03:59:30.202724 18504 net.cpp:84] Creating Layer pool2
I1201 03:59:30.202755 18504 net.cpp:406] pool2 <- conv1
I1201 03:59:30.202766 18504 net.cpp:380] pool2 -> pool2
I1201 03:59:30.202853 18504 net.cpp:122] Setting up pool2
I1201 03:59:30.202865 18504 net.cpp:129] Top shape: 15 128 56 56 (6021120)
I1201 03:59:30.202870 18504 net.cpp:137] Memory required for data: 225792060
I1201 03:59:30.202877 18504 layer_factory.hpp:77] Creating layer pool2_pool2_0_split
I1201 03:59:30.202890 18504 net.cpp:84] Creating Layer pool2_pool2_0_split
I1201 03:59:30.202896 18504 net.cpp:406] pool2_pool2_0_split <- pool2
I1201 03:59:30.202904 18504 net.cpp:380] pool2_pool2_0_split -> pool2_pool2_0_split_0
I1201 03:59:30.202917 18504 net.cpp:380] pool2_pool2_0_split -> pool2_pool2_0_split_1
I1201 03:59:30.202929 18504 net.cpp:380] pool2_pool2_0_split -> pool2_pool2_0_split_2
I1201 03:59:30.202983 18504 net.cpp:122] Setting up pool2_pool2_0_split
I1201 03:59:30.202993 18504 net.cpp:129] Top shape: 15 128 56 56 (6021120)
I1201 03:59:30.203001 18504 net.cpp:129] Top shape: 15 128 56 56 (6021120)
I1201 03:59:30.203008 18504 net.cpp:129] Top shape: 15 128 56 56 (6021120)
I1201 03:59:30.203013 18504 net.cpp:137] Memory required for data: 298045500
I1201 03:59:30.203021 18504 layer_factory.hpp:77] Creating layer inception_3a/1x1
I1201 03:59:30.203037 18504 net.cpp:84] Creating Layer inception_3a/1x1
I1201 03:59:30.203042 18504 net.cpp:406] inception_3a/1x1 <- pool2_pool2_0_split_0
I1201 03:59:30.203053 18504 net.cpp:380] inception_3a/1x1 -> inception_3a/1x1
I1201 03:59:30.206054 18504 net.cpp:122] Setting up inception_3a/1x1
I1201 03:59:30.206079 18504 net.cpp:129] Top shape: 15 64 56 56 (3010560)
I1201 03:59:30.206084 18504 net.cpp:137] Memory required for data: 310087740
I1201 03:59:30.206099 18504 layer_factory.hpp:77] Creating layer inception_3a/relu_1x1
I1201 03:59:30.206120 18504 net.cpp:84] Creating Layer inception_3a/relu_1x1
I1201 03:59:30.206126 18504 net.cpp:406] inception_3a/relu_1x1 <- inception_3a/1x1
I1201 03:59:30.206135 18504 net.cpp:367] inception_3a/relu_1x1 -> inception_3a/1x1 (in-place)
I1201 03:59:30.208423 18504 net.cpp:122] Setting up inception_3a/relu_1x1
I1201 03:59:30.208451 18504 net.cpp:129] Top shape: 15 64 56 56 (3010560)
I1201 03:59:30.208457 18504 net.cpp:137] Memory required for data: 322129980
I1201 03:59:30.208463 18504 layer_factory.hpp:77] Creating layer inception_3a/3x3
I1201 03:59:30.208477 18504 net.cpp:84] Creating Layer inception_3a/3x3
I1201 03:59:30.208484 18504 net.cpp:406] inception_3a/3x3 <- pool2_pool2_0_split_1
I1201 03:59:30.208497 18504 net.cpp:380] inception_3a/3x3 -> inception_3a/3x3
I1201 03:59:30.211412 18504 net.cpp:122] Setting up inception_3a/3x3
I1201 03:59:30.211432 18504 net.cpp:129] Top shape: 15 64 56 56 (3010560)
I1201 03:59:30.211438 18504 net.cpp:137] Memory required for data: 334172220
I1201 03:59:30.211454 18504 layer_factory.hpp:77] Creating layer inception_3a/relu_3x3
I1201 03:59:30.211467 18504 net.cpp:84] Creating Layer inception_3a/relu_3x3
I1201 03:59:30.211474 18504 net.cpp:406] inception_3a/relu_3x3 <- inception_3a/3x3
I1201 03:59:30.211483 18504 net.cpp:367] inception_3a/relu_3x3 -> inception_3a/3x3 (in-place)
I1201 03:59:30.212426 18504 net.cpp:122] Setting up inception_3a/relu_3x3
I1201 03:59:30.212445 18504 net.cpp:129] Top shape: 15 64 56 56 (3010560)
I1201 03:59:30.212450 18504 net.cpp:137] Memory required for data: 346214460
I1201 03:59:30.212460 18504 layer_factory.hpp:77] Creating layer inception_3a/double3x3a
I1201 03:59:30.212472 18504 net.cpp:84] Creating Layer inception_3a/double3x3a
I1201 03:59:30.212479 18504 net.cpp:406] inception_3a/double3x3a <- pool2_pool2_0_split_2
I1201 03:59:30.212489 18504 net.cpp:380] inception_3a/double3x3a -> inception_3a/double3x3a
I1201 03:59:30.216154 18504 net.cpp:122] Setting up inception_3a/double3x3a
I1201 03:59:30.216212 18504 net.cpp:129] Top shape: 15 128 56 56 (6021120)
I1201 03:59:30.216225 18504 net.cpp:137] Memory required for data: 370298940
I1201 03:59:30.216248 18504 layer_factory.hpp:77] Creating layer inception_3a/relu_double3x3a
I1201 03:59:30.216287 18504 net.cpp:84] Creating Layer inception_3a/relu_double3x3a
I1201 03:59:30.216336 18504 net.cpp:406] inception_3a/relu_double3x3a <- inception_3a/double3x3a
I1201 03:59:30.216356 18504 net.cpp:367] inception_3a/relu_double3x3a -> inception_3a/double3x3a (in-place)
I1201 03:59:30.216734 18504 net.cpp:122] Setting up inception_3a/relu_double3x3a
I1201 03:59:30.216755 18504 net.cpp:129] Top shape: 15 128 56 56 (6021120)
I1201 03:59:30.216766 18504 net.cpp:137] Memory required for data: 394383420
I1201 03:59:30.216776 18504 layer_factory.hpp:77] Creating layer inception_3a/double3x3b
I1201 03:59:30.216799 18504 net.cpp:84] Creating Layer inception_3a/double3x3b
I1201 03:59:30.216809 18504 net.cpp:406] inception_3a/double3x3b <- inception_3a/double3x3a
I1201 03:59:30.216828 18504 net.cpp:380] inception_3a/double3x3b -> inception_3a/double3x3b
I1201 03:59:30.221020 18504 net.cpp:122] Setting up inception_3a/double3x3b
I1201 03:59:30.221060 18504 net.cpp:129] Top shape: 15 128 56 56 (6021120)
I1201 03:59:30.221071 18504 net.cpp:137] Memory required for data: 418467900
I1201 03:59:30.221123 18504 layer_factory.hpp:77] Creating layer inception_3a/relu_double3x3b
I1201 03:59:30.221143 18504 net.cpp:84] Creating Layer inception_3a/relu_double3x3b
I1201 03:59:30.221154 18504 net.cpp:406] inception_3a/relu_double3x3b <- inception_3a/double3x3b
I1201 03:59:30.221170 18504 net.cpp:367] inception_3a/relu_double3x3b -> inception_3a/double3x3b (in-place)
I1201 03:59:30.221562 18504 net.cpp:122] Setting up inception_3a/relu_double3x3b
I1201 03:59:30.221583 18504 net.cpp:129] Top shape: 15 128 56 56 (6021120)
I1201 03:59:30.221593 18504 net.cpp:137] Memory required for data: 442552380
I1201 03:59:30.221602 18504 layer_factory.hpp:77] Creating layer inception_3a/output
I1201 03:59:30.221619 18504 net.cpp:84] Creating Layer inception_3a/output
I1201 03:59:30.221629 18504 net.cpp:406] inception_3a/output <- inception_3a/1x1
I1201 03:59:30.221654 18504 net.cpp:406] inception_3a/output <- inception_3a/3x3
I1201 03:59:30.221668 18504 net.cpp:406] inception_3a/output <- inception_3a/double3x3b
I1201 03:59:30.221690 18504 net.cpp:380] inception_3a/output -> inception_3a/output
I1201 03:59:30.221752 18504 net.cpp:122] Setting up inception_3a/output
I1201 03:59:30.221771 18504 net.cpp:129] Top shape: 15 256 56 56 (12042240)
I1201 03:59:30.221781 18504 net.cpp:137] Memory required for data: 490721340
I1201 03:59:30.221791 18504 layer_factory.hpp:77] Creating layer inception_3a/output_inception_3a/output_0_split
I1201 03:59:30.221807 18504 net.cpp:84] Creating Layer inception_3a/output_inception_3a/output_0_split
I1201 03:59:30.221817 18504 net.cpp:406] inception_3a/output_inception_3a/output_0_split <- inception_3a/output
I1201 03:59:30.221830 18504 net.cpp:380] inception_3a/output_inception_3a/output_0_split -> inception_3a/output_inception_3a/output_0_split_0
I1201 03:59:30.221851 18504 net.cpp:380] inception_3a/output_inception_3a/output_0_split -> inception_3a/output_inception_3a/output_0_split_1
I1201 03:59:30.221868 18504 net.cpp:380] inception_3a/output_inception_3a/output_0_split -> inception_3a/output_inception_3a/output_0_split_2
I1201 03:59:30.221972 18504 net.cpp:122] Setting up inception_3a/output_inception_3a/output_0_split
I1201 03:59:30.221989 18504 net.cpp:129] Top shape: 15 256 56 56 (12042240)
I1201 03:59:30.222003 18504 net.cpp:129] Top shape: 15 256 56 56 (12042240)
I1201 03:59:30.222015 18504 net.cpp:129] Top shape: 15 256 56 56 (12042240)
I1201 03:59:30.222024 18504 net.cpp:137] Memory required for data: 635228220
I1201 03:59:30.222033 18504 layer_factory.hpp:77] Creating layer inception_3b/1x1
I1201 03:59:30.222061 18504 net.cpp:84] Creating Layer inception_3b/1x1
I1201 03:59:30.222072 18504 net.cpp:406] inception_3b/1x1 <- inception_3a/output_inception_3a/output_0_split_0
I1201 03:59:30.222090 18504 net.cpp:380] inception_3b/1x1 -> inception_3b/1x1
I1201 03:59:30.225227 18504 net.cpp:122] Setting up inception_3b/1x1
I1201 03:59:30.225252 18504 net.cpp:129] Top shape: 15 64 56 56 (3010560)
I1201 03:59:30.225270 18504 net.cpp:137] Memory required for data: 647270460
I1201 03:59:30.225301 18504 layer_factory.hpp:77] Creating layer inception_3b/relu_1x1
I1201 03:59:30.225318 18504 net.cpp:84] Creating Layer inception_3b/relu_1x1
I1201 03:59:30.225327 18504 net.cpp:406] inception_3b/relu_1x1 <- inception_3b/1x1
I1201 03:59:30.225338 18504 net.cpp:367] inception_3b/relu_1x1 -> inception_3b/1x1 (in-place)
I1201 03:59:30.225564 18504 net.cpp:122] Setting up inception_3b/relu_1x1
I1201 03:59:30.225577 18504 net.cpp:129] Top shape: 15 64 56 56 (3010560)
I1201 03:59:30.225584 18504 net.cpp:137] Memory required for data: 659312700
I1201 03:59:30.225589 18504 layer_factory.hpp:77] Creating layer inception_3b/3x3
I1201 03:59:30.225601 18504 net.cpp:84] Creating Layer inception_3b/3x3
I1201 03:59:30.225608 18504 net.cpp:406] inception_3b/3x3 <- inception_3a/output_inception_3a/output_0_split_1
I1201 03:59:30.225620 18504 net.cpp:380] inception_3b/3x3 -> inception_3b/3x3
I1201 03:59:30.228092 18504 net.cpp:122] Setting up inception_3b/3x3
I1201 03:59:30.228111 18504 net.cpp:129] Top shape: 15 64 56 56 (3010560)
I1201 03:59:30.228118 18504 net.cpp:137] Memory required for data: 671354940
I1201 03:59:30.228137 18504 layer_factory.hpp:77] Creating layer inception_3b/relu_3x3
I1201 03:59:30.228148 18504 net.cpp:84] Creating Layer inception_3b/relu_3x3
I1201 03:59:30.228154 18504 net.cpp:406] inception_3b/relu_3x3 <- inception_3b/3x3
I1201 03:59:30.228165 18504 net.cpp:367] inception_3b/relu_3x3 -> inception_3b/3x3 (in-place)
I1201 03:59:30.228389 18504 net.cpp:122] Setting up inception_3b/relu_3x3
I1201 03:59:30.228402 18504 net.cpp:129] Top shape: 15 64 56 56 (3010560)
I1201 03:59:30.228407 18504 net.cpp:137] Memory required for data: 683397180
I1201 03:59:30.228413 18504 layer_factory.hpp:77] Creating layer inception_3b/double3x3a
I1201 03:59:30.228428 18504 net.cpp:84] Creating Layer inception_3b/double3x3a
I1201 03:59:30.228435 18504 net.cpp:406] inception_3b/double3x3a <- inception_3a/output_inception_3a/output_0_split_2
I1201 03:59:30.228447 18504 net.cpp:380] inception_3b/double3x3a -> inception_3b/double3x3a
I1201 03:59:30.232946 18504 net.cpp:122] Setting up inception_3b/double3x3a
I1201 03:59:30.232988 18504 net.cpp:129] Top shape: 15 128 56 56 (6021120)
I1201 03:59:30.233008 18504 net.cpp:137] Memory required for data: 707481660
I1201 03:59:30.233038 18504 layer_factory.hpp:77] Creating layer inception_3b/relu_double3x3a
I1201 03:59:30.233059 18504 net.cpp:84] Creating Layer inception_3b/relu_double3x3a
I1201 03:59:30.233073 18504 net.cpp:406] inception_3b/relu_double3x3a <- inception_3b/double3x3a
I1201 03:59:30.233088 18504 net.cpp:367] inception_3b/relu_double3x3a -> inception_3b/double3x3a (in-place)
I1201 03:59:30.234557 18504 net.cpp:122] Setting up inception_3b/relu_double3x3a
I1201 03:59:30.234586 18504 net.cpp:129] Top shape: 15 128 56 56 (6021120)
I1201 03:59:30.234596 18504 net.cpp:137] Memory required for data: 731566140
I1201 03:59:30.234606 18504 layer_factory.hpp:77] Creating layer inception_3b/double3x3b
I1201 03:59:30.234629 18504 net.cpp:84] Creating Layer inception_3b/double3x3b
I1201 03:59:30.234640 18504 net.cpp:406] inception_3b/double3x3b <- inception_3b/double3x3a
I1201 03:59:30.234658 18504 net.cpp:380] inception_3b/double3x3b -> inception_3b/double3x3b
I1201 03:59:30.237574 18504 net.cpp:122] Setting up inception_3b/double3x3b
I1201 03:59:30.237603 18504 net.cpp:129] Top shape: 15 128 56 56 (6021120)
I1201 03:59:30.237612 18504 net.cpp:137] Memory required for data: 755650620
I1201 03:59:30.237639 18504 layer_factory.hpp:77] Creating layer inception_3b/relu_double3x3b
I1201 03:59:30.237656 18504 net.cpp:84] Creating Layer inception_3b/relu_double3x3b
I1201 03:59:30.237668 18504 net.cpp:406] inception_3b/relu_double3x3b <- inception_3b/double3x3b
I1201 03:59:30.237680 18504 net.cpp:367] inception_3b/relu_double3x3b -> inception_3b/double3x3b (in-place)
I1201 03:59:30.239095 18504 net.cpp:122] Setting up inception_3b/relu_double3x3b
I1201 03:59:30.239126 18504 net.cpp:129] Top shape: 15 128 56 56 (6021120)
I1201 03:59:30.239145 18504 net.cpp:137] Memory required for data: 779735100
I1201 03:59:30.239190 18504 layer_factory.hpp:77] Creating layer inception_3b/output
I1201 03:59:30.239208 18504 net.cpp:84] Creating Layer inception_3b/output
I1201 03:59:30.239218 18504 net.cpp:406] inception_3b/output <- inception_3b/1x1
I1201 03:59:30.239230 18504 net.cpp:406] inception_3b/output <- inception_3b/3x3
I1201 03:59:30.239241 18504 net.cpp:406] inception_3b/output <- inception_3b/double3x3b
I1201 03:59:30.239259 18504 net.cpp:380] inception_3b/output -> inception_3b/output
I1201 03:59:30.239320 18504 net.cpp:122] Setting up inception_3b/output
I1201 03:59:30.239336 18504 net.cpp:129] Top shape: 15 256 56 56 (12042240)
I1201 03:59:30.239344 18504 net.cpp:137] Memory required for data: 827904060
I1201 03:59:30.239353 18504 layer_factory.hpp:77] Creating layer inception_3b/output_inception_3b/output_0_split
I1201 03:59:30.239370 18504 net.cpp:84] Creating Layer inception_3b/output_inception_3b/output_0_split
I1201 03:59:30.239379 18504 net.cpp:406] inception_3b/output_inception_3b/output_0_split <- inception_3b/output
I1201 03:59:30.239395 18504 net.cpp:380] inception_3b/output_inception_3b/output_0_split -> inception_3b/output_inception_3b/output_0_split_0
I1201 03:59:30.239413 18504 net.cpp:380] inception_3b/output_inception_3b/output_0_split -> inception_3b/output_inception_3b/output_0_split_1
I1201 03:59:30.239428 18504 net.cpp:380] inception_3b/output_inception_3b/output_0_split -> inception_3b/output_inception_3b/output_0_split_2
I1201 03:59:30.239527 18504 net.cpp:122] Setting up inception_3b/output_inception_3b/output_0_split
I1201 03:59:30.239542 18504 net.cpp:129] Top shape: 15 256 56 56 (12042240)
I1201 03:59:30.239555 18504 net.cpp:129] Top shape: 15 256 56 56 (12042240)
I1201 03:59:30.239565 18504 net.cpp:129] Top shape: 15 256 56 56 (12042240)
I1201 03:59:30.239574 18504 net.cpp:137] Memory required for data: 972410940
I1201 03:59:30.239583 18504 layer_factory.hpp:77] Creating layer inception_3c/1x1
I1201 03:59:30.239601 18504 net.cpp:84] Creating Layer inception_3c/1x1
I1201 03:59:30.239611 18504 net.cpp:406] inception_3c/1x1 <- inception_3b/output_inception_3b/output_0_split_0
I1201 03:59:30.239624 18504 net.cpp:380] inception_3c/1x1 -> inception_3c/1x1
I1201 03:59:30.242133 18504 net.cpp:122] Setting up inception_3c/1x1
I1201 03:59:30.242163 18504 net.cpp:129] Top shape: 15 64 56 56 (3010560)
I1201 03:59:30.242172 18504 net.cpp:137] Memory required for data: 984453180
I1201 03:59:30.242187 18504 layer_factory.hpp:77] Creating layer inception_3c/relu_1x1
I1201 03:59:30.242213 18504 net.cpp:84] Creating Layer inception_3c/relu_1x1
I1201 03:59:30.242225 18504 net.cpp:406] inception_3c/relu_1x1 <- inception_3c/1x1
I1201 03:59:30.242244 18504 net.cpp:367] inception_3c/relu_1x1 -> inception_3c/1x1 (in-place)
I1201 03:59:30.242565 18504 net.cpp:122] Setting up inception_3c/relu_1x1
I1201 03:59:30.242583 18504 net.cpp:129] Top shape: 15 64 56 56 (3010560)
I1201 03:59:30.242593 18504 net.cpp:137] Memory required for data: 996495420
I1201 03:59:30.242601 18504 layer_factory.hpp:77] Creating layer inception_3c/3x3
I1201 03:59:30.242619 18504 net.cpp:84] Creating Layer inception_3c/3x3
I1201 03:59:30.242627 18504 net.cpp:406] inception_3c/3x3 <- inception_3b/output_inception_3b/output_0_split_1
I1201 03:59:30.242646 18504 net.cpp:380] inception_3c/3x3 -> inception_3c/3x3
I1201 03:59:30.251214 18504 net.cpp:122] Setting up inception_3c/3x3
I1201 03:59:30.251236 18504 net.cpp:129] Top shape: 15 64 56 56 (3010560)
I1201 03:59:30.251242 18504 net.cpp:137] Memory required for data: 1008537660
I1201 03:59:30.251255 18504 layer_factory.hpp:77] Creating layer inception_3c/relu_3x3
I1201 03:59:30.251265 18504 net.cpp:84] Creating Layer inception_3c/relu_3x3
I1201 03:59:30.251272 18504 net.cpp:406] inception_3c/relu_3x3 <- inception_3c/3x3
I1201 03:59:30.251282 18504 net.cpp:367] inception_3c/relu_3x3 -> inception_3c/3x3 (in-place)
I1201 03:59:30.251523 18504 net.cpp:122] Setting up inception_3c/relu_3x3
I1201 03:59:30.251535 18504 net.cpp:129] Top shape: 15 64 56 56 (3010560)
I1201 03:59:30.251562 18504 net.cpp:137] Memory required for data: 1020579900
I1201 03:59:30.251569 18504 layer_factory.hpp:77] Creating layer inception_3c/double3x3a
I1201 03:59:30.251583 18504 net.cpp:84] Creating Layer inception_3c/double3x3a
I1201 03:59:30.251590 18504 net.cpp:406] inception_3c/double3x3a <- inception_3b/output_inception_3b/output_0_split_2
I1201 03:59:30.251602 18504 net.cpp:380] inception_3c/double3x3a -> inception_3c/double3x3a
I1201 03:59:30.256350 18504 net.cpp:122] Setting up inception_3c/double3x3a
I1201 03:59:30.256387 18504 net.cpp:129] Top shape: 15 128 56 56 (6021120)
I1201 03:59:30.256397 18504 net.cpp:137] Memory required for data: 1044664380
I1201 03:59:30.256427 18504 layer_factory.hpp:77] Creating layer inception_3c/relu_double3x3a
I1201 03:59:30.256443 18504 net.cpp:84] Creating Layer inception_3c/relu_double3x3a
I1201 03:59:30.256456 18504 net.cpp:406] inception_3c/relu_double3x3a <- inception_3c/double3x3a
I1201 03:59:30.256471 18504 net.cpp:367] inception_3c/relu_double3x3a -> inception_3c/double3x3a (in-place)
I1201 03:59:30.256816 18504 net.cpp:122] Setting up inception_3c/relu_double3x3a
I1201 03:59:30.256834 18504 net.cpp:129] Top shape: 15 128 56 56 (6021120)
I1201 03:59:30.256844 18504 net.cpp:137] Memory required for data: 1068748860
I1201 03:59:30.256852 18504 layer_factory.hpp:77] Creating layer inception_3c/double3x3b
I1201 03:59:30.256870 18504 net.cpp:84] Creating Layer inception_3c/double3x3b
I1201 03:59:30.256880 18504 net.cpp:406] inception_3c/double3x3b <- inception_3c/double3x3a
I1201 03:59:30.256894 18504 net.cpp:380] inception_3c/double3x3b -> inception_3c/double3x3b
I1201 03:59:30.264438 18504 net.cpp:122] Setting up inception_3c/double3x3b
I1201 03:59:30.264467 18504 net.cpp:129] Top shape: 15 128 56 56 (6021120)
I1201 03:59:30.264477 18504 net.cpp:137] Memory required for data: 1092833340
I1201 03:59:30.264492 18504 layer_factory.hpp:77] Creating layer inception_3c/relu_double3x3b
I1201 03:59:30.264524 18504 net.cpp:84] Creating Layer inception_3c/relu_double3x3b
I1201 03:59:30.264534 18504 net.cpp:406] inception_3c/relu_double3x3b <- inception_3c/double3x3b
I1201 03:59:30.264547 18504 net.cpp:367] inception_3c/relu_double3x3b -> inception_3c/double3x3b (in-place)
I1201 03:59:30.264866 18504 net.cpp:122] Setting up inception_3c/relu_double3x3b
I1201 03:59:30.264883 18504 net.cpp:129] Top shape: 15 128 56 56 (6021120)
I1201 03:59:30.264891 18504 net.cpp:137] Memory required for data: 1116917820
I1201 03:59:30.264899 18504 layer_factory.hpp:77] Creating layer inception_3c/output
I1201 03:59:30.264930 18504 net.cpp:84] Creating Layer inception_3c/output
I1201 03:59:30.264938 18504 net.cpp:406] inception_3c/output <- inception_3c/1x1
I1201 03:59:30.264948 18504 net.cpp:406] inception_3c/output <- inception_3c/3x3
I1201 03:59:30.264957 18504 net.cpp:406] inception_3c/output <- inception_3c/double3x3b
I1201 03:59:30.264973 18504 net.cpp:380] inception_3c/output -> inception_3c/output
I1201 03:59:30.265029 18504 net.cpp:122] Setting up inception_3c/output
I1201 03:59:30.265043 18504 net.cpp:129] Top shape: 15 256 56 56 (12042240)
I1201 03:59:30.265050 18504 net.cpp:137] Memory required for data: 1165086780
I1201 03:59:30.265060 18504 layer_factory.hpp:77] Creating layer inception_3c/output_inception_3c/output_0_split
I1201 03:59:30.265072 18504 net.cpp:84] Creating Layer inception_3c/output_inception_3c/output_0_split
I1201 03:59:30.265080 18504 net.cpp:406] inception_3c/output_inception_3c/output_0_split <- inception_3c/output
I1201 03:59:30.265095 18504 net.cpp:380] inception_3c/output_inception_3c/output_0_split -> inception_3c/output_inception_3c/output_0_split_0
I1201 03:59:30.265110 18504 net.cpp:380] inception_3c/output_inception_3c/output_0_split -> inception_3c/output_inception_3c/output_0_split_1
I1201 03:59:30.265125 18504 net.cpp:380] inception_3c/output_inception_3c/output_0_split -> inception_3c/output_inception_3c/output_0_split_2
I1201 03:59:30.265215 18504 net.cpp:122] Setting up inception_3c/output_inception_3c/output_0_split
I1201 03:59:30.265238 18504 net.cpp:129] Top shape: 15 256 56 56 (12042240)
I1201 03:59:30.265267 18504 net.cpp:129] Top shape: 15 256 56 56 (12042240)
I1201 03:59:30.265277 18504 net.cpp:129] Top shape: 15 256 56 56 (12042240)
I1201 03:59:30.265285 18504 net.cpp:137] Memory required for data: 1309593660
I1201 03:59:30.265292 18504 layer_factory.hpp:77] Creating layer inception_3d/1x1
I1201 03:59:30.265310 18504 net.cpp:84] Creating Layer inception_3d/1x1
I1201 03:59:30.265318 18504 net.cpp:406] inception_3d/1x1 <- inception_3c/output_inception_3c/output_0_split_0
I1201 03:59:30.265331 18504 net.cpp:380] inception_3d/1x1 -> inception_3d/1x1
I1201 03:59:30.268636 18504 net.cpp:122] Setting up inception_3d/1x1
I1201 03:59:30.268668 18504 net.cpp:129] Top shape: 15 64 56 56 (3010560)
I1201 03:59:30.268677 18504 net.cpp:137] Memory required for data: 1321635900
I1201 03:59:30.268690 18504 layer_factory.hpp:77] Creating layer inception_3d/relu_1x1
I1201 03:59:30.268703 18504 net.cpp:84] Creating Layer inception_3d/relu_1x1
I1201 03:59:30.268714 18504 net.cpp:406] inception_3d/relu_1x1 <- inception_3d/1x1
I1201 03:59:30.268728 18504 net.cpp:367] inception_3d/relu_1x1 -> inception_3d/1x1 (in-place)
I1201 03:59:30.269976 18504 net.cpp:122] Setting up inception_3d/relu_1x1
I1201 03:59:30.270000 18504 net.cpp:129] Top shape: 15 64 56 56 (3010560)
I1201 03:59:30.270009 18504 net.cpp:137] Memory required for data: 1333678140
I1201 03:59:30.270030 18504 layer_factory.hpp:77] Creating layer inception_3d/3x3
I1201 03:59:30.270048 18504 net.cpp:84] Creating Layer inception_3d/3x3
I1201 03:59:30.270058 18504 net.cpp:406] inception_3d/3x3 <- inception_3c/output_inception_3c/output_0_split_1
I1201 03:59:30.270074 18504 net.cpp:380] inception_3d/3x3 -> inception_3d/3x3
I1201 03:59:30.272588 18504 net.cpp:122] Setting up inception_3d/3x3
I1201 03:59:30.272625 18504 net.cpp:129] Top shape: 15 64 56 56 (3010560)
I1201 03:59:30.272634 18504 net.cpp:137] Memory required for data: 1345720380
I1201 03:59:30.272649 18504 layer_factory.hpp:77] Creating layer inception_3d/relu_3x3
I1201 03:59:30.272665 18504 net.cpp:84] Creating Layer inception_3d/relu_3x3
I1201 03:59:30.272673 18504 net.cpp:406] inception_3d/relu_3x3 <- inception_3d/3x3
I1201 03:59:30.272684 18504 net.cpp:367] inception_3d/relu_3x3 -> inception_3d/3x3 (in-place)
I1201 03:59:30.277191 18504 net.cpp:122] Setting up inception_3d/relu_3x3
I1201 03:59:30.277220 18504 net.cpp:129] Top shape: 15 64 56 56 (3010560)
I1201 03:59:30.277228 18504 net.cpp:137] Memory required for data: 1357762620
I1201 03:59:30.277236 18504 layer_factory.hpp:77] Creating layer inception_3d/double3x3a
I1201 03:59:30.277254 18504 net.cpp:84] Creating Layer inception_3d/double3x3a
I1201 03:59:30.277264 18504 net.cpp:406] inception_3d/double3x3a <- inception_3c/output_inception_3c/output_0_split_2
I1201 03:59:30.277278 18504 net.cpp:380] inception_3d/double3x3a -> inception_3d/double3x3a
I1201 03:59:30.282135 18504 net.cpp:122] Setting up inception_3d/double3x3a
I1201 03:59:30.282166 18504 net.cpp:129] Top shape: 15 128 56 56 (6021120)
I1201 03:59:30.282174 18504 net.cpp:137] Memory required for data: 1381847100
I1201 03:59:30.282188 18504 layer_factory.hpp:77] Creating layer inception_3d/relu_double3x3a
I1201 03:59:30.282217 18504 net.cpp:84] Creating Layer inception_3d/relu_double3x3a
I1201 03:59:30.282227 18504 net.cpp:406] inception_3d/relu_double3x3a <- inception_3d/double3x3a
I1201 03:59:30.282240 18504 net.cpp:367] inception_3d/relu_double3x3a -> inception_3d/double3x3a (in-place)
I1201 03:59:30.282541 18504 net.cpp:122] Setting up inception_3d/relu_double3x3a
I1201 03:59:30.282557 18504 net.cpp:129] Top shape: 15 128 56 56 (6021120)
I1201 03:59:30.282565 18504 net.cpp:137] Memory required for data: 1405931580
I1201 03:59:30.282573 18504 layer_factory.hpp:77] Creating layer inception_3d/double3x3b
I1201 03:59:30.282589 18504 net.cpp:84] Creating Layer inception_3d/double3x3b
I1201 03:59:30.282598 18504 net.cpp:406] inception_3d/double3x3b <- inception_3d/double3x3a
I1201 03:59:30.282618 18504 net.cpp:380] inception_3d/double3x3b -> inception_3d/double3x3b
I1201 03:59:30.285866 18504 net.cpp:122] Setting up inception_3d/double3x3b
I1201 03:59:30.285890 18504 net.cpp:129] Top shape: 15 128 56 56 (6021120)
I1201 03:59:30.285898 18504 net.cpp:137] Memory required for data: 1430016060
I1201 03:59:30.285923 18504 layer_factory.hpp:77] Creating layer inception_3d/relu_double3x3b
I1201 03:59:30.285938 18504 net.cpp:84] Creating Layer inception_3d/relu_double3x3b
I1201 03:59:30.285945 18504 net.cpp:406] inception_3d/relu_double3x3b <- inception_3d/double3x3b
I1201 03:59:30.285959 18504 net.cpp:367] inception_3d/relu_double3x3b -> inception_3d/double3x3b (in-place)
I1201 03:59:30.286278 18504 net.cpp:122] Setting up inception_3d/relu_double3x3b
I1201 03:59:30.286294 18504 net.cpp:129] Top shape: 15 128 56 56 (6021120)
I1201 03:59:30.286301 18504 net.cpp:137] Memory required for data: 1454100540
I1201 03:59:30.286309 18504 layer_factory.hpp:77] Creating layer inception_3d/output
I1201 03:59:30.286320 18504 net.cpp:84] Creating Layer inception_3d/output
I1201 03:59:30.286329 18504 net.cpp:406] inception_3d/output <- inception_3d/1x1
I1201 03:59:30.286339 18504 net.cpp:406] inception_3d/output <- inception_3d/3x3
I1201 03:59:30.286346 18504 net.cpp:406] inception_3d/output <- inception_3d/double3x3b
I1201 03:59:30.286361 18504 net.cpp:380] inception_3d/output -> inception_3d/output
I1201 03:59:30.286412 18504 net.cpp:122] Setting up inception_3d/output
I1201 03:59:30.286425 18504 net.cpp:129] Top shape: 15 256 56 56 (12042240)
I1201 03:59:30.286432 18504 net.cpp:137] Memory required for data: 1502269500
I1201 03:59:30.286451 18504 layer_factory.hpp:77] Creating layer pool3
I1201 03:59:30.286465 18504 net.cpp:84] Creating Layer pool3
I1201 03:59:30.286473 18504 net.cpp:406] pool3 <- inception_3d/output
I1201 03:59:30.286487 18504 net.cpp:380] pool3 -> pool3
I1201 03:59:30.286557 18504 net.cpp:122] Setting up pool3
I1201 03:59:30.286571 18504 net.cpp:129] Top shape: 15 256 28 28 (3010560)
I1201 03:59:30.286578 18504 net.cpp:137] Memory required for data: 1514311740
I1201 03:59:30.286584 18504 layer_factory.hpp:77] Creating layer pool3_pool3_0_split
I1201 03:59:30.286598 18504 net.cpp:84] Creating Layer pool3_pool3_0_split
I1201 03:59:30.286607 18504 net.cpp:406] pool3_pool3_0_split <- pool3
I1201 03:59:30.286617 18504 net.cpp:380] pool3_pool3_0_split -> pool3_pool3_0_split_0
I1201 03:59:30.286629 18504 net.cpp:380] pool3_pool3_0_split -> pool3_pool3_0_split_1
I1201 03:59:30.286644 18504 net.cpp:380] pool3_pool3_0_split -> pool3_pool3_0_split_2
I1201 03:59:30.286725 18504 net.cpp:122] Setting up pool3_pool3_0_split
I1201 03:59:30.286736 18504 net.cpp:129] Top shape: 15 256 28 28 (3010560)
I1201 03:59:30.286744 18504 net.cpp:129] Top shape: 15 256 28 28 (3010560)
I1201 03:59:30.286754 18504 net.cpp:129] Top shape: 15 256 28 28 (3010560)
I1201 03:59:30.286761 18504 net.cpp:137] Memory required for data: 1550438460
I1201 03:59:30.286767 18504 layer_factory.hpp:77] Creating layer inception_4a/1x1
I1201 03:59:30.286783 18504 net.cpp:84] Creating Layer inception_4a/1x1
I1201 03:59:30.286793 18504 net.cpp:406] inception_4a/1x1 <- pool3_pool3_0_split_0
I1201 03:59:30.286805 18504 net.cpp:380] inception_4a/1x1 -> inception_4a/1x1
I1201 03:59:30.290374 18504 net.cpp:122] Setting up inception_4a/1x1
I1201 03:59:30.290396 18504 net.cpp:129] Top shape: 15 128 28 28 (1505280)
I1201 03:59:30.290405 18504 net.cpp:137] Memory required for data: 1556459580
I1201 03:59:30.290416 18504 layer_factory.hpp:77] Creating layer inception_4a/relu_1x1
I1201 03:59:30.290428 18504 net.cpp:84] Creating Layer inception_4a/relu_1x1
I1201 03:59:30.290436 18504 net.cpp:406] inception_4a/relu_1x1 <- inception_4a/1x1
I1201 03:59:30.290457 18504 net.cpp:367] inception_4a/relu_1x1 -> inception_4a/1x1 (in-place)
I1201 03:59:30.290758 18504 net.cpp:122] Setting up inception_4a/relu_1x1
I1201 03:59:30.290773 18504 net.cpp:129] Top shape: 15 128 28 28 (1505280)
I1201 03:59:30.290781 18504 net.cpp:137] Memory required for data: 1562480700
I1201 03:59:30.290807 18504 layer_factory.hpp:77] Creating layer inception_4a/3x3
I1201 03:59:30.290838 18504 net.cpp:84] Creating Layer inception_4a/3x3
I1201 03:59:30.290848 18504 net.cpp:406] inception_4a/3x3 <- pool3_pool3_0_split_1
I1201 03:59:30.290861 18504 net.cpp:380] inception_4a/3x3 -> inception_4a/3x3
I1201 03:59:30.297363 18504 net.cpp:122] Setting up inception_4a/3x3
I1201 03:59:30.297391 18504 net.cpp:129] Top shape: 15 128 28 28 (1505280)
I1201 03:59:30.297400 18504 net.cpp:137] Memory required for data: 1568501820
I1201 03:59:30.297412 18504 layer_factory.hpp:77] Creating layer inception_4a/relu_3x3
I1201 03:59:30.297425 18504 net.cpp:84] Creating Layer inception_4a/relu_3x3
I1201 03:59:30.297435 18504 net.cpp:406] inception_4a/relu_3x3 <- inception_4a/3x3
I1201 03:59:30.297446 18504 net.cpp:367] inception_4a/relu_3x3 -> inception_4a/3x3 (in-place)
I1201 03:59:30.297735 18504 net.cpp:122] Setting up inception_4a/relu_3x3
I1201 03:59:30.297752 18504 net.cpp:129] Top shape: 15 128 28 28 (1505280)
I1201 03:59:30.297758 18504 net.cpp:137] Memory required for data: 1574522940
I1201 03:59:30.297765 18504 layer_factory.hpp:77] Creating layer inception_4a/double3x3a
I1201 03:59:30.297780 18504 net.cpp:84] Creating Layer inception_4a/double3x3a
I1201 03:59:30.297790 18504 net.cpp:406] inception_4a/double3x3a <- pool3_pool3_0_split_2
I1201 03:59:30.297801 18504 net.cpp:380] inception_4a/double3x3a -> inception_4a/double3x3a
I1201 03:59:30.302691 18504 net.cpp:122] Setting up inception_4a/double3x3a
I1201 03:59:30.302714 18504 net.cpp:129] Top shape: 15 256 28 28 (3010560)
I1201 03:59:30.302722 18504 net.cpp:137] Memory required for data: 1586565180
I1201 03:59:30.302745 18504 layer_factory.hpp:77] Creating layer inception_4a/relu_double3x3a
I1201 03:59:30.302760 18504 net.cpp:84] Creating Layer inception_4a/relu_double3x3a
I1201 03:59:30.302768 18504 net.cpp:406] inception_4a/relu_double3x3a <- inception_4a/double3x3a
I1201 03:59:30.302779 18504 net.cpp:367] inception_4a/relu_double3x3a -> inception_4a/double3x3a (in-place)
I1201 03:59:30.303865 18504 net.cpp:122] Setting up inception_4a/relu_double3x3a
I1201 03:59:30.303889 18504 net.cpp:129] Top shape: 15 256 28 28 (3010560)
I1201 03:59:30.303895 18504 net.cpp:137] Memory required for data: 1598607420
I1201 03:59:30.303903 18504 layer_factory.hpp:77] Creating layer inception_4a/double3x3b
I1201 03:59:30.303915 18504 net.cpp:84] Creating Layer inception_4a/double3x3b
I1201 03:59:30.303922 18504 net.cpp:406] inception_4a/double3x3b <- inception_4a/double3x3a
I1201 03:59:30.303947 18504 net.cpp:380] inception_4a/double3x3b -> inception_4a/double3x3b
I1201 03:59:30.307955 18504 net.cpp:122] Setting up inception_4a/double3x3b
I1201 03:59:30.307981 18504 net.cpp:129] Top shape: 15 256 28 28 (3010560)
I1201 03:59:30.307987 18504 net.cpp:137] Memory required for data: 1610649660
I1201 03:59:30.307999 18504 layer_factory.hpp:77] Creating layer inception_4a/relu_double3x3b
I1201 03:59:30.308012 18504 net.cpp:84] Creating Layer inception_4a/relu_double3x3b
I1201 03:59:30.308019 18504 net.cpp:406] inception_4a/relu_double3x3b <- inception_4a/double3x3b
I1201 03:59:30.308032 18504 net.cpp:367] inception_4a/relu_double3x3b -> inception_4a/double3x3b (in-place)
I1201 03:59:30.309105 18504 net.cpp:122] Setting up inception_4a/relu_double3x3b
I1201 03:59:30.309128 18504 net.cpp:129] Top shape: 15 256 28 28 (3010560)
I1201 03:59:30.309135 18504 net.cpp:137] Memory required for data: 1622691900
I1201 03:59:30.309141 18504 layer_factory.hpp:77] Creating layer inception_4a/output
I1201 03:59:30.309152 18504 net.cpp:84] Creating Layer inception_4a/output
I1201 03:59:30.309161 18504 net.cpp:406] inception_4a/output <- inception_4a/1x1
I1201 03:59:30.309170 18504 net.cpp:406] inception_4a/output <- inception_4a/3x3
I1201 03:59:30.309178 18504 net.cpp:406] inception_4a/output <- inception_4a/double3x3b
I1201 03:59:30.309190 18504 net.cpp:380] inception_4a/output -> inception_4a/output
I1201 03:59:30.309237 18504 net.cpp:122] Setting up inception_4a/output
I1201 03:59:30.309250 18504 net.cpp:129] Top shape: 15 512 28 28 (6021120)
I1201 03:59:30.309264 18504 net.cpp:137] Memory required for data: 1646776380
I1201 03:59:30.309296 18504 layer_factory.hpp:77] Creating layer inception_4a/output_inception_4a/output_0_split
I1201 03:59:30.309310 18504 net.cpp:84] Creating Layer inception_4a/output_inception_4a/output_0_split
I1201 03:59:30.309317 18504 net.cpp:406] inception_4a/output_inception_4a/output_0_split <- inception_4a/output
I1201 03:59:30.309327 18504 net.cpp:380] inception_4a/output_inception_4a/output_0_split -> inception_4a/output_inception_4a/output_0_split_0
I1201 03:59:30.309342 18504 net.cpp:380] inception_4a/output_inception_4a/output_0_split -> inception_4a/output_inception_4a/output_0_split_1
I1201 03:59:30.309355 18504 net.cpp:380] inception_4a/output_inception_4a/output_0_split -> inception_4a/output_inception_4a/output_0_split_2
I1201 03:59:30.309437 18504 net.cpp:122] Setting up inception_4a/output_inception_4a/output_0_split
I1201 03:59:30.309453 18504 net.cpp:129] Top shape: 15 512 28 28 (6021120)
I1201 03:59:30.309460 18504 net.cpp:129] Top shape: 15 512 28 28 (6021120)
I1201 03:59:30.309469 18504 net.cpp:129] Top shape: 15 512 28 28 (6021120)
I1201 03:59:30.309475 18504 net.cpp:137] Memory required for data: 1719029820
I1201 03:59:30.309481 18504 layer_factory.hpp:77] Creating layer inception_4b/1x1
I1201 03:59:30.309492 18504 net.cpp:84] Creating Layer inception_4b/1x1
I1201 03:59:30.309500 18504 net.cpp:406] inception_4b/1x1 <- inception_4a/output_inception_4a/output_0_split_0
I1201 03:59:30.309512 18504 net.cpp:380] inception_4b/1x1 -> inception_4b/1x1
I1201 03:59:30.311594 18504 net.cpp:122] Setting up inception_4b/1x1
I1201 03:59:30.311616 18504 net.cpp:129] Top shape: 15 128 28 28 (1505280)
I1201 03:59:30.311625 18504 net.cpp:137] Memory required for data: 1725050940
I1201 03:59:30.311635 18504 layer_factory.hpp:77] Creating layer inception_4b/relu_1x1
I1201 03:59:30.311646 18504 net.cpp:84] Creating Layer inception_4b/relu_1x1
I1201 03:59:30.311655 18504 net.cpp:406] inception_4b/relu_1x1 <- inception_4b/1x1
I1201 03:59:30.311667 18504 net.cpp:367] inception_4b/relu_1x1 -> inception_4b/1x1 (in-place)
I1201 03:59:30.311954 18504 net.cpp:122] Setting up inception_4b/relu_1x1
I1201 03:59:30.311970 18504 net.cpp:129] Top shape: 15 128 28 28 (1505280)
I1201 03:59:30.311988 18504 net.cpp:137] Memory required for data: 1731072060
I1201 03:59:30.311995 18504 layer_factory.hpp:77] Creating layer inception_4b/3x3
I1201 03:59:30.312019 18504 net.cpp:84] Creating Layer inception_4b/3x3
I1201 03:59:30.312026 18504 net.cpp:406] inception_4b/3x3 <- inception_4a/output_inception_4a/output_0_split_1
I1201 03:59:30.312038 18504 net.cpp:380] inception_4b/3x3 -> inception_4b/3x3
I1201 03:59:30.319702 18504 net.cpp:122] Setting up inception_4b/3x3
I1201 03:59:30.319728 18504 net.cpp:129] Top shape: 15 128 28 28 (1505280)
I1201 03:59:30.319736 18504 net.cpp:137] Memory required for data: 1737093180
I1201 03:59:30.319748 18504 layer_factory.hpp:77] Creating layer inception_4b/relu_3x3
I1201 03:59:30.319761 18504 net.cpp:84] Creating Layer inception_4b/relu_3x3
I1201 03:59:30.319768 18504 net.cpp:406] inception_4b/relu_3x3 <- inception_4b/3x3
I1201 03:59:30.319784 18504 net.cpp:367] inception_4b/relu_3x3 -> inception_4b/3x3 (in-place)
I1201 03:59:30.320070 18504 net.cpp:122] Setting up inception_4b/relu_3x3
I1201 03:59:30.320086 18504 net.cpp:129] Top shape: 15 128 28 28 (1505280)
I1201 03:59:30.320092 18504 net.cpp:137] Memory required for data: 1743114300
I1201 03:59:30.320099 18504 layer_factory.hpp:77] Creating layer inception_4b/double3x3a
I1201 03:59:30.320113 18504 net.cpp:84] Creating Layer inception_4b/double3x3a
I1201 03:59:30.320122 18504 net.cpp:406] inception_4b/double3x3a <- inception_4a/output_inception_4a/output_0_split_2
I1201 03:59:30.320132 18504 net.cpp:380] inception_4b/double3x3a -> inception_4b/double3x3a
I1201 03:59:30.326287 18504 net.cpp:122] Setting up inception_4b/double3x3a
I1201 03:59:30.326308 18504 net.cpp:129] Top shape: 15 256 28 28 (3010560)
I1201 03:59:30.326316 18504 net.cpp:137] Memory required for data: 1755156540
I1201 03:59:30.326354 18504 layer_factory.hpp:77] Creating layer inception_4b/relu_double3x3a
I1201 03:59:30.326366 18504 net.cpp:84] Creating Layer inception_4b/relu_double3x3a
I1201 03:59:30.326373 18504 net.cpp:406] inception_4b/relu_double3x3a <- inception_4b/double3x3a
I1201 03:59:30.326400 18504 net.cpp:367] inception_4b/relu_double3x3a -> inception_4b/double3x3a (in-place)
I1201 03:59:30.326671 18504 net.cpp:122] Setting up inception_4b/relu_double3x3a
I1201 03:59:30.326685 18504 net.cpp:129] Top shape: 15 256 28 28 (3010560)
I1201 03:59:30.326691 18504 net.cpp:137] Memory required for data: 1767198780
I1201 03:59:30.326709 18504 layer_factory.hpp:77] Creating layer inception_4b/double3x3b
I1201 03:59:30.326722 18504 net.cpp:84] Creating Layer inception_4b/double3x3b
I1201 03:59:30.326730 18504 net.cpp:406] inception_4b/double3x3b <- inception_4b/double3x3a
I1201 03:59:30.326741 18504 net.cpp:380] inception_4b/double3x3b -> inception_4b/double3x3b
I1201 03:59:30.331368 18504 net.cpp:122] Setting up inception_4b/double3x3b
I1201 03:59:30.331390 18504 net.cpp:129] Top shape: 15 256 28 28 (3010560)
I1201 03:59:30.331396 18504 net.cpp:137] Memory required for data: 1779241020
I1201 03:59:30.331408 18504 layer_factory.hpp:77] Creating layer inception_4b/relu_double3x3b
I1201 03:59:30.331419 18504 net.cpp:84] Creating Layer inception_4b/relu_double3x3b
I1201 03:59:30.331426 18504 net.cpp:406] inception_4b/relu_double3x3b <- inception_4b/double3x3b
I1201 03:59:30.331437 18504 net.cpp:367] inception_4b/relu_double3x3b -> inception_4b/double3x3b (in-place)
I1201 03:59:30.331703 18504 net.cpp:122] Setting up inception_4b/relu_double3x3b
I1201 03:59:30.331718 18504 net.cpp:129] Top shape: 15 256 28 28 (3010560)
I1201 03:59:30.331724 18504 net.cpp:137] Memory required for data: 1791283260
I1201 03:59:30.331730 18504 layer_factory.hpp:77] Creating layer inception_4b/output
I1201 03:59:30.331765 18504 net.cpp:84] Creating Layer inception_4b/output
I1201 03:59:30.331773 18504 net.cpp:406] inception_4b/output <- inception_4b/1x1
I1201 03:59:30.331781 18504 net.cpp:406] inception_4b/output <- inception_4b/3x3
I1201 03:59:30.331789 18504 net.cpp:406] inception_4b/output <- inception_4b/double3x3b
I1201 03:59:30.331807 18504 net.cpp:380] inception_4b/output -> inception_4b/output
I1201 03:59:30.331854 18504 net.cpp:122] Setting up inception_4b/output
I1201 03:59:30.331866 18504 net.cpp:129] Top shape: 15 512 28 28 (6021120)
I1201 03:59:30.331871 18504 net.cpp:137] Memory required for data: 1815367740
I1201 03:59:30.331877 18504 layer_factory.hpp:77] Creating layer inception_4b/output_inception_4b/output_0_split
I1201 03:59:30.331899 18504 net.cpp:84] Creating Layer inception_4b/output_inception_4b/output_0_split
I1201 03:59:30.331907 18504 net.cpp:406] inception_4b/output_inception_4b/output_0_split <- inception_4b/output
I1201 03:59:30.331917 18504 net.cpp:380] inception_4b/output_inception_4b/output_0_split -> inception_4b/output_inception_4b/output_0_split_0
I1201 03:59:30.331929 18504 net.cpp:380] inception_4b/output_inception_4b/output_0_split -> inception_4b/output_inception_4b/output_0_split_1
I1201 03:59:30.331941 18504 net.cpp:380] inception_4b/output_inception_4b/output_0_split -> inception_4b/output_inception_4b/output_0_split_2
I1201 03:59:30.332020 18504 net.cpp:122] Setting up inception_4b/output_inception_4b/output_0_split
I1201 03:59:30.332032 18504 net.cpp:129] Top shape: 15 512 28 28 (6021120)
I1201 03:59:30.332041 18504 net.cpp:129] Top shape: 15 512 28 28 (6021120)
I1201 03:59:30.332048 18504 net.cpp:129] Top shape: 15 512 28 28 (6021120)
I1201 03:59:30.332054 18504 net.cpp:137] Memory required for data: 1887621180
I1201 03:59:30.332060 18504 layer_factory.hpp:77] Creating layer inception_4c/1x1
I1201 03:59:30.332070 18504 net.cpp:84] Creating Layer inception_4c/1x1
I1201 03:59:30.332078 18504 net.cpp:406] inception_4c/1x1 <- inception_4b/output_inception_4b/output_0_split_0
I1201 03:59:30.332089 18504 net.cpp:380] inception_4c/1x1 -> inception_4c/1x1
I1201 03:59:30.334100 18504 net.cpp:122] Setting up inception_4c/1x1
I1201 03:59:30.334141 18504 net.cpp:129] Top shape: 15 128 28 28 (1505280)
I1201 03:59:30.334151 18504 net.cpp:137] Memory required for data: 1893642300
I1201 03:59:30.334161 18504 layer_factory.hpp:77] Creating layer inception_4c/relu_1x1
I1201 03:59:30.334172 18504 net.cpp:84] Creating Layer inception_4c/relu_1x1
I1201 03:59:30.334178 18504 net.cpp:406] inception_4c/relu_1x1 <- inception_4c/1x1
I1201 03:59:30.334192 18504 net.cpp:367] inception_4c/relu_1x1 -> inception_4c/1x1 (in-place)
I1201 03:59:30.336354 18504 net.cpp:122] Setting up inception_4c/relu_1x1
I1201 03:59:30.336378 18504 net.cpp:129] Top shape: 15 128 28 28 (1505280)
I1201 03:59:30.336385 18504 net.cpp:137] Memory required for data: 1899663420
I1201 03:59:30.336392 18504 layer_factory.hpp:77] Creating layer inception_4c/3x3
I1201 03:59:30.336407 18504 net.cpp:84] Creating Layer inception_4c/3x3
I1201 03:59:30.336416 18504 net.cpp:406] inception_4c/3x3 <- inception_4b/output_inception_4b/output_0_split_1
I1201 03:59:30.336427 18504 net.cpp:380] inception_4c/3x3 -> inception_4c/3x3
I1201 03:59:30.340178 18504 net.cpp:122] Setting up inception_4c/3x3
I1201 03:59:30.340204 18504 net.cpp:129] Top shape: 15 128 28 28 (1505280)
I1201 03:59:30.340210 18504 net.cpp:137] Memory required for data: 1905684540
I1201 03:59:30.340229 18504 layer_factory.hpp:77] Creating layer inception_4c/relu_3x3
I1201 03:59:30.340241 18504 net.cpp:84] Creating Layer inception_4c/relu_3x3
I1201 03:59:30.340248 18504 net.cpp:406] inception_4c/relu_3x3 <- inception_4c/3x3
I1201 03:59:30.340257 18504 net.cpp:367] inception_4c/relu_3x3 -> inception_4c/3x3 (in-place)
I1201 03:59:30.341254 18504 net.cpp:122] Setting up inception_4c/relu_3x3
I1201 03:59:30.341275 18504 net.cpp:129] Top shape: 15 128 28 28 (1505280)
I1201 03:59:30.341281 18504 net.cpp:137] Memory required for data: 1911705660
I1201 03:59:30.341287 18504 layer_factory.hpp:77] Creating layer inception_4c/double3x3a
I1201 03:59:30.341298 18504 net.cpp:84] Creating Layer inception_4c/double3x3a
I1201 03:59:30.341308 18504 net.cpp:406] inception_4c/double3x3a <- inception_4b/output_inception_4b/output_0_split_2
I1201 03:59:30.341318 18504 net.cpp:380] inception_4c/double3x3a -> inception_4c/double3x3a
I1201 03:59:30.347247 18504 net.cpp:122] Setting up inception_4c/double3x3a
I1201 03:59:30.347268 18504 net.cpp:129] Top shape: 15 256 28 28 (3010560)
I1201 03:59:30.347275 18504 net.cpp:137] Memory required for data: 1923747900
I1201 03:59:30.347286 18504 layer_factory.hpp:77] Creating layer inception_4c/relu_double3x3a
I1201 03:59:30.347298 18504 net.cpp:84] Creating Layer inception_4c/relu_double3x3a
I1201 03:59:30.347306 18504 net.cpp:406] inception_4c/relu_double3x3a <- inception_4c/double3x3a
I1201 03:59:30.347316 18504 net.cpp:367] inception_4c/relu_double3x3a -> inception_4c/double3x3a (in-place)
I1201 03:59:30.347574 18504 net.cpp:122] Setting up inception_4c/relu_double3x3a
I1201 03:59:30.347587 18504 net.cpp:129] Top shape: 15 256 28 28 (3010560)
I1201 03:59:30.347594 18504 net.cpp:137] Memory required for data: 1935790140
I1201 03:59:30.347600 18504 layer_factory.hpp:77] Creating layer inception_4c/double3x3b
I1201 03:59:30.347622 18504 net.cpp:84] Creating Layer inception_4c/double3x3b
I1201 03:59:30.347630 18504 net.cpp:406] inception_4c/double3x3b <- inception_4c/double3x3a
I1201 03:59:30.347640 18504 net.cpp:380] inception_4c/double3x3b -> inception_4c/double3x3b
I1201 03:59:30.352015 18504 net.cpp:122] Setting up inception_4c/double3x3b
I1201 03:59:30.352036 18504 net.cpp:129] Top shape: 15 256 28 28 (3010560)
I1201 03:59:30.352042 18504 net.cpp:137] Memory required for data: 1947832380
I1201 03:59:30.352052 18504 layer_factory.hpp:77] Creating layer inception_4c/relu_double3x3b
I1201 03:59:30.352063 18504 net.cpp:84] Creating Layer inception_4c/relu_double3x3b
I1201 03:59:30.352071 18504 net.cpp:406] inception_4c/relu_double3x3b <- inception_4c/double3x3b
I1201 03:59:30.352080 18504 net.cpp:367] inception_4c/relu_double3x3b -> inception_4c/double3x3b (in-place)
I1201 03:59:30.352344 18504 net.cpp:122] Setting up inception_4c/relu_double3x3b
I1201 03:59:30.352372 18504 net.cpp:129] Top shape: 15 256 28 28 (3010560)
I1201 03:59:30.352378 18504 net.cpp:137] Memory required for data: 1959874620
I1201 03:59:30.352385 18504 layer_factory.hpp:77] Creating layer inception_4c/output
I1201 03:59:30.352392 18504 net.cpp:84] Creating Layer inception_4c/output
I1201 03:59:30.352401 18504 net.cpp:406] inception_4c/output <- inception_4c/1x1
I1201 03:59:30.352407 18504 net.cpp:406] inception_4c/output <- inception_4c/3x3
I1201 03:59:30.352414 18504 net.cpp:406] inception_4c/output <- inception_4c/double3x3b
I1201 03:59:30.352425 18504 net.cpp:380] inception_4c/output -> inception_4c/output
I1201 03:59:30.352468 18504 net.cpp:122] Setting up inception_4c/output
I1201 03:59:30.352478 18504 net.cpp:129] Top shape: 15 512 28 28 (6021120)
I1201 03:59:30.352483 18504 net.cpp:137] Memory required for data: 1983959100
I1201 03:59:30.352488 18504 layer_factory.hpp:77] Creating layer inception_4c/output_inception_4c/output_0_split
I1201 03:59:30.352500 18504 net.cpp:84] Creating Layer inception_4c/output_inception_4c/output_0_split
I1201 03:59:30.352506 18504 net.cpp:406] inception_4c/output_inception_4c/output_0_split <- inception_4c/output
I1201 03:59:30.352516 18504 net.cpp:380] inception_4c/output_inception_4c/output_0_split -> inception_4c/output_inception_4c/output_0_split_0
I1201 03:59:30.352526 18504 net.cpp:380] inception_4c/output_inception_4c/output_0_split -> inception_4c/output_inception_4c/output_0_split_1
I1201 03:59:30.352536 18504 net.cpp:380] inception_4c/output_inception_4c/output_0_split -> inception_4c/output_inception_4c/output_0_split_2
I1201 03:59:30.352607 18504 net.cpp:122] Setting up inception_4c/output_inception_4c/output_0_split
I1201 03:59:30.352617 18504 net.cpp:129] Top shape: 15 512 28 28 (6021120)
I1201 03:59:30.352623 18504 net.cpp:129] Top shape: 15 512 28 28 (6021120)
I1201 03:59:30.352632 18504 net.cpp:129] Top shape: 15 512 28 28 (6021120)
I1201 03:59:30.352636 18504 net.cpp:137] Memory required for data: 2056212540
I1201 03:59:30.352648 18504 layer_factory.hpp:77] Creating layer inception_4d/1x1
I1201 03:59:30.352661 18504 net.cpp:84] Creating Layer inception_4d/1x1
I1201 03:59:30.352669 18504 net.cpp:406] inception_4d/1x1 <- inception_4c/output_inception_4c/output_0_split_0
I1201 03:59:30.352677 18504 net.cpp:380] inception_4d/1x1 -> inception_4d/1x1
I1201 03:59:30.357689 18504 net.cpp:122] Setting up inception_4d/1x1
I1201 03:59:30.357734 18504 net.cpp:129] Top shape: 15 128 28 28 (1505280)
I1201 03:59:30.357744 18504 net.cpp:137] Memory required for data: 2062233660
I1201 03:59:30.357759 18504 layer_factory.hpp:77] Creating layer inception_4d/relu_1x1
I1201 03:59:30.357776 18504 net.cpp:84] Creating Layer inception_4d/relu_1x1
I1201 03:59:30.357786 18504 net.cpp:406] inception_4d/relu_1x1 <- inception_4d/1x1
I1201 03:59:30.357802 18504 net.cpp:367] inception_4d/relu_1x1 -> inception_4d/1x1 (in-place)
I1201 03:59:30.358110 18504 net.cpp:122] Setting up inception_4d/relu_1x1
I1201 03:59:30.358127 18504 net.cpp:129] Top shape: 15 128 28 28 (1505280)
I1201 03:59:30.358134 18504 net.cpp:137] Memory required for data: 2068254780
I1201 03:59:30.358142 18504 layer_factory.hpp:77] Creating layer inception_4d/3x3
I1201 03:59:30.358160 18504 net.cpp:84] Creating Layer inception_4d/3x3
I1201 03:59:30.358168 18504 net.cpp:406] inception_4d/3x3 <- inception_4c/output_inception_4c/output_0_split_1
I1201 03:59:30.358182 18504 net.cpp:380] inception_4d/3x3 -> inception_4d/3x3
I1201 03:59:30.363637 18504 net.cpp:122] Setting up inception_4d/3x3
I1201 03:59:30.363662 18504 net.cpp:129] Top shape: 15 128 28 28 (1505280)
I1201 03:59:30.363670 18504 net.cpp:137] Memory required for data: 2074275900
I1201 03:59:30.363683 18504 layer_factory.hpp:77] Creating layer inception_4d/relu_3x3
I1201 03:59:30.363700 18504 net.cpp:84] Creating Layer inception_4d/relu_3x3
I1201 03:59:30.363709 18504 net.cpp:406] inception_4d/relu_3x3 <- inception_4d/3x3
I1201 03:59:30.363720 18504 net.cpp:367] inception_4d/relu_3x3 -> inception_4d/3x3 (in-place)
I1201 03:59:30.364089 18504 net.cpp:122] Setting up inception_4d/relu_3x3
I1201 03:59:30.364107 18504 net.cpp:129] Top shape: 15 128 28 28 (1505280)
I1201 03:59:30.364114 18504 net.cpp:137] Memory required for data: 2080297020
I1201 03:59:30.364135 18504 layer_factory.hpp:77] Creating layer inception_4d/double3x3a
I1201 03:59:30.364156 18504 net.cpp:84] Creating Layer inception_4d/double3x3a
I1201 03:59:30.364166 18504 net.cpp:406] inception_4d/double3x3a <- inception_4c/output_inception_4c/output_0_split_2
I1201 03:59:30.364179 18504 net.cpp:380] inception_4d/double3x3a -> inception_4d/double3x3a
I1201 03:59:30.371407 18504 net.cpp:122] Setting up inception_4d/double3x3a
I1201 03:59:30.371433 18504 net.cpp:129] Top shape: 15 256 28 28 (3010560)
I1201 03:59:30.371443 18504 net.cpp:137] Memory required for data: 2092339260
I1201 03:59:30.371456 18504 layer_factory.hpp:77] Creating layer inception_4d/relu_double3x3a
I1201 03:59:30.371469 18504 net.cpp:84] Creating Layer inception_4d/relu_double3x3a
I1201 03:59:30.371479 18504 net.cpp:406] inception_4d/relu_double3x3a <- inception_4d/double3x3a
I1201 03:59:30.371490 18504 net.cpp:367] inception_4d/relu_double3x3a -> inception_4d/double3x3a (in-place)
I1201 03:59:30.372730 18504 net.cpp:122] Setting up inception_4d/relu_double3x3a
I1201 03:59:30.372755 18504 net.cpp:129] Top shape: 15 256 28 28 (3010560)
I1201 03:59:30.372762 18504 net.cpp:137] Memory required for data: 2104381500
I1201 03:59:30.372771 18504 layer_factory.hpp:77] Creating layer inception_4d/double3x3b
I1201 03:59:30.372786 18504 net.cpp:84] Creating Layer inception_4d/double3x3b
I1201 03:59:30.372797 18504 net.cpp:406] inception_4d/double3x3b <- inception_4d/double3x3a
I1201 03:59:30.372808 18504 net.cpp:380] inception_4d/double3x3b -> inception_4d/double3x3b
I1201 03:59:30.378682 18504 net.cpp:122] Setting up inception_4d/double3x3b
I1201 03:59:30.378707 18504 net.cpp:129] Top shape: 15 256 28 28 (3010560)
I1201 03:59:30.378716 18504 net.cpp:137] Memory required for data: 2116423740
I1201 03:59:30.378742 18504 layer_factory.hpp:77] Creating layer inception_4d/relu_double3x3b
I1201 03:59:30.378767 18504 net.cpp:84] Creating Layer inception_4d/relu_double3x3b
I1201 03:59:30.378775 18504 net.cpp:406] inception_4d/relu_double3x3b <- inception_4d/double3x3b
I1201 03:59:30.378784 18504 net.cpp:367] inception_4d/relu_double3x3b -> inception_4d/double3x3b (in-place)
I1201 03:59:30.379773 18504 net.cpp:122] Setting up inception_4d/relu_double3x3b
I1201 03:59:30.379817 18504 net.cpp:129] Top shape: 15 256 28 28 (3010560)
I1201 03:59:30.379823 18504 net.cpp:137] Memory required for data: 2128465980
I1201 03:59:30.379829 18504 layer_factory.hpp:77] Creating layer inception_4d/output
I1201 03:59:30.379839 18504 net.cpp:84] Creating Layer inception_4d/output
I1201 03:59:30.379848 18504 net.cpp:406] inception_4d/output <- inception_4d/1x1
I1201 03:59:30.379854 18504 net.cpp:406] inception_4d/output <- inception_4d/3x3
I1201 03:59:30.379861 18504 net.cpp:406] inception_4d/output <- inception_4d/double3x3b
I1201 03:59:30.379873 18504 net.cpp:380] inception_4d/output -> inception_4d/output
I1201 03:59:30.379921 18504 net.cpp:122] Setting up inception_4d/output
I1201 03:59:30.379931 18504 net.cpp:129] Top shape: 15 512 28 28 (6021120)
I1201 03:59:30.379936 18504 net.cpp:137] Memory required for data: 2152550460
I1201 03:59:30.379942 18504 layer_factory.hpp:77] Creating layer pool4
I1201 03:59:30.379952 18504 net.cpp:84] Creating Layer pool4
I1201 03:59:30.379959 18504 net.cpp:406] pool4 <- inception_4d/output
I1201 03:59:30.379969 18504 net.cpp:380] pool4 -> pool4
I1201 03:59:30.380028 18504 net.cpp:122] Setting up pool4
I1201 03:59:30.380039 18504 net.cpp:129] Top shape: 15 512 14 14 (1505280)
I1201 03:59:30.380045 18504 net.cpp:137] Memory required for data: 2158571580
I1201 03:59:30.380050 18504 layer_factory.hpp:77] Creating layer pool4_pool4_0_split
I1201 03:59:30.380060 18504 net.cpp:84] Creating Layer pool4_pool4_0_split
I1201 03:59:30.380067 18504 net.cpp:406] pool4_pool4_0_split <- pool4
I1201 03:59:30.380082 18504 net.cpp:380] pool4_pool4_0_split -> pool4_pool4_0_split_0
I1201 03:59:30.380112 18504 net.cpp:380] pool4_pool4_0_split -> pool4_pool4_0_split_1
I1201 03:59:30.380125 18504 net.cpp:380] pool4_pool4_0_split -> pool4_pool4_0_split_2
I1201 03:59:30.380197 18504 net.cpp:122] Setting up pool4_pool4_0_split
I1201 03:59:30.380205 18504 net.cpp:129] Top shape: 15 512 14 14 (1505280)
I1201 03:59:30.380213 18504 net.cpp:129] Top shape: 15 512 14 14 (1505280)
I1201 03:59:30.380219 18504 net.cpp:129] Top shape: 15 512 14 14 (1505280)
I1201 03:59:30.380225 18504 net.cpp:137] Memory required for data: 2176634940
I1201 03:59:30.380236 18504 layer_factory.hpp:77] Creating layer inception_5a/1x1
I1201 03:59:30.380249 18504 net.cpp:84] Creating Layer inception_5a/1x1
I1201 03:59:30.380255 18504 net.cpp:406] inception_5a/1x1 <- pool4_pool4_0_split_0
I1201 03:59:30.380270 18504 net.cpp:380] inception_5a/1x1 -> inception_5a/1x1
I1201 03:59:30.382890 18504 net.cpp:122] Setting up inception_5a/1x1
I1201 03:59:30.382910 18504 net.cpp:129] Top shape: 15 128 14 14 (376320)
I1201 03:59:30.382915 18504 net.cpp:137] Memory required for data: 2178140220
I1201 03:59:30.382926 18504 layer_factory.hpp:77] Creating layer inception_5a/relu_1x1
I1201 03:59:30.382936 18504 net.cpp:84] Creating Layer inception_5a/relu_1x1
I1201 03:59:30.382943 18504 net.cpp:406] inception_5a/relu_1x1 <- inception_5a/1x1
I1201 03:59:30.382953 18504 net.cpp:367] inception_5a/relu_1x1 -> inception_5a/1x1 (in-place)
I1201 03:59:30.383198 18504 net.cpp:122] Setting up inception_5a/relu_1x1
I1201 03:59:30.383210 18504 net.cpp:129] Top shape: 15 128 14 14 (376320)
I1201 03:59:30.383216 18504 net.cpp:137] Memory required for data: 2179645500
I1201 03:59:30.383222 18504 layer_factory.hpp:77] Creating layer inception_5a/3x3
I1201 03:59:30.383234 18504 net.cpp:84] Creating Layer inception_5a/3x3
I1201 03:59:30.383241 18504 net.cpp:406] inception_5a/3x3 <- pool4_pool4_0_split_1
I1201 03:59:30.383253 18504 net.cpp:380] inception_5a/3x3 -> inception_5a/3x3
I1201 03:59:30.390897 18504 net.cpp:122] Setting up inception_5a/3x3
I1201 03:59:30.390928 18504 net.cpp:129] Top shape: 15 128 14 14 (376320)
I1201 03:59:30.390935 18504 net.cpp:137] Memory required for data: 2181150780
I1201 03:59:30.390947 18504 layer_factory.hpp:77] Creating layer inception_5a/relu_3x3
I1201 03:59:30.390967 18504 net.cpp:84] Creating Layer inception_5a/relu_3x3
I1201 03:59:30.390977 18504 net.cpp:406] inception_5a/relu_3x3 <- inception_5a/3x3
I1201 03:59:30.390990 18504 net.cpp:367] inception_5a/relu_3x3 -> inception_5a/3x3 (in-place)
I1201 03:59:30.391276 18504 net.cpp:122] Setting up inception_5a/relu_3x3
I1201 03:59:30.391293 18504 net.cpp:129] Top shape: 15 128 14 14 (376320)
I1201 03:59:30.391299 18504 net.cpp:137] Memory required for data: 2182656060
I1201 03:59:30.391306 18504 layer_factory.hpp:77] Creating layer inception_5a/double3x3a
I1201 03:59:30.391320 18504 net.cpp:84] Creating Layer inception_5a/double3x3a
I1201 03:59:30.391330 18504 net.cpp:406] inception_5a/double3x3a <- pool4_pool4_0_split_2
I1201 03:59:30.391341 18504 net.cpp:380] inception_5a/double3x3a -> inception_5a/double3x3a
I1201 03:59:30.397897 18504 net.cpp:122] Setting up inception_5a/double3x3a
I1201 03:59:30.397920 18504 net.cpp:129] Top shape: 15 256 14 14 (752640)
I1201 03:59:30.397927 18504 net.cpp:137] Memory required for data: 2185666620
I1201 03:59:30.397940 18504 layer_factory.hpp:77] Creating layer inception_5a/relu_double3x3a
I1201 03:59:30.397954 18504 net.cpp:84] Creating Layer inception_5a/relu_double3x3a
I1201 03:59:30.397963 18504 net.cpp:406] inception_5a/relu_double3x3a <- inception_5a/double3x3a
I1201 03:59:30.397972 18504 net.cpp:367] inception_5a/relu_double3x3a -> inception_5a/double3x3a (in-place)
I1201 03:59:30.398264 18504 net.cpp:122] Setting up inception_5a/relu_double3x3a
I1201 03:59:30.398278 18504 net.cpp:129] Top shape: 15 256 14 14 (752640)
I1201 03:59:30.398285 18504 net.cpp:137] Memory required for data: 2188677180
I1201 03:59:30.398293 18504 layer_factory.hpp:77] Creating layer inception_5a/double3x3b
I1201 03:59:30.398332 18504 net.cpp:84] Creating Layer inception_5a/double3x3b
I1201 03:59:30.398341 18504 net.cpp:406] inception_5a/double3x3b <- inception_5a/double3x3a
I1201 03:59:30.398352 18504 net.cpp:380] inception_5a/double3x3b -> inception_5a/double3x3b
I1201 03:59:30.403157 18504 net.cpp:122] Setting up inception_5a/double3x3b
I1201 03:59:30.403182 18504 net.cpp:129] Top shape: 15 256 14 14 (752640)
I1201 03:59:30.403189 18504 net.cpp:137] Memory required for data: 2191687740
I1201 03:59:30.403201 18504 layer_factory.hpp:77] Creating layer inception_5a/relu_double3x3b
I1201 03:59:30.403213 18504 net.cpp:84] Creating Layer inception_5a/relu_double3x3b
I1201 03:59:30.403221 18504 net.cpp:406] inception_5a/relu_double3x3b <- inception_5a/double3x3b
I1201 03:59:30.403234 18504 net.cpp:367] inception_5a/relu_double3x3b -> inception_5a/double3x3b (in-place)
I1201 03:59:30.403502 18504 net.cpp:122] Setting up inception_5a/relu_double3x3b
I1201 03:59:30.403517 18504 net.cpp:129] Top shape: 15 256 14 14 (752640)
I1201 03:59:30.403523 18504 net.cpp:137] Memory required for data: 2194698300
I1201 03:59:30.403530 18504 layer_factory.hpp:77] Creating layer inception_5a/output
I1201 03:59:30.403540 18504 net.cpp:84] Creating Layer inception_5a/output
I1201 03:59:30.403548 18504 net.cpp:406] inception_5a/output <- inception_5a/1x1
I1201 03:59:30.403556 18504 net.cpp:406] inception_5a/output <- inception_5a/3x3
I1201 03:59:30.403563 18504 net.cpp:406] inception_5a/output <- inception_5a/double3x3b
I1201 03:59:30.403574 18504 net.cpp:380] inception_5a/output -> inception_5a/output
I1201 03:59:30.403625 18504 net.cpp:122] Setting up inception_5a/output
I1201 03:59:30.403636 18504 net.cpp:129] Top shape: 15 512 14 14 (1505280)
I1201 03:59:30.403642 18504 net.cpp:137] Memory required for data: 2200719420
I1201 03:59:30.403648 18504 layer_factory.hpp:77] Creating layer inception_5a/output_inception_5a/output_0_split
I1201 03:59:30.403658 18504 net.cpp:84] Creating Layer inception_5a/output_inception_5a/output_0_split
I1201 03:59:30.403666 18504 net.cpp:406] inception_5a/output_inception_5a/output_0_split <- inception_5a/output
I1201 03:59:30.403677 18504 net.cpp:380] inception_5a/output_inception_5a/output_0_split -> inception_5a/output_inception_5a/output_0_split_0
I1201 03:59:30.403688 18504 net.cpp:380] inception_5a/output_inception_5a/output_0_split -> inception_5a/output_inception_5a/output_0_split_1
I1201 03:59:30.403699 18504 net.cpp:380] inception_5a/output_inception_5a/output_0_split -> inception_5a/output_inception_5a/output_0_split_2
I1201 03:59:30.403784 18504 net.cpp:122] Setting up inception_5a/output_inception_5a/output_0_split
I1201 03:59:30.403800 18504 net.cpp:129] Top shape: 15 512 14 14 (1505280)
I1201 03:59:30.403813 18504 net.cpp:129] Top shape: 15 512 14 14 (1505280)
I1201 03:59:30.403821 18504 net.cpp:129] Top shape: 15 512 14 14 (1505280)
I1201 03:59:30.403827 18504 net.cpp:137] Memory required for data: 2218782780
I1201 03:59:30.403833 18504 layer_factory.hpp:77] Creating layer inception_5b/1x1
I1201 03:59:30.403848 18504 net.cpp:84] Creating Layer inception_5b/1x1
I1201 03:59:30.403856 18504 net.cpp:406] inception_5b/1x1 <- inception_5a/output_inception_5a/output_0_split_0
I1201 03:59:30.403865 18504 net.cpp:380] inception_5b/1x1 -> inception_5b/1x1
I1201 03:59:30.408313 18504 net.cpp:122] Setting up inception_5b/1x1
I1201 03:59:30.408337 18504 net.cpp:129] Top shape: 15 128 14 14 (376320)
I1201 03:59:30.408344 18504 net.cpp:137] Memory required for data: 2220288060
I1201 03:59:30.408356 18504 layer_factory.hpp:77] Creating layer inception_5b/relu_1x1
I1201 03:59:30.408371 18504 net.cpp:84] Creating Layer inception_5b/relu_1x1
I1201 03:59:30.408380 18504 net.cpp:406] inception_5b/relu_1x1 <- inception_5b/1x1
I1201 03:59:30.408388 18504 net.cpp:367] inception_5b/relu_1x1 -> inception_5b/1x1 (in-place)
I1201 03:59:30.409464 18504 net.cpp:122] Setting up inception_5b/relu_1x1
I1201 03:59:30.409487 18504 net.cpp:129] Top shape: 15 128 14 14 (376320)
I1201 03:59:30.409498 18504 net.cpp:137] Memory required for data: 2221793340
I1201 03:59:30.409518 18504 layer_factory.hpp:77] Creating layer inception_5b/3x3
I1201 03:59:30.409533 18504 net.cpp:84] Creating Layer inception_5b/3x3
I1201 03:59:30.409540 18504 net.cpp:406] inception_5b/3x3 <- inception_5a/output_inception_5a/output_0_split_1
I1201 03:59:30.409552 18504 net.cpp:380] inception_5b/3x3 -> inception_5b/3x3
I1201 03:59:30.413545 18504 net.cpp:122] Setting up inception_5b/3x3
I1201 03:59:30.413569 18504 net.cpp:129] Top shape: 15 128 14 14 (376320)
I1201 03:59:30.413576 18504 net.cpp:137] Memory required for data: 2223298620
I1201 03:59:30.413589 18504 layer_factory.hpp:77] Creating layer inception_5b/relu_3x3
I1201 03:59:30.413599 18504 net.cpp:84] Creating Layer inception_5b/relu_3x3
I1201 03:59:30.413607 18504 net.cpp:406] inception_5b/relu_3x3 <- inception_5b/3x3
I1201 03:59:30.413619 18504 net.cpp:367] inception_5b/relu_3x3 -> inception_5b/3x3 (in-place)
I1201 03:59:30.415663 18504 net.cpp:122] Setting up inception_5b/relu_3x3
I1201 03:59:30.415689 18504 net.cpp:129] Top shape: 15 128 14 14 (376320)
I1201 03:59:30.415697 18504 net.cpp:137] Memory required for data: 2224803900
I1201 03:59:30.415712 18504 layer_factory.hpp:77] Creating layer inception_5b/double3x3a
I1201 03:59:30.415727 18504 net.cpp:84] Creating Layer inception_5b/double3x3a
I1201 03:59:30.415736 18504 net.cpp:406] inception_5b/double3x3a <- inception_5a/output_inception_5a/output_0_split_2
I1201 03:59:30.415747 18504 net.cpp:380] inception_5b/double3x3a -> inception_5b/double3x3a
I1201 03:59:30.421871 18504 net.cpp:122] Setting up inception_5b/double3x3a
I1201 03:59:30.421892 18504 net.cpp:129] Top shape: 15 256 14 14 (752640)
I1201 03:59:30.421900 18504 net.cpp:137] Memory required for data: 2227814460
I1201 03:59:30.421911 18504 layer_factory.hpp:77] Creating layer inception_5b/relu_double3x3a
I1201 03:59:30.421921 18504 net.cpp:84] Creating Layer inception_5b/relu_double3x3a
I1201 03:59:30.421928 18504 net.cpp:406] inception_5b/relu_double3x3a <- inception_5b/double3x3a
I1201 03:59:30.421939 18504 net.cpp:367] inception_5b/relu_double3x3a -> inception_5b/double3x3a (in-place)
I1201 03:59:30.422210 18504 net.cpp:122] Setting up inception_5b/relu_double3x3a
I1201 03:59:30.422224 18504 net.cpp:129] Top shape: 15 256 14 14 (752640)
I1201 03:59:30.422230 18504 net.cpp:137] Memory required for data: 2230825020
I1201 03:59:30.422236 18504 layer_factory.hpp:77] Creating layer inception_5b/double3x3b
I1201 03:59:30.422250 18504 net.cpp:84] Creating Layer inception_5b/double3x3b
I1201 03:59:30.422256 18504 net.cpp:406] inception_5b/double3x3b <- inception_5b/double3x3a
I1201 03:59:30.422268 18504 net.cpp:380] inception_5b/double3x3b -> inception_5b/double3x3b
I1201 03:59:30.435302 18504 net.cpp:122] Setting up inception_5b/double3x3b
I1201 03:59:30.435328 18504 net.cpp:129] Top shape: 15 256 14 14 (752640)
I1201 03:59:30.435336 18504 net.cpp:137] Memory required for data: 2233835580
I1201 03:59:30.435348 18504 layer_factory.hpp:77] Creating layer inception_5b/relu_double3x3b
I1201 03:59:30.435361 18504 net.cpp:84] Creating Layer inception_5b/relu_double3x3b
I1201 03:59:30.435371 18504 net.cpp:406] inception_5b/relu_double3x3b <- inception_5b/double3x3b
I1201 03:59:30.435384 18504 net.cpp:367] inception_5b/relu_double3x3b -> inception_5b/double3x3b (in-place)
I1201 03:59:30.435664 18504 net.cpp:122] Setting up inception_5b/relu_double3x3b
I1201 03:59:30.435678 18504 net.cpp:129] Top shape: 15 256 14 14 (752640)
I1201 03:59:30.435685 18504 net.cpp:137] Memory required for data: 2236846140
I1201 03:59:30.435691 18504 layer_factory.hpp:77] Creating layer inception_5b/output
I1201 03:59:30.435701 18504 net.cpp:84] Creating Layer inception_5b/output
I1201 03:59:30.435708 18504 net.cpp:406] inception_5b/output <- inception_5b/1x1
I1201 03:59:30.435717 18504 net.cpp:406] inception_5b/output <- inception_5b/3x3
I1201 03:59:30.435725 18504 net.cpp:406] inception_5b/output <- inception_5b/double3x3b
I1201 03:59:30.435736 18504 net.cpp:380] inception_5b/output -> inception_5b/output
I1201 03:59:30.435823 18504 net.cpp:122] Setting up inception_5b/output
I1201 03:59:30.435849 18504 net.cpp:129] Top shape: 15 512 14 14 (1505280)
I1201 03:59:30.435856 18504 net.cpp:137] Memory required for data: 2242867260
I1201 03:59:30.435863 18504 layer_factory.hpp:77] Creating layer inception_5b/output_inception_5b/output_0_split
I1201 03:59:30.435873 18504 net.cpp:84] Creating Layer inception_5b/output_inception_5b/output_0_split
I1201 03:59:30.435880 18504 net.cpp:406] inception_5b/output_inception_5b/output_0_split <- inception_5b/output
I1201 03:59:30.435894 18504 net.cpp:380] inception_5b/output_inception_5b/output_0_split -> inception_5b/output_inception_5b/output_0_split_0
I1201 03:59:30.435905 18504 net.cpp:380] inception_5b/output_inception_5b/output_0_split -> inception_5b/output_inception_5b/output_0_split_1
I1201 03:59:30.435915 18504 net.cpp:380] inception_5b/output_inception_5b/output_0_split -> inception_5b/output_inception_5b/output_0_split_2
I1201 03:59:30.436003 18504 net.cpp:122] Setting up inception_5b/output_inception_5b/output_0_split
I1201 03:59:30.436015 18504 net.cpp:129] Top shape: 15 512 14 14 (1505280)
I1201 03:59:30.436022 18504 net.cpp:129] Top shape: 15 512 14 14 (1505280)
I1201 03:59:30.436030 18504 net.cpp:129] Top shape: 15 512 14 14 (1505280)
I1201 03:59:30.436035 18504 net.cpp:137] Memory required for data: 2260930620
I1201 03:59:30.436043 18504 layer_factory.hpp:77] Creating layer inception_5c/1x1
I1201 03:59:30.436056 18504 net.cpp:84] Creating Layer inception_5c/1x1
I1201 03:59:30.436062 18504 net.cpp:406] inception_5c/1x1 <- inception_5b/output_inception_5b/output_0_split_0
I1201 03:59:30.436071 18504 net.cpp:380] inception_5c/1x1 -> inception_5c/1x1
I1201 03:59:30.438588 18504 net.cpp:122] Setting up inception_5c/1x1
I1201 03:59:30.438617 18504 net.cpp:129] Top shape: 15 128 14 14 (376320)
I1201 03:59:30.438625 18504 net.cpp:137] Memory required for data: 2262435900
I1201 03:59:30.438647 18504 layer_factory.hpp:77] Creating layer inception_5c/relu_1x1
I1201 03:59:30.438659 18504 net.cpp:84] Creating Layer inception_5c/relu_1x1
I1201 03:59:30.438668 18504 net.cpp:406] inception_5c/relu_1x1 <- inception_5c/1x1
I1201 03:59:30.438678 18504 net.cpp:367] inception_5c/relu_1x1 -> inception_5c/1x1 (in-place)
I1201 03:59:30.438926 18504 net.cpp:122] Setting up inception_5c/relu_1x1
I1201 03:59:30.438941 18504 net.cpp:129] Top shape: 15 128 14 14 (376320)
I1201 03:59:30.438947 18504 net.cpp:137] Memory required for data: 2263941180
I1201 03:59:30.438953 18504 layer_factory.hpp:77] Creating layer inception_5c/3x3
I1201 03:59:30.438966 18504 net.cpp:84] Creating Layer inception_5c/3x3
I1201 03:59:30.438974 18504 net.cpp:406] inception_5c/3x3 <- inception_5b/output_inception_5b/output_0_split_1
I1201 03:59:30.438983 18504 net.cpp:380] inception_5c/3x3 -> inception_5c/3x3
I1201 03:59:30.443711 18504 net.cpp:122] Setting up inception_5c/3x3
I1201 03:59:30.443732 18504 net.cpp:129] Top shape: 15 128 14 14 (376320)
I1201 03:59:30.443739 18504 net.cpp:137] Memory required for data: 2265446460
I1201 03:59:30.443750 18504 layer_factory.hpp:77] Creating layer inception_5c/relu_3x3
I1201 03:59:30.443760 18504 net.cpp:84] Creating Layer inception_5c/relu_3x3
I1201 03:59:30.443768 18504 net.cpp:406] inception_5c/relu_3x3 <- inception_5c/3x3
I1201 03:59:30.443779 18504 net.cpp:367] inception_5c/relu_3x3 -> inception_5c/3x3 (in-place)
I1201 03:59:30.444053 18504 net.cpp:122] Setting up inception_5c/relu_3x3
I1201 03:59:30.444067 18504 net.cpp:129] Top shape: 15 128 14 14 (376320)
I1201 03:59:30.444073 18504 net.cpp:137] Memory required for data: 2266951740
I1201 03:59:30.444080 18504 layer_factory.hpp:77] Creating layer inception_5c/double3x3a
I1201 03:59:30.444102 18504 net.cpp:84] Creating Layer inception_5c/double3x3a
I1201 03:59:30.444109 18504 net.cpp:406] inception_5c/double3x3a <- inception_5b/output_inception_5b/output_0_split_2
I1201 03:59:30.444121 18504 net.cpp:380] inception_5c/double3x3a -> inception_5c/double3x3a
I1201 03:59:30.451830 18504 net.cpp:122] Setting up inception_5c/double3x3a
I1201 03:59:30.451864 18504 net.cpp:129] Top shape: 15 256 14 14 (752640)
I1201 03:59:30.451884 18504 net.cpp:137] Memory required for data: 2269962300
I1201 03:59:30.451897 18504 layer_factory.hpp:77] Creating layer inception_5c/relu_double3x3a
I1201 03:59:30.451910 18504 net.cpp:84] Creating Layer inception_5c/relu_double3x3a
I1201 03:59:30.451920 18504 net.cpp:406] inception_5c/relu_double3x3a <- inception_5c/double3x3a
I1201 03:59:30.451931 18504 net.cpp:367] inception_5c/relu_double3x3a -> inception_5c/double3x3a (in-place)
I1201 03:59:30.453922 18504 net.cpp:122] Setting up inception_5c/relu_double3x3a
I1201 03:59:30.453948 18504 net.cpp:129] Top shape: 15 256 14 14 (752640)
I1201 03:59:30.453954 18504 net.cpp:137] Memory required for data: 2272972860
I1201 03:59:30.453961 18504 layer_factory.hpp:77] Creating layer inception_5c/double3x3b
I1201 03:59:30.453974 18504 net.cpp:84] Creating Layer inception_5c/double3x3b
I1201 03:59:30.453984 18504 net.cpp:406] inception_5c/double3x3b <- inception_5c/double3x3a
I1201 03:59:30.453994 18504 net.cpp:380] inception_5c/double3x3b -> inception_5c/double3x3b
I1201 03:59:30.457799 18504 net.cpp:122] Setting up inception_5c/double3x3b
I1201 03:59:30.457819 18504 net.cpp:129] Top shape: 15 256 14 14 (752640)
I1201 03:59:30.457826 18504 net.cpp:137] Memory required for data: 2275983420
I1201 03:59:30.457837 18504 layer_factory.hpp:77] Creating layer inception_5c/relu_double3x3b
I1201 03:59:30.457846 18504 net.cpp:84] Creating Layer inception_5c/relu_double3x3b
I1201 03:59:30.457854 18504 net.cpp:406] inception_5c/relu_double3x3b <- inception_5c/double3x3b
I1201 03:59:30.457865 18504 net.cpp:367] inception_5c/relu_double3x3b -> inception_5c/double3x3b (in-place)
I1201 03:59:30.459615 18504 net.cpp:122] Setting up inception_5c/relu_double3x3b
I1201 03:59:30.459633 18504 net.cpp:129] Top shape: 15 256 14 14 (752640)
I1201 03:59:30.459640 18504 net.cpp:137] Memory required for data: 2278993980
I1201 03:59:30.459646 18504 layer_factory.hpp:77] Creating layer inception_5c/output
I1201 03:59:30.459666 18504 net.cpp:84] Creating Layer inception_5c/output
I1201 03:59:30.459674 18504 net.cpp:406] inception_5c/output <- inception_5c/1x1
I1201 03:59:30.459682 18504 net.cpp:406] inception_5c/output <- inception_5c/3x3
I1201 03:59:30.459691 18504 net.cpp:406] inception_5c/output <- inception_5c/double3x3b
I1201 03:59:30.459699 18504 net.cpp:380] inception_5c/output -> inception_5c/output
I1201 03:59:30.459750 18504 net.cpp:122] Setting up inception_5c/output
I1201 03:59:30.459761 18504 net.cpp:129] Top shape: 15 512 14 14 (1505280)
I1201 03:59:30.459767 18504 net.cpp:137] Memory required for data: 2285015100
I1201 03:59:30.459774 18504 layer_factory.hpp:77] Creating layer inception_5c/output_inception_5c/output_0_split
I1201 03:59:30.459784 18504 net.cpp:84] Creating Layer inception_5c/output_inception_5c/output_0_split
I1201 03:59:30.459789 18504 net.cpp:406] inception_5c/output_inception_5c/output_0_split <- inception_5c/output
I1201 03:59:30.459820 18504 net.cpp:380] inception_5c/output_inception_5c/output_0_split -> inception_5c/output_inception_5c/output_0_split_0
I1201 03:59:30.459831 18504 net.cpp:380] inception_5c/output_inception_5c/output_0_split -> inception_5c/output_inception_5c/output_0_split_1
I1201 03:59:30.459843 18504 net.cpp:380] inception_5c/output_inception_5c/output_0_split -> inception_5c/output_inception_5c/output_0_split_2
I1201 03:59:30.459930 18504 net.cpp:122] Setting up inception_5c/output_inception_5c/output_0_split
I1201 03:59:30.459941 18504 net.cpp:129] Top shape: 15 512 14 14 (1505280)
I1201 03:59:30.459949 18504 net.cpp:129] Top shape: 15 512 14 14 (1505280)
I1201 03:59:30.459955 18504 net.cpp:129] Top shape: 15 512 14 14 (1505280)
I1201 03:59:30.459960 18504 net.cpp:137] Memory required for data: 2303078460
I1201 03:59:30.459966 18504 layer_factory.hpp:77] Creating layer inception_5d/1x1
I1201 03:59:30.459978 18504 net.cpp:84] Creating Layer inception_5d/1x1
I1201 03:59:30.459985 18504 net.cpp:406] inception_5d/1x1 <- inception_5c/output_inception_5c/output_0_split_0
I1201 03:59:30.460002 18504 net.cpp:380] inception_5d/1x1 -> inception_5d/1x1
I1201 03:59:30.462067 18504 net.cpp:122] Setting up inception_5d/1x1
I1201 03:59:30.462087 18504 net.cpp:129] Top shape: 15 128 14 14 (376320)
I1201 03:59:30.462093 18504 net.cpp:137] Memory required for data: 2304583740
I1201 03:59:30.462102 18504 layer_factory.hpp:77] Creating layer inception_5d/relu_1x1
I1201 03:59:30.462113 18504 net.cpp:84] Creating Layer inception_5d/relu_1x1
I1201 03:59:30.462121 18504 net.cpp:406] inception_5d/relu_1x1 <- inception_5d/1x1
I1201 03:59:30.462133 18504 net.cpp:367] inception_5d/relu_1x1 -> inception_5d/1x1 (in-place)
I1201 03:59:30.462364 18504 net.cpp:122] Setting up inception_5d/relu_1x1
I1201 03:59:30.462378 18504 net.cpp:129] Top shape: 15 128 14 14 (376320)
I1201 03:59:30.462384 18504 net.cpp:137] Memory required for data: 2306089020
I1201 03:59:30.462389 18504 layer_factory.hpp:77] Creating layer inception_5d/3x3
I1201 03:59:30.462410 18504 net.cpp:84] Creating Layer inception_5d/3x3
I1201 03:59:30.462419 18504 net.cpp:406] inception_5d/3x3 <- inception_5c/output_inception_5c/output_0_split_1
I1201 03:59:30.462430 18504 net.cpp:380] inception_5d/3x3 -> inception_5d/3x3
I1201 03:59:30.467887 18504 net.cpp:122] Setting up inception_5d/3x3
I1201 03:59:30.467912 18504 net.cpp:129] Top shape: 15 128 14 14 (376320)
I1201 03:59:30.467921 18504 net.cpp:137] Memory required for data: 2307594300
I1201 03:59:30.467933 18504 layer_factory.hpp:77] Creating layer inception_5d/relu_3x3
I1201 03:59:30.467947 18504 net.cpp:84] Creating Layer inception_5d/relu_3x3
I1201 03:59:30.467957 18504 net.cpp:406] inception_5d/relu_3x3 <- inception_5d/3x3
I1201 03:59:30.467967 18504 net.cpp:367] inception_5d/relu_3x3 -> inception_5d/3x3 (in-place)
I1201 03:59:30.468250 18504 net.cpp:122] Setting up inception_5d/relu_3x3
I1201 03:59:30.468264 18504 net.cpp:129] Top shape: 15 128 14 14 (376320)
I1201 03:59:30.468271 18504 net.cpp:137] Memory required for data: 2309099580
I1201 03:59:30.468278 18504 layer_factory.hpp:77] Creating layer inception_5d/double3x3a
I1201 03:59:30.468292 18504 net.cpp:84] Creating Layer inception_5d/double3x3a
I1201 03:59:30.468302 18504 net.cpp:406] inception_5d/double3x3a <- inception_5c/output_inception_5c/output_0_split_2
I1201 03:59:30.468312 18504 net.cpp:380] inception_5d/double3x3a -> inception_5d/double3x3a
I1201 03:59:30.474952 18504 net.cpp:122] Setting up inception_5d/double3x3a
I1201 03:59:30.474977 18504 net.cpp:129] Top shape: 15 256 14 14 (752640)
I1201 03:59:30.474984 18504 net.cpp:137] Memory required for data: 2312110140
I1201 03:59:30.474995 18504 layer_factory.hpp:77] Creating layer inception_5d/relu_double3x3a
I1201 03:59:30.475008 18504 net.cpp:84] Creating Layer inception_5d/relu_double3x3a
I1201 03:59:30.475018 18504 net.cpp:406] inception_5d/relu_double3x3a <- inception_5d/double3x3a
I1201 03:59:30.475026 18504 net.cpp:367] inception_5d/relu_double3x3a -> inception_5d/double3x3a (in-place)
I1201 03:59:30.475324 18504 net.cpp:122] Setting up inception_5d/relu_double3x3a
I1201 03:59:30.475339 18504 net.cpp:129] Top shape: 15 256 14 14 (752640)
I1201 03:59:30.475344 18504 net.cpp:137] Memory required for data: 2315120700
I1201 03:59:30.475358 18504 layer_factory.hpp:77] Creating layer inception_5d/double3x3b
I1201 03:59:30.475371 18504 net.cpp:84] Creating Layer inception_5d/double3x3b
I1201 03:59:30.475379 18504 net.cpp:406] inception_5d/double3x3b <- inception_5d/double3x3a
I1201 03:59:30.475389 18504 net.cpp:380] inception_5d/double3x3b -> inception_5d/double3x3b
I1201 03:59:30.480026 18504 net.cpp:122] Setting up inception_5d/double3x3b
I1201 03:59:30.480049 18504 net.cpp:129] Top shape: 15 256 14 14 (752640)
I1201 03:59:30.480057 18504 net.cpp:137] Memory required for data: 2318131260
I1201 03:59:30.480067 18504 layer_factory.hpp:77] Creating layer inception_5d/relu_double3x3b
I1201 03:59:30.480079 18504 net.cpp:84] Creating Layer inception_5d/relu_double3x3b
I1201 03:59:30.480087 18504 net.cpp:406] inception_5d/relu_double3x3b <- inception_5d/double3x3b
I1201 03:59:30.480113 18504 net.cpp:367] inception_5d/relu_double3x3b -> inception_5d/double3x3b (in-place)
I1201 03:59:30.480381 18504 net.cpp:122] Setting up inception_5d/relu_double3x3b
I1201 03:59:30.480396 18504 net.cpp:129] Top shape: 15 256 14 14 (752640)
I1201 03:59:30.480401 18504 net.cpp:137] Memory required for data: 2321141820
I1201 03:59:30.480407 18504 layer_factory.hpp:77] Creating layer inception_5d/output
I1201 03:59:30.480418 18504 net.cpp:84] Creating Layer inception_5d/output
I1201 03:59:30.480425 18504 net.cpp:406] inception_5d/output <- inception_5d/1x1
I1201 03:59:30.480433 18504 net.cpp:406] inception_5d/output <- inception_5d/3x3
I1201 03:59:30.480440 18504 net.cpp:406] inception_5d/output <- inception_5d/double3x3b
I1201 03:59:30.480450 18504 net.cpp:380] inception_5d/output -> inception_5d/output
I1201 03:59:30.480499 18504 net.cpp:122] Setting up inception_5d/output
I1201 03:59:30.480509 18504 net.cpp:129] Top shape: 15 512 14 14 (1505280)
I1201 03:59:30.480515 18504 net.cpp:137] Memory required for data: 2327162940
I1201 03:59:30.480520 18504 layer_factory.hpp:77] Creating layer inception_5d/output_inception_5d/output_0_split
I1201 03:59:30.480531 18504 net.cpp:84] Creating Layer inception_5d/output_inception_5d/output_0_split
I1201 03:59:30.480538 18504 net.cpp:406] inception_5d/output_inception_5d/output_0_split <- inception_5d/output
I1201 03:59:30.480550 18504 net.cpp:380] inception_5d/output_inception_5d/output_0_split -> inception_5d/output_inception_5d/output_0_split_0
I1201 03:59:30.480561 18504 net.cpp:380] inception_5d/output_inception_5d/output_0_split -> inception_5d/output_inception_5d/output_0_split_1
I1201 03:59:30.480571 18504 net.cpp:380] inception_5d/output_inception_5d/output_0_split -> inception_5d/output_inception_5d/output_0_split_2
I1201 03:59:30.480579 18504 net.cpp:380] inception_5d/output_inception_5d/output_0_split -> inception_5d/output_inception_5d/output_0_split_3
I1201 03:59:30.480680 18504 net.cpp:122] Setting up inception_5d/output_inception_5d/output_0_split
I1201 03:59:30.480690 18504 net.cpp:129] Top shape: 15 512 14 14 (1505280)
I1201 03:59:30.480696 18504 net.cpp:129] Top shape: 15 512 14 14 (1505280)
I1201 03:59:30.480703 18504 net.cpp:129] Top shape: 15 512 14 14 (1505280)
I1201 03:59:30.480710 18504 net.cpp:129] Top shape: 15 512 14 14 (1505280)
I1201 03:59:30.480716 18504 net.cpp:137] Memory required for data: 2351247420
I1201 03:59:30.480721 18504 layer_factory.hpp:77] Creating layer pool5/spm7
I1201 03:59:30.480731 18504 net.cpp:84] Creating Layer pool5/spm7
I1201 03:59:30.480738 18504 net.cpp:406] pool5/spm7 <- inception_5d/output_inception_5d/output_0_split_0
I1201 03:59:30.480748 18504 net.cpp:380] pool5/spm7 -> pool5/spm7
I1201 03:59:30.480813 18504 net.cpp:122] Setting up pool5/spm7
I1201 03:59:30.480823 18504 net.cpp:129] Top shape: 15 512 7 7 (376320)
I1201 03:59:30.480829 18504 net.cpp:137] Memory required for data: 2352752700
I1201 03:59:30.480834 18504 layer_factory.hpp:77] Creating layer pool5/spm7_flatten
I1201 03:59:30.480885 18504 net.cpp:84] Creating Layer pool5/spm7_flatten
I1201 03:59:30.480891 18504 net.cpp:406] pool5/spm7_flatten <- pool5/spm7
I1201 03:59:30.480901 18504 net.cpp:380] pool5/spm7_flatten -> pool5/spm7_flatten
I1201 03:59:30.480939 18504 net.cpp:122] Setting up pool5/spm7_flatten
I1201 03:59:30.480949 18504 net.cpp:129] Top shape: 15 25088 (376320)
I1201 03:59:30.480954 18504 net.cpp:137] Memory required for data: 2354257980
I1201 03:59:30.480962 18504 layer_factory.hpp:77] Creating layer pool5/spm3
I1201 03:59:30.480969 18504 net.cpp:84] Creating Layer pool5/spm3
I1201 03:59:30.480975 18504 net.cpp:406] pool5/spm3 <- inception_5d/output_inception_5d/output_0_split_1
I1201 03:59:30.480983 18504 net.cpp:380] pool5/spm3 -> pool5/spm3
I1201 03:59:30.481040 18504 net.cpp:122] Setting up pool5/spm3
I1201 03:59:30.481050 18504 net.cpp:129] Top shape: 15 512 3 3 (69120)
I1201 03:59:30.481055 18504 net.cpp:137] Memory required for data: 2354534460
I1201 03:59:30.481060 18504 layer_factory.hpp:77] Creating layer pool5/spm3_flatten
I1201 03:59:30.481075 18504 net.cpp:84] Creating Layer pool5/spm3_flatten
I1201 03:59:30.481091 18504 net.cpp:406] pool5/spm3_flatten <- pool5/spm3
I1201 03:59:30.481101 18504 net.cpp:380] pool5/spm3_flatten -> pool5/spm3_flatten
I1201 03:59:30.481138 18504 net.cpp:122] Setting up pool5/spm3_flatten
I1201 03:59:30.481150 18504 net.cpp:129] Top shape: 15 4608 (69120)
I1201 03:59:30.481156 18504 net.cpp:137] Memory required for data: 2354810940
I1201 03:59:30.481161 18504 layer_factory.hpp:77] Creating layer pool5/spm2
I1201 03:59:30.481170 18504 net.cpp:84] Creating Layer pool5/spm2
I1201 03:59:30.481176 18504 net.cpp:406] pool5/spm2 <- inception_5d/output_inception_5d/output_0_split_2
I1201 03:59:30.481184 18504 net.cpp:380] pool5/spm2 -> pool5/spm2
I1201 03:59:30.481242 18504 net.cpp:122] Setting up pool5/spm2
I1201 03:59:30.481252 18504 net.cpp:129] Top shape: 15 512 2 2 (30720)
I1201 03:59:30.481258 18504 net.cpp:137] Memory required for data: 2354933820
I1201 03:59:30.481271 18504 layer_factory.hpp:77] Creating layer pool5/spm2_flatten
I1201 03:59:30.481281 18504 net.cpp:84] Creating Layer pool5/spm2_flatten
I1201 03:59:30.481287 18504 net.cpp:406] pool5/spm2_flatten <- pool5/spm2
I1201 03:59:30.481297 18504 net.cpp:380] pool5/spm2_flatten -> pool5/spm2_flatten
I1201 03:59:30.481333 18504 net.cpp:122] Setting up pool5/spm2_flatten
I1201 03:59:30.481341 18504 net.cpp:129] Top shape: 15 2048 (30720)
I1201 03:59:30.481346 18504 net.cpp:137] Memory required for data: 2355056700
I1201 03:59:30.481353 18504 layer_factory.hpp:77] Creating layer pool5/spm1
I1201 03:59:30.481360 18504 net.cpp:84] Creating Layer pool5/spm1
I1201 03:59:30.481366 18504 net.cpp:406] pool5/spm1 <- inception_5d/output_inception_5d/output_0_split_3
I1201 03:59:30.481374 18504 net.cpp:380] pool5/spm1 -> pool5/spm1
I1201 03:59:30.481431 18504 net.cpp:122] Setting up pool5/spm1
I1201 03:59:30.481441 18504 net.cpp:129] Top shape: 15 512 1 1 (7680)
I1201 03:59:30.481446 18504 net.cpp:137] Memory required for data: 2355087420
I1201 03:59:30.481451 18504 layer_factory.hpp:77] Creating layer pool5/spm1_flatten
I1201 03:59:30.481462 18504 net.cpp:84] Creating Layer pool5/spm1_flatten
I1201 03:59:30.481467 18504 net.cpp:406] pool5/spm1_flatten <- pool5/spm1
I1201 03:59:30.481475 18504 net.cpp:380] pool5/spm1_flatten -> pool5/spm1_flatten
I1201 03:59:30.481511 18504 net.cpp:122] Setting up pool5/spm1_flatten
I1201 03:59:30.481521 18504 net.cpp:129] Top shape: 15 512 (7680)
I1201 03:59:30.481526 18504 net.cpp:137] Memory required for data: 2355118140
I1201 03:59:30.481531 18504 layer_factory.hpp:77] Creating layer pool5/spm
I1201 03:59:30.481540 18504 net.cpp:84] Creating Layer pool5/spm
I1201 03:59:30.481547 18504 net.cpp:406] pool5/spm <- pool5/spm1_flatten
I1201 03:59:30.481554 18504 net.cpp:406] pool5/spm <- pool5/spm2_flatten
I1201 03:59:30.481560 18504 net.cpp:406] pool5/spm <- pool5/spm3_flatten
I1201 03:59:30.481567 18504 net.cpp:406] pool5/spm <- pool5/spm7_flatten
I1201 03:59:30.481578 18504 net.cpp:380] pool5/spm -> pool5/spm
I1201 03:59:30.481621 18504 net.cpp:122] Setting up pool5/spm
I1201 03:59:30.481631 18504 net.cpp:129] Top shape: 15 32256 (483840)
I1201 03:59:30.481637 18504 net.cpp:137] Memory required for data: 2357053500
I1201 03:59:30.481648 18504 layer_factory.hpp:77] Creating layer fc6
I1201 03:59:30.481665 18504 net.cpp:84] Creating Layer fc6
I1201 03:59:30.481672 18504 net.cpp:406] fc6 <- pool5/spm
I1201 03:59:30.481680 18504 net.cpp:380] fc6 -> fc6
I1201 03:59:30.854054 18504 net.cpp:122] Setting up fc6
I1201 03:59:30.854105 18504 net.cpp:129] Top shape: 15 4096 (61440)
I1201 03:59:30.854112 18504 net.cpp:137] Memory required for data: 2357299260
I1201 03:59:30.854128 18504 layer_factory.hpp:77] Creating layer fc6/relu
I1201 03:59:30.854154 18504 net.cpp:84] Creating Layer fc6/relu
I1201 03:59:30.854162 18504 net.cpp:406] fc6/relu <- fc6
I1201 03:59:30.854172 18504 net.cpp:367] fc6/relu -> fc6 (in-place)
I1201 03:59:30.855438 18504 net.cpp:122] Setting up fc6/relu
I1201 03:59:30.855458 18504 net.cpp:129] Top shape: 15 4096 (61440)
I1201 03:59:30.855473 18504 net.cpp:137] Memory required for data: 2357545020
I1201 03:59:30.855504 18504 layer_factory.hpp:77] Creating layer fc6/dropout
I1201 03:59:30.855515 18504 net.cpp:84] Creating Layer fc6/dropout
I1201 03:59:30.855523 18504 net.cpp:406] fc6/dropout <- fc6
I1201 03:59:30.855533 18504 net.cpp:367] fc6/dropout -> fc6 (in-place)
I1201 03:59:30.855588 18504 net.cpp:122] Setting up fc6/dropout
I1201 03:59:30.855600 18504 net.cpp:129] Top shape: 15 4096 (61440)
I1201 03:59:30.855607 18504 net.cpp:137] Memory required for data: 2357790780
I1201 03:59:30.855612 18504 layer_factory.hpp:77] Creating layer fc7
I1201 03:59:30.855623 18504 net.cpp:84] Creating Layer fc7
I1201 03:59:30.855628 18504 net.cpp:406] fc7 <- fc6
I1201 03:59:30.855636 18504 net.cpp:380] fc7 -> fc7
I1201 03:59:30.903188 18504 net.cpp:122] Setting up fc7
I1201 03:59:30.903254 18504 net.cpp:129] Top shape: 15 4096 (61440)
I1201 03:59:30.903260 18504 net.cpp:137] Memory required for data: 2358036540
I1201 03:59:30.903277 18504 layer_factory.hpp:77] Creating layer fc7/relu
I1201 03:59:30.903295 18504 net.cpp:84] Creating Layer fc7/relu
I1201 03:59:30.903302 18504 net.cpp:406] fc7/relu <- fc7
I1201 03:59:30.903317 18504 net.cpp:367] fc7/relu -> fc7 (in-place)
I1201 03:59:30.903661 18504 net.cpp:122] Setting up fc7/relu
I1201 03:59:30.903672 18504 net.cpp:129] Top shape: 15 4096 (61440)
I1201 03:59:30.903678 18504 net.cpp:137] Memory required for data: 2358282300
I1201 03:59:30.903684 18504 layer_factory.hpp:77] Creating layer fc7/dropout
I1201 03:59:30.903699 18504 net.cpp:84] Creating Layer fc7/dropout
I1201 03:59:30.903707 18504 net.cpp:406] fc7/dropout <- fc7
I1201 03:59:30.903714 18504 net.cpp:367] fc7/dropout -> fc7 (in-place)
I1201 03:59:30.903759 18504 net.cpp:122] Setting up fc7/dropout
I1201 03:59:30.903769 18504 net.cpp:129] Top shape: 15 4096 (61440)
I1201 03:59:30.903774 18504 net.cpp:137] Memory required for data: 2358528060
I1201 03:59:30.903779 18504 layer_factory.hpp:77] Creating layer classifier_re
I1201 03:59:30.903805 18504 net.cpp:84] Creating Layer classifier_re
I1201 03:59:30.903811 18504 net.cpp:406] classifier_re <- fc7
I1201 03:59:30.903828 18504 net.cpp:380] classifier_re -> classifier_re
I1201 03:59:30.910341 18504 net.cpp:122] Setting up classifier_re
I1201 03:59:30.910363 18504 net.cpp:129] Top shape: 15 80 (1200)
I1201 03:59:30.910370 18504 net.cpp:137] Memory required for data: 2358532860
I1201 03:59:30.910380 18504 layer_factory.hpp:77] Creating layer loss
I1201 03:59:30.910393 18504 net.cpp:84] Creating Layer loss
I1201 03:59:30.910400 18504 net.cpp:406] loss <- classifier_re
I1201 03:59:30.910410 18504 net.cpp:406] loss <- label
I1201 03:59:30.910419 18504 net.cpp:380] loss -> loss
I1201 03:59:30.910435 18504 layer_factory.hpp:77] Creating layer loss
…
  name: "data"
  type: "ImageData"
  top: "data"
  top: "label"
  include {
    phase: TEST
  }
  transform_param {
    mirror: false
    crop_size: 224
    mean_value: 114.005
    mean_value: 121.639
    mean_value: 125.972
  }
  image_data_param {
    source: "/home/wuxiaodong/data/ai_challenge/ai_challenger_scene_validation_20170908/val.txt"
    batch_size: 5
    shuffle: false
    new_height: 256
    new_width: 256
    root_folder: "/home/wuxiaodong/data/ai_challenge/ai_challenger_scene_validation_20170908/scene_validation_images_20170908/"
  }
}
layer {
  name: "conv1"
  type: "Convolution"
  bottom: "data"
  top: "conv1"
  convolution_param {
    num_output: 128
    pad: 3
    kernel_size: 7
    stride: 2
  }
}
layer {
  name: "conv1/relu"
  type: "ReLU"
  bottom: "conv1"
  top: "conv1"
}
layer {
  name: "pool2"
  type: "Pooling"
  bottom: "conv1"
  top: "pool2"
  pooling_param {
    pool: MAX
    kernel_size: 2
    stride: 2
  }
}
layer {
  name: "inception_3a/1x1"
  type: "Convolution"
  bottom: "pool2"
  top: "inception_3a/1x1"
  convolution_param {
    num_output: 64
    kernel_size: 1
  }
}
layer {
  name: "inception_3a/relu_1x1"
  type: "ReLU"
  bottom: "inception_3a/1x1"
  top: "inception_3a/1x1"
}
layer {
  name: "inception_3a/3x3"
  type: "Convolution"
  bottom: "pool2"
  top: "inception_3a/3x3"
  convolution_param {
    num_output: 64
    pad: 1
    kernel_size: 3
  }
}
layer {
  name: "inception_3a/relu_3x3"
  type: "ReLU"
  bottom: "inception_3a/3x3"
  top: "inception_3a/3x3"
}
layer {
  name: "inception_3a/double3x3a"
  type: "Convolution"
  bottom: "pool2"
  top: "inception_3a/double3x3a"
  convolution_param {
    num_output: 128
    pad: 1
    kernel_size: 3
  }
}
layer {
  name: "inception_3a/relu_double3x3a"
  type: "ReLU"
  bottom: "inception_3a/double3x3a"
  top: "inception_3a/double3x3a"
}
layer {
  name: "inception_3a/double3x3b"
  type: "Convolution"
  bottom: "inception_3a/double3x3a"
  top: "inception_3a/double3x3b"
  convolution_param {
    num_output: 128
    pad: 1
    kernel_size: 3
  }
}
layer {
  name: "inception_3a/relu_double3x3b"
  type: "ReLU"
  bottom: "inception_3a/double3x3b"
  top: "inception_3a/double3x3b"
}
layer {
  name: "inception_3a/output"
  type: "Concat"
  bottom: "inception_3a/1x1"
  bottom: "inception_3a/3x3"
  bottom: "inception_3a/double3x3b"
  top: "inception_3a/output"
}
layer {
  name: "inception_3b/1x1"
  type: "Convolution"
  bottom: "inception_3a/output"
  top: "inception_3b/1x1"
  convolution_param {
    num_output: 64
    kernel_size: 1
  }
}
layer {
  name: "inception_3b/relu_1x1"
  type: "ReLU"
  bottom: "inception_3b/1x1"
  top: "inception_3b/1x1"
}
layer {
  name: "inception_3b/3x3"
  type: "Convolution"
  bottom: "inception_3a/output"
  top: "inception_3b/3x3"
  convolution_param {
    num_output: 64
    pad: 1
    kernel_size: 3
  }
}
layer {
  name: "inception_3b/relu_3x3"
  type: "ReLU"
  bottom: "inception_3b/3x3"
  top: "inception_3b/3x3"
}
layer {
  name: "inception_3b/double3x3a"
  type: "Convolution"
  bottom: "inception_3a/output"
  top: "inception_3b/double3x3a"
  convolution_param {
    num_output: 128
    pad: 1
    kernel_size: 3
  }
}
layer {
  name: "inception_3b/relu_double3x3a"
  type: "ReLU"
  bottom: "inception_3b/double3x3a"
  top: "inception_3b/double3x3a"
}
layer {
  name: "inception_3b/double3x3b"
  type: "Convolution"
  bottom: "inception_3b/double3x3a"
  top: "inception_3b/double3x3b"
  convolution_param {
    num_output: 128
    pad: 1
    kernel_size: 3
  }
}
layer {
  name: "inception_3b/relu_double3x3b"
  type: "ReLU"
  bottom: "inception_3b/double3x3b"
  top: "inception_3b/double3x3b"
}
layer {
  name: "inception_3b/output"
  type: "Concat"
  bottom: "inception_3b/1x1"
  bottom: "inception_3b/3x3"
  bottom: "inception_3b/double3x3b"
  top: "inception_3b/output"
}
layer {
  name: "inception_3c/1x1"
  type: "Convolution"
  bottom: "inception_3b/output"
  top: "inception_3c/1x1"
  convolution_param {
    num_output: 64
    kernel_size: 1
  }
}
layer {
  name: "inception_3c/relu_1x1"
  type: "ReLU"
  bottom: "inception_3c/1x1"
  top: "inception_3c/1x1"
}
layer {
  name: "inception_3c/3x3"
  type: "Convolution"
  bottom: "inception_3b/output"
  top: "inception_3c/3x3"
  convolution_param {
    num_output: 64
    pad: 1
    kernel_size: 3
  }
}
layer {
  name: "inception_3c/relu_3x3"
  type: "ReLU"
  bottom: "inception_3c/3x3"
  top: "inception_3c/3x3"
}
layer {
  name: "inception_3c/double3x3a"
  type: "Convolution"
  bottom: "inception_3b/output"
  top: "inception_3c/double3x3a"
  convolution_param {
    num_output: 128
    pad: 1
    kernel_size: 3
  }
}
layer {
  name: "inception_3c/relu_double3x3a"
  type: "ReLU"
  bottom: "inception_3c/double3x3a"
  top: "inception_3c/double3x3a"
}
layer {
  name: "inception_3c/double3x3b"
  type: "Convolution"
  bottom: "inception_3c/double3x3a"
  top: "inception_3c/double3x3b"
  convolution_param {
    num_output: 128
    pad: 1
    kernel_size: 3
  }
}
layer {
  name: "inception_3c/relu_double3x3b"
  type: "ReLU"
  bottom: "inception_3c/double3x3b"
  top: "inception_3c/double3x3b"
}
layer {
  name: "inception_3c/output"
  type: "Concat"
  bottom: "inception_3c/1x1"
  bottom: "inception_3c/3x3"
  bottom: "inception_3c/double3x3b"
  top: "inception_3c/output"
}
layer {
  name: "inception_3d/1x1"
  type: "Convolution"
  bottom: "inception_3c/output"
  top: "inception_3d/1x1"
  convolution_param {
    num_output: 64
    kernel_size: 1
  }
}
layer {
  name: "inception_3d/relu_1x1"
  type: "ReLU"
  bottom: "inception_3d/1x1"
  top: "inception_3d/1x1"
}
layer {
  name: "inception_3d/3x3"
  type: "Convolution"
  bottom: "inception_3c/output"
  top: "inception_3d/3x3"
  convolution_param {
    num_output: 64
    pad: 1
    kernel_size: 3
  }
}
layer {
  name: "inception_3d/relu_3x3"
  type: "ReLU"
  bottom: "inception_3d/3x3"
  top: "inception_3d/3x3"
}
layer {
  name: "inception_3d/double3x3a"
  type: "Convolution"
  bottom: "inception_3c/output"
  top: "inception_3d/double3x3a"
  convolution_param {
    num_output: 128
    pad: 1
    kernel_size: 3
  }
}
layer {
  name: "inception_3d/relu_double3x3a"
  type: "ReLU"
  bottom: "inception_3d/double3x3a"
  top: "inception_3d/double3x3a"
}
layer {
  name: "inception_3d/double3x3b"
  type: "Convolution"
  bottom: "inception_3d/double3x3a"
  top: "inception_3d/double3x3b"
  convolution_param {
    num_output: 128
    pad: 1
    kernel_size: 3
  }
}
layer {
  name: "inception_3d/relu_double3x3b"
  type: "ReLU"
  bottom: "inception_3d/double3x3b"
  top: "inception_3d/double3x3b"
}
layer {
  name: "inception_3d/output"
  type: "Concat"
  bottom: "inception_3d/1x1"
  bottom: "inception_3d/3x3"
  bottom: "inception_3d/double3x3b"
  top: "inception_3d/output"
}
layer {
  name: "pool3"
  type: "Pooling"
  bottom: "inception_3d/output"
  top: "pool3"
  pooling_param {
    pool: MAX
    kernel_size: 2
    stride: 2
  }
}
layer {
  name: "inception_4a/1x1"
  type: "Convolution"
  bottom: "pool3"
  top: "inception_4a/1x1"
  convolution_param {
    num_output: 128
    kernel_size: 1
  }
}
layer {
  name: "inception_4a/relu_1x1"
  type: "ReLU"
  bottom: "inception_4a/1x1"
  top: "inception_4a/1x1"
}
layer {
  name: "inception_4a/3x3"
  type: "Convolution"
  bottom: "pool3"
  top: "inception_4a/3x3"
  convolution_param {
    num_output: 128
    pad: 1
    kernel_size: 3
  }
}
layer {
  name: "inception_4a/relu_3x3"
  type: "ReLU"
  bottom: "inception_4a/3x3"
  top: "inception_4a/3x3"
}
layer {
  name: "inception_4a/double3x3a"
  type: "Convolution"
  bottom: "pool3"
  top: "inception_4a/double3x3a"
  convolution_param {
    num_output: 256
    pad: 1
    kernel_size: 3
  }
}
layer {
  name: "inception_4a/relu_double3x3a"
  type: "ReLU"
  bottom: "inception_4a/double3x3a"
  top: "inception_4a/double3x3a"
}
layer {
  name: "inception_4a/double3x3b"
  type: "Convolution"
  bottom: "inception_4a/double3x3a"
  top: "inception_4a/double3x3b"
  convolution_param {
    num_output: 256
    pad: 1
    kernel_size: 3
  }
}
layer {
  name: "inception_4a/relu_double3x3b"
  type: "ReLU"
  bottom: "inception_4a/double3x3b"
  top: "inception_4a/double3x3b"
}
layer {
  name: "inception_4a/output"
  type: "Concat"
  bottom: "inception_4a/1x1"
  bottom: "inception_4a/3x3"
  bottom: "inception_4a/double3x3b"
  top: "inception_4a/output"
}
layer {
  name: "inception_4b/1x1"
  type: "Convolution"
  bottom: "inception_4a/output"
  top: "inception_4b/1x1"
  convolution_param {
    num_output: 128
    kernel_size: 1
  }
}
layer {
  name: "inception_4b/relu_1x1"
  type: "ReLU"
  bottom: "inception_4b/1x1"
  top: "inception_4b/1x1"
}
layer {
  name: "inception_4b/3x3"
  type: "Convolution"
  bottom: "inception_4a/output"
  top: "inception_4b/3x3"
  convolution_param {
    num_output: 128
    pad: 1
    kernel_size: 3
  }
}
layer {
  name: "inception_4b/relu_3x3"
  type: "ReLU"
  bottom: "inception_4b/3x3"
  top: "inception_4b/3x3"
}
layer {
  name: "inception_4b/double3x3a"
  type: "Convolution"
  bottom: "inception_4a/output"
  top: "inception_4b/double3x3a"
  convolution_param {
    num_output: 256
    pad: 1
    kernel_size: 3
  }
}
layer {
  name: "inception_4b/relu_double3x3a"
  type: "ReLU"
  bottom: "inception_4b/double3x3a"
  top: "inception_4b/double3x3a"
}
layer {
  name: "inception_4b/double3x3b"
  type: "Convolution"
  bottom: "inception_4b/double3x3a"
  top: "inception_4b/double3x3b"
  convolution_param {
    num_output: 256
    pad: 1
    kernel_size: 3
  }
}
layer {
  name: "inception_4b/relu_double3x3b"
  type: "ReLU"
  bottom: "inception_4b/double3x3b"
  top: "inception_4b/double3x3b"
}
layer {
  name: "inception_4b/output"
  type: "Concat"
  bottom: "inception_4b/1x1"
  bottom: "inception_4b/3x3"
  bottom: "inception_4b/double3x3b"
  top: "inception_4b/output"
}
layer {
  name: "inception_4c/1x1"
  type: "Convolution"
  bottom: "inception_4b/output"
  top: "inception_4c/1x1"
  convolution_param {
    num_output: 128
    kernel_size: 1
  }
}
layer {
  name: "inception_4c/relu_1x1"
  type: "ReLU"
  bottom: "inception_4c/1x1"
  top: "inception_4c/1x1"
}
layer {
  name: "inception_4c/3x3"
  type: "Convolution"
  bottom: "inception_4b/output"
  top: "inception_4c/3x3"
  convolution_param {
    num_output: 128
    pad: 1
    kernel_size: 3
  }
}
layer {
  name: "inception_4c/relu_3x3"
  type: "ReLU"
  bottom: "inception_4c/3x3"
  top: "inception_4c/3x3"
}
layer {
  name: "inception_4c/double3x3a"
  type: "Convolution"
  bottom: "inception_4b/output"
  top: "inception_4c/double3x3a"
  convolution_param {
    num_output: 256
    pad: 1
    kernel_size: 3
  }
}
layer {
  name: "inception_4c/relu_double3x3a"
  type: "ReLU"
  bottom: "inception_4c/double3x3a"
  top: "inception_4c/double3x3a"
}
layer {
  name: "inception_4c/double3x3b"
  type: "Convolution"
  bottom: "inception_4c/double3x3a"
  top: "inception_4c/double3x3b"
  convolution_param {
    num_output: 256
    pad: 1
    kernel_size: 3
  }
}
layer {
  name: "inception_4c/relu_double3x3b"
  type: "ReLU"
  bottom: "inception_4c/double3x3b"
  top: "inception_4c/double3x3b"
}
layer {
  name: "inception_4c/output"
  type: "Concat"
  bottom: "inception_4c/1x1"
  bottom: "inception_4c/3x3"
  bottom: "inception_4c/double3x3b"
  top: "inception_4c/output"
}
layer {
  name: "inception_4d/1x1"
  type: "Convolution"
  bottom: "inception_4c/output"
  top: "inception_4d/1x1"
  convolution_param {
    num_output: 128
    kernel_size: 1
  }
}
layer {
  name: "inception_4d/relu_1x1"
  type: "ReLU"
  bottom: "inception_4d/1x1"
  top: "inception_4d/1x1"
}
layer {
  name: "inception_4d/3x3"
  type: "Convolution"
  bottom: "inception_4c/output"
  top: "inception_4d/3x3"
  convolution_param {
    num_output: 128
    pad: 1
    kernel_size: 3
  }
}
layer {
  name: "inception_4d/relu_3x3"
  type: "ReLU"
  bottom: "inception_4d/3x3"
  top: "inception_4d/3x3"
}
layer {
  name: "inception_4d/double3x3a"
  type: "Convolution"
  bottom: "inception_4c/output"
  top: "inception_4d/double3x3a"
  convolution_param {
    num_output: 256
    pad: 1
    kernel_size: 3
  }
}
layer {
  name: "inception_4d/relu_double3x3a"
  type: "ReLU"
  bottom: "inception_4d/double3x3a"
  top: "inception_4d/double3x3a"
}
layer {
  name: "inception_4d/double3x3b"
  type: "Convolution"
  bottom: "inception_4d/double3x3a"
  top: "inception_4d/double3x3b"
  convolution_param {
    num_output: 256
    pad: 1
    kernel_size: 3
  }
}
layer {
  name: "inception_4d/relu_double3x3b"
  type: "ReLU"
  bottom: "inception_4d/double3x3b"
  top: "inception_4d/double3x3b"
}
layer {
  name: "inception_4d/output"
  type: "Concat"
  bottom: "inception_4d/1x1"
  bottom: "inception_4d/3x3"
  bottom: "inception_4d/double3x3b"
  top: "inception_4d/output"
}
layer {
  name: "pool4"
  type: "Pooling"
  bottom: "inception_4d/output"
  top: "pool4"
  pooling_param {
    pool: MAX
    kernel_size: 2
    stride: 2
  }
}
layer {
  name: "inception_5a/1x1"
  type: "Convolution"
  bottom: "pool4"
  top: "inception_5a/1x1"
  convolution_param {
    num_output: 128
    kernel_size: 1
  }
}
layer {
  name: "inception_5a/relu_1x1"
  type: "ReLU"
  bottom: "inception_5a/1x1"
  top: "inception_5a/1x1"
}
layer {
  name: "inception_5a/3x3"
  type: "Convolution"
  bottom: "pool4"
  top: "inception_5a/3x3"
  convolution_param {
    num_output: 128
    pad: 1
    kernel_size: 3
  }
}
layer {
  name: "inception_5a/relu_3x3"
  type: "ReLU"
  bottom: "inception_5a/3x3"
  top: "inception_5a/3x3"
}
layer {
  name: "inception_5a/double3x3a"
  type: "Convolution"
  bottom: "pool4"
  top: "inception_5a/double3x3a"
  convolution_param {
    num_output: 256
    pad: 1
    kernel_size: 3
  }
}
layer {
  name: "inception_5a/relu_double3x3a"
  type: "ReLU"
  bottom: "inception_5a/double3x3a"
  top: "inception_5a/double3x3a"
}
layer {
  name: "inception_5a/double3x3b"
  type: "Convolution"
  bottom: "inception_5a/double3x3a"
  top: "inception_5a/double3x3b"
  convolution_param {
    num_output: 256
    pad: 1
    kernel_size: 3
  }
}
layer {
  name: "inception_5a/relu_double3x3b"
  type: "ReLU"
  bottom: "inception_5a/double3x3b"
  top: "inception_5a/double3x3b"
}
layer {
  name: "inception_5a/output"
  type: "Concat"
  bottom: "inception_5a/1x1"
  bottom: "inception_5a/3x3"
  bottom: "inception_5a/double3x3b"
  top: "inception_5a/output"
}
layer {
  name: "inception_5b/1x1"
  type: "Convolution"
  bottom: "inception_5a/output"
  top: "inception_5b/1x1"
  convolution_param {
    num_output: 128
    kernel_size: 1
  }
}
layer {
  name: "inception_5b/relu_1x1"
  type: "ReLU"
  bottom: "inception_5b/1x1"
  top: "inception_5b/1x1"
}
layer {
  name: "inception_5b/3x3"
  type: "Convolution"
  bottom: "inception_5a/output"
  top: "inception_5b/3x3"
  convolution_param {
    num_output: 128
    pad: 1
    kernel_size: 3
  }
}
layer {
  name: "inception_5b/relu_3x3"
  type: "ReLU"
  bottom: "inception_5b/3x3"
  top: "inception_5b/3x3"
}
layer {
  name: "inception_5b/double3x3a"
  type: "Convolution"
  bottom: "inception_5a/output"
  top: "inception_5b/double3x3a"
  convolution_param {
    num_output: 256
    pad: 1
    kernel_size: 3
  }
}
layer {
  name: "inception_5b/relu_double3x3a"
  type: "ReLU"
  bottom: "inception_5b/double3x3a"
  top: "inception_5b/double3x3a"
}
layer {
  name: "inception_5b/double3x3b"
  type: "Convolution"
  bottom: "inception_5b/double3x3a"
  top: "inception_5b/double3x3b"
  convolution_param {
    num_output: 256
    pad: 1
    kernel_size: 3
  }
}
layer {
  name: "inception_5b/relu_double3x3b"
  type: "ReLU"
  bottom: "inception_5b/double3x3b"
  top: "inception_5b/double3x3b"
}
layer {
  name: "inception_5b/output"
  type: "Concat"
  bottom: "inception_5b/1x1"
  bottom: "inception_5b/3x3"
  bottom: "inception_5b/double3x3b"
  top: "inception_5b/output"
}
layer {
  name: "inception_5c/1x1"
  type: "Convolution"
  bottom: "inception_5b/output"
  top: "inception_5c/1x1"
  convolution_param {
    num_output: 128
    kernel_size: 1
  }
}
layer {
  name: "inception_5c/relu_1x1"
  type: "ReLU"
  bottom: "inception_5c/1x1"
  top: "inception_5c/1x1"
}
layer {
  name: "inception_5c/3x3"
  type: "Convolution"
  bottom: "inception_5b/output"
  top: "inception_5c/3x3"
  convolution_param {
    num_output: 128
    pad: 1
    kernel_size: 3
  }
}
layer {
  name: "inception_5c/relu_3x3"
  type: "ReLU"
  bottom: "inception_5c/3x3"
  top: "inception_5c/3x3"
}
layer {
  name: "inception_5c/double3x3a"
  type: "Convolution"
  bottom: "inception_5b/output"
  top: "inception_5c/double3x3a"
  convolution_param {
    num_output: 256
    pad: 1
    kernel_size: 3
  }
}
layer {
  name: "inception_5c/relu_double3x3a"
  type: "ReLU"
  bottom: "inception_5c/double3x3a"
  top: "inception_5c/double3x3a"
}
layer {
  name: "inception_5c/double3x3b"
  type: "Convolution"
  bottom: "inception_5c/double3x3a"
  top: "inception_5c/double3x3b"
  convolution_param {
    num_output: 256
    pad: 1
    kernel_size: 3
  }
}
layer {
  name: "inception_5c/relu_double3x3b"
  type: "ReLU"
  bottom: "inception_5c/double3x3b"
  top: "inception_5c/double3x3b"
}
layer {
  name: "inception_5c/output"
  type: "Concat"
  bottom: "inception_5c/1x1"
  bottom: "inception_5c/3x3"
  bottom: "inception_5c/double3x3b"
  top: "inception_5c/output"
}
layer {
  name: "inception_5d/1x1"
  type: "Convolution"
  bottom: "inception_5c/output"
  top: "inception_5d/1x1"
  convolution_param {
    num_output: 128
    kernel_size: 1
  }
}
layer {
  name: "inception_5d/relu_1x1"
  type: "ReLU"
  bottom: "inception_5d/1x1"
  top: "inception_5d/1x1"
}
layer {
  name: "inception_5d/3x3"
  type: "Convolution"
  bottom: "inception_5c/output"
  top: "inception_5d/3x3"
  convolution_param {
    num_output: 128
    pad: 1
    kernel_size: 3
  }
}
layer {
  name: "inception_5d/relu_3x3"
  type: "ReLU"
  bottom: "inception_5d/3x3"
  top: "inception_5d/3x3"
}
layer {
  name: "inception_5d/double3x3a"
  type: "Convolution"
  bottom: "inception_5c/output"
  top: "inception_5d/double3x3a"
  convolution_param {
    num_output: 256
    pad: 1
    kernel_size: 3
  }
}
layer {
  name: "inception_5d/relu_double3x3a"
  type: "ReLU"
  bottom: "inception_5d/double3x3a"
  top: "inception_5d/double3x3a"
}
layer {
  name: "inception_5d/double3x3b"
  type: "Convolution"
  bottom: "inception_5d/double3x3a"
  top: "inception_5d/double3x3b"
  convolution_param {
    num_output: 256
    pad: 1
    kernel_size: 3
  }
}
layer {
  name: "inception_5d/relu_double3x3b"
  type: "ReLU"
  bottom: "inception_5d/double3x3b"
  top: "inception_5d/double3x3b"
}
layer {
  name: "inception_5d/output"
  type: "Concat"
  bottom: "inception_5d/1x1"
  bottom: "inception_5d/3x3"
  bottom: "inception_5d/double3x3b"
  top: "inception_5d/output"
}
layer {
  name: "pool5/spm7"
  type: "Pooling"
  bottom: "inception_5d/output"
  top: "pool5/spm7"
  pooling_param {
    pool: MAX
    kernel_size: 2
    stride: 2
  }
}
layer {
  name: "pool5/spm7_flatten"
  type: "Flatten"
  bottom: "pool5/spm7"
  top: "pool5/spm7_flatten"
}
layer {
  name: "pool5/spm3"
  type: "Pooling"
  bottom: "inception_5d/output"
  top: "pool5/spm3"
  pooling_param {
    pool: MAX
    kernel_size: 5
    stride: 5
  }
}
layer {
  name: "pool5/spm3_flatten"
  type: "Flatten"
  bottom: "pool5/spm3"
  top: "pool5/spm3_flatten"
}
layer {
  name: "pool5/spm2"
  type: "Pooling"
  bottom: "inception_5d/output"
  top: "pool5/spm2"
  pooling_param {
    pool: MAX
    kernel_size: 7
    stride: 7
  }
}
layer {
  name: "pool5/spm2_flatten"
  type: "Flatten"
  bottom: "pool5/spm2"
  top: "pool5/spm2_flatten"
}
layer {
  name: "pool5/spm1"
  type: "Pooling"
  bottom: "inception_5d/output"
  top: "pool5/spm1"
  pooling_param {
    pool: MAX
    kernel_size: 14
    stride: 14
  }
}
layer {
  name: "pool5/spm1_flatten"
  type: "Flatten"
  bottom: "pool5/spm1"
  top: "pool5/spm1_flatten"
}
layer {
  name: "pool5/spm"
  type: "Concat"
  bottom: "pool5/spm1_flatten"
  bottom: "pool5/spm2_flatten"
  bottom: "pool5/spm3_flatten"
  bottom: "pool5/spm7_flatten"
  top: "pool5/spm"
  concat_param {
    concat_dim: 1
  }
}
layer {
  name: "fc6"
  type: "InnerProduct"
  bottom: "pool5/spm"
  top: "fc6"
  inner_product_param {
    num_output: 4096
  }
}
layer {
  name: "fc6/relu"
  type: "ReLU"
  bottom: "fc6"
  top: "fc6"
}
layer {
  name: "fc6/dropout"
  type: "Dropout"
  bottom: "fc6"
  top: "fc6"
  dropout_param {
    dropout_ratio: 0.5
  }
}
layer {
  name: "fc7"
  type: "InnerProduct"
  bottom: "fc6"
  top: "fc7"
  inner_product_param {
    num_output: 4096
  }
}
layer {
  name: "fc7/relu"
  type: "ReLU"
  bottom: "fc7"
  top: "fc7"
}
layer {
  name: "fc7/dropout"
  type: "Dropout"
  bottom: "fc7"
  top: "fc7"
  dropout_param {
    dropout_ratio: 0.5
  }
}
layer {
  name: "classifier_re"
  type: "InnerProduct"
  bottom: "fc7"
  top: "classifier_re"
  param {
    lr_mult: 10
    decay_mult: 1
  }
  param {
    lr_mult: 20
    decay_mult: 0
  }
  inner_product_param {
    num_output: 80
    weight_filler {
      type: "gaussian"
      std: 0.01
    }
    bias_filler {
      type: "constant"
      value: 0
    }
  }
}
layer {
  name: "accuracy_top_3"
  type: "Accuracy"
  bottom: "classifier_re"
  bottom: "label"
  top: "accuracy_top_3"
  include {
    phase: TEST
  }
  accuracy_param {
    top_k: 3
  }
}
layer {
  name: "accuracy"
  type: "Accuracy"
  bottom: "classifier_re"
  bottom: "label"
  top: "accuracy"
  include {
    phase: TEST
  }
}
layer {
  name: "loss"
  type: "SoftmaxWithLoss"
  bottom: "classifier_re"
  bottom: "label"
  top: "loss"
}
I1201 03:59:30.915442 18504 layer_factory.hpp:77] Creating layer data
I1201 03:59:30.915468 18504 net.cpp:84] Creating Layer data
I1201 03:59:30.915477 18504 net.cpp:380] data -> data
I1201 03:59:30.915490 18504 net.cpp:380] data -> label
I1201 03:59:30.915504 18504 image_data_layer.cpp:38] Opening file /home/wuxiaodong/data/ai_challenge/ai_challenger_scene_validation_20170908/val.txt
I1201 03:59:30.919062 18504 image_data_layer.cpp:63] A total of 7120 images.
I1201 03:59:30.926795 18504 image_data_layer.cpp:90] output data size: 5,3,224,224
I1201 03:59:30.943677 18504 net.cpp:122] Setting up data
I1201 03:59:30.943711 18504 net.cpp:129] Top shape: 5 3 224 224 (752640)
I1201 03:59:30.943719 18504 net.cpp:129] Top shape: 5 (5)
I1201 03:59:30.943724 18504 net.cpp:137] Memory required for data: 3010580
I1201 03:59:30.943732 18504 layer_factory.hpp:77] Creating layer label_data_1_split
I1201 03:59:30.943752 18504 net.cpp:84] Creating Layer label_data_1_split
I1201 03:59:30.943758 18504 net.cpp:406] label_data_1_split <- label
I1201 03:59:30.943768 18504 net.cpp:380] label_data_1_split -> label_data_1_split_0
I1201 03:59:30.943783 18504 net.cpp:380] label_data_1_split -> label_data_1_split_1
I1201 03:59:30.943812 18504 net.cpp:380] label_data_1_split -> label_data_1_split_2
I1201 03:59:30.944222 18504 net.cpp:122] Setting up label_data_1_split
I1201 03:59:30.944267 18504 net.cpp:129] Top shape: 5 (5)
I1201 03:59:30.944283 18504 net.cpp:129] Top shape: 5 (5)
I1201 03:59:30.944295 18504 net.cpp:129] Top shape: 5 (5)
I1201 03:59:30.944304 18504 net.cpp:137] Memory required for data: 3010640
I1201 03:59:30.944315 18504 layer_factory.hpp:77] Creating layer conv1
I1201 03:59:30.944340 18504 net.cpp:84] Creating Layer conv1
I1201 03:59:30.944353 18504 net.cpp:406] conv1 <- data
I1201 03:59:30.944370 18504 net.cpp:380] conv1 -> conv1
I1201 03:59:30.949795 18504 net.cpp:122] Setting up conv1
I1201 03:59:30.949828 18504 net.cpp:129] Top shape: 5 128 112 112 (8028160)
I1201 03:59:30.949841 18504 net.cpp:137] Memory required for data: 35123280
I1201 03:59:30.949865 18504 layer_factory.hpp:77] Creating layer conv1/relu
I1201 03:59:30.949883 18504 net.cpp:84] Creating Layer conv1/relu
I1201 03:59:30.949894 18504 net.cpp:406] conv1/relu <- conv1
I1201 03:59:30.949910 18504 net.cpp:367] conv1/relu -> conv1 (in-place)
I1201 03:59:30.950291 18504 net.cpp:122] Setting up conv1/relu
I1201 03:59:30.950311 18504 net.cpp:129] Top shape: 5 128 112 112 (8028160)
I1201 03:59:30.950321 18504 net.cpp:137] Memory required for data: 67235920
I1201 03:59:30.950332 18504 layer_factory.hpp:77] Creating layer pool2
I1201 03:59:30.950351 18504 net.cpp:84] Creating Layer pool2
I1201 03:59:30.950373 18504 net.cpp:406] pool2 <- conv1
I1201 03:59:30.950413 18504 net.cpp:380] pool2 -> pool2
I1201 03:59:30.950531 18504 net.cpp:122] Setting up pool2
I1201 03:59:30.950547 18504 net.cpp:129] Top shape: 5 128 56 56 (2007040)
I1201 03:59:30.950557 18504 net.cpp:137] Memory required for data: 75264080
I1201 03:59:30.950567 18504 layer_factory.hpp:77] Creating layer pool2_pool2_0_split
I1201 03:59:30.950582 18504 net.cpp:84] Creating Layer pool2_pool2_0_split
I1201 03:59:30.950592 18504 net.cpp:406] pool2_pool2_0_split <- pool2
I1201 03:59:30.950606 18504 net.cpp:380] pool2_pool2_0_split -> pool2_pool2_0_split_0
I1201 03:59:30.950623 18504 net.cpp:380] pool2_pool2_0_split -> pool2_pool2_0_split_1
I1201 03:59:30.950646 18504 net.cpp:380] pool2_pool2_0_split -> pool2_pool2_0_split_2
I1201 03:59:30.950772 18504 net.cpp:122] Setting up pool2_pool2_0_split
I1201 03:59:30.950786 18504 net.cpp:129] Top shape: 5 128 56 56 (2007040)
I1201 03:59:30.950799 18504 net.cpp:129] Top shape: 5 128 56 56 (2007040)
I1201 03:59:30.950812 18504 net.cpp:129] Top shape: 5 128 56 56 (2007040)
I1201 03:59:30.950821 18504 net.cpp:137] Memory required for data: 99348560
I1201 03:59:30.950830 18504 layer_factory.hpp:77] Creating layer inception_3a/1x1
I1201 03:59:30.950847 18504 net.cpp:84] Creating Layer inception_3a/1x1
I1201 03:59:30.950860 18504 net.cpp:406] inception_3a/1x1 <- pool2_pool2_0_split_0
I1201 03:59:30.950875 18504 net.cpp:380] inception_3a/1x1 -> inception_3a/1x1
I1201 03:59:30.957073 18504 net.cpp:122] Setting up inception_3a/1x1
I1201 03:59:30.957111 18504 net.cpp:129] Top shape: 5 64 56 56 (1003520)
I1201 03:59:30.957124 18504 net.cpp:137] Memory required for data: 103362640
I1201 03:59:30.957146 18504 layer_factory.hpp:77] Creating layer inception_3a/relu_1x1
I1201 03:59:30.957165 18504 net.cpp:84] Creating Layer inception_3a/relu_1x1
I1201 03:59:30.957175 18504 net.cpp:406] inception_3a/relu_1x1 <- inception_3a/1x1
I1201 03:59:30.957192 18504 net.cpp:367] inception_3a/relu_1x1 -> inception_3a/1x1 (in-place)
I1201 03:59:30.960373 18504 net.cpp:122] Setting up inception_3a/relu_1x1
I1201 03:59:30.960399 18504 net.cpp:129] Top shape: 5 64 56 56 (1003520)
I1201 03:59:30.960407 18504 net.cpp:137] Memory required for data: 107376720
I1201 03:59:30.960413 18504 layer_factory.hpp:77] Creating layer inception_3a/3x3
I1201 03:59:30.960429 18504 net.cpp:84] Creating Layer inception_3a/3x3
I1201 03:59:30.960438 18504 net.cpp:406] inception_3a/3x3 <- pool2_pool2_0_split_1
I1201 03:59:30.960448 18504 net.cpp:380] inception_3a/3x3 -> inception_3a/3x3
I1201 03:59:30.962929 18504 net.cpp:122] Setting up inception_3a/3x3
I1201 03:59:30.962951 18504 net.cpp:129] Top shape: 5 64 56 56 (1003520)
I1201 03:59:30.962958 18504 net.cpp:137] Memory required for data: 111390800
I1201 03:59:30.962973 18504 layer_factory.hpp:77] Creating layer inception_3a/relu_3x3
I1201 03:59:30.962986 18504 net.cpp:84] Creating Layer inception_3a/relu_3x3
I1201 03:59:30.962993 18504 net.cpp:406] inception_3a/relu_3x3 <- inception_3a/3x3
I1201 03:59:30.963002 18504 net.cpp:367] inception_3a/relu_3x3 -> inception_3a/3x3 (in-place)
I1201 03:59:30.964092 18504 net.cpp:122] Setting up inception_3a/relu_3x3
I1201 03:59:30.964112 18504 net.cpp:129] Top shape: 5 64 56 56 (1003520)
I1201 03:59:30.964118 18504 net.cpp:137] Memory required for data: 115404880
I1201 03:59:30.964123 18504 layer_factory.hpp:77] Creating layer inception_3a/double3x3a
I1201 03:59:30.964135 18504 net.cpp:84] Creating Layer inception_3a/double3x3a
I1201 03:59:30.964143 18504 net.cpp:406] inception_3a/double3x3a <- pool2_pool2_0_split_2
I1201 03:59:30.964154 18504 net.cpp:380] inception_3a/double3x3a -> inception_3a/double3x3a
I1201 03:59:30.967000 18504 net.cpp:122] Setting up inception_3a/double3x3a
I1201 03:59:30.967018 18504 net.cpp:129] Top shape: 5 128 56 56 (2007040)
I1201 03:59:30.967025 18504 net.cpp:137] Memory required for data: 123433040
I1201 03:59:30.967036 18504 layer_factory.hpp:77] Creating layer inception_3a/relu_double3x3a
I1201 03:59:30.967046 18504 net.cpp:84] Creating Layer inception_3a/relu_double3x3a
I1201 03:59:30.967061 18504 net.cpp:406] inception_3a/relu_double3x3a <- inception_3a/double3x3a
I1201 03:59:30.967092 18504 net.cpp:367] inception_3a/relu_double3x3a -> inception_3a/double3x3a (in-place)
I1201 03:59:30.967339 18504 net.cpp:122] Setting up inception_3a/relu_double3x3a
I1201 03:59:30.967351 18504 net.cpp:129] Top shape: 5 128 56 56 (2007040)
I1201 03:59:30.967357 18504 net.cpp:137] Memory required for data: 131461200
I1201 03:59:30.967365 18504 layer_factory.hpp:77] Creating layer inception_3a/double3x3b
I1201 03:59:30.967375 18504 net.cpp:84] Creating Layer inception_3a/double3x3b
I1201 03:59:30.967381 18504 net.cpp:406] inception_3a/double3x3b <- inception_3a/double3x3a
I1201 03:59:30.967391 18504 net.cpp:380] inception_3a/double3x3b -> inception_3a/double3x3b
I1201 03:59:30.972961 18504 net.cpp:122] Setting up inception_3a/double3x3b
I1201 03:59:30.972985 18504 net.cpp:129] Top shape: 5 128 56 56 (2007040)
I1201 03:59:30.972991 18504 net.cpp:137] Memory required for data: 139489360
I1201 03:59:30.973006 18504 layer_factory.hpp:77] Creating layer inception_3a/relu_double3x3b
I1201 03:59:30.973017 18504 net.cpp:84] Creating Layer inception_3a/relu_double3x3b
I1201 03:59:30.973024 18504 net.cpp:406] inception_3a/relu_double3x3b <- inception_3a/double3x3b
I1201 03:59:30.973033 18504 net.cpp:367] inception_3a/relu_double3x3b -> inception_3a/double3x3b (in-place)
I1201 03:59:30.973289 18504 net.cpp:122] Setting up inception_3a/relu_double3x3b
I1201 03:59:30.973304 18504 net.cpp:129] Top shape: 5 128 56 56 (2007040)
I1201 03:59:30.973309 18504 net.cpp:137] Memory required for data: 147517520
I1201 03:59:30.973315 18504 layer_factory.hpp:77] Creating layer inception_3a/output
I1201 03:59:30.973325 18504 net.cpp:84] Creating Layer inception_3a/output
I1201 03:59:30.973331 18504 net.cpp:406] inception_3a/output <- inception_3a/1x1
I1201 03:59:30.973340 18504 net.cpp:406] inception_3a/output <- inception_3a/3x3
I1201 03:59:30.973345 18504 net.cpp:406] inception_3a/output <- inception_3a/double3x3b
I1201 03:59:30.973354 18504 net.cpp:380] inception_3a/output -> inception_3a/output
I1201 03:59:30.973404 18504 net.cpp:122] Setting up inception_3a/output
I1201 03:59:30.973414 18504 net.cpp:129] Top shape: 5 256 56 56 (4014080)
I1201 03:59:30.973419 18504 net.cpp:137] Memory required for data: 163573840
I1201 03:59:30.973425 18504 layer_factory.hpp:77] Creating layer inception_3a/output_inception_3a/output_0_split
I1201 03:59:30.973435 18504 net.cpp:84] Creating Layer inception_3a/output_inception_3a/output_0_split
I1201 03:59:30.973441 18504 net.cpp:406] inception_3a/output_inception_3a/output_0_split <- inception_3a/output
I1201 03:59:30.973449 18504 net.cpp:380] inception_3a/output_inception_3a/output_0_split -> inception_3a/output_inception_3a/output_0_split_0
I1201 03:59:30.973459 18504 net.cpp:380] inception_3a/output_inception_3a/output_0_split -> inception_3a/output_inception_3a/output_0_split_1
I1201 03:59:30.973474 18504 net.cpp:380] inception_3a/output_inception_3a/output_0_split -> inception_3a/output_inception_3a/output_0_split_2
I1201 03:59:30.973553 18504 net.cpp:122] Setting up inception_3a/output_inception_3a/output_0_split
I1201 03:59:30.973563 18504 net.cpp:129] Top shape: 5 256 56 56 (4014080)
I1201 03:59:30.973570 18504 net.cpp:129] Top shape: 5 256 56 56 (4014080)
I1201 03:59:30.973578 18504 net.cpp:129] Top shape: 5 256 56 56 (4014080)
I1201 03:59:30.973583 18504 net.cpp:137] Memory required for data: 211742800
I1201 03:59:30.973588 18504 layer_factory.hpp:77] Creating layer inception_3b/1x1
I1201 03:59:30.973603 18504 net.cpp:84] Creating Layer inception_3b/1x1
I1201 03:59:30.973609 18504 net.cpp:406] inception_3b/1x1 <- inception_3a/output_inception_3a/output_0_split_0
I1201 03:59:30.973618 18504 net.cpp:380] inception_3b/1x1 -> inception_3b/1x1
I1201 03:59:30.975574 18504 net.cpp:122] Setting up inception_3b/1x1
I1201 03:59:30.975594 18504 net.cpp:129] Top shape: 5 64 56 56 (1003520)
I1201 03:59:30.975600 18504 net.cpp:137] Memory required for data: 215756880
I1201 03:59:30.975616 18504 layer_factory.hpp:77] Creating layer inception_3b/relu_1x1
I1201 03:59:30.975639 18504 net.cpp:84] Creating Layer inception_3b/relu_1x1
I1201 03:59:30.975647 18504 net.cpp:406] inception_3b/relu_1x1 <- inception_3b/1x1
I1201 03:59:30.975657 18504 net.cpp:367] inception_3b/relu_1x1 -> inception_3b/1x1 (in-place)
I1201 03:59:30.975914 18504 net.cpp:122] Setting up inception_3b/relu_1x1
I1201 03:59:30.975929 18504 net.cpp:129] Top shape: 5 64 56 56 (1003520)
I1201 03:59:30.975934 18504 net.cpp:137] Memory required for data: 219770960
I1201 03:59:30.975940 18504 layer_factory.hpp:77] Creating layer inception_3b/3x3
I1201 03:59:30.975951 18504 net.cpp:84] Creating Layer inception_3b/3x3
I1201 03:59:30.975957 18504 net.cpp:406] inception_3b/3x3 <- inception_3a/output_inception_3a/output_0_split_1
I1201 03:59:30.975966 18504 net.cpp:380] inception_3b/3x3 -> inception_3b/3x3
I1201 03:59:30.980178 18504 net.cpp:122] Setting up inception_3b/3x3
I1201 03:59:30.980198 18504 net.cpp:129] Top shape: 5 64 56 56 (1003520)
I1201 03:59:30.980204 18504 net.cpp:137] Memory required for data: 223785040
I1201 03:59:30.980214 18504 layer_factory.hpp:77] Creating layer inception_3b/relu_3x3
I1201 03:59:30.980226 18504 net.cpp:84] Creating Layer inception_3b/relu_3x3
I1201 03:59:30.980232 18504 net.cpp:406] inception_3b/relu_3x3 <- inception_3b/3x3
I1201 03:59:30.980240 18504 net.cpp:367] inception_3b/relu_3x3 -> inception_3b/3x3 (in-place)
I1201 03:59:30.980479 18504 net.cpp:122] Setting up inception_3b/relu_3x3
I1201 03:59:30.980492 18504 net.cpp:129] Top shape: 5 64 56 56 (1003520)
I1201 03:59:30.980499 18504 net.cpp:137] Memory required for data: 227799120
I1201 03:59:30.980504 18504 layer_factory.hpp:77] Creating layer inception_3b/double3x3a
I1201 03:59:30.980515 18504 net.cpp:84] Creating Layer inception_3b/double3x3a
I1201 03:59:30.980522 18504 net.cpp:406] inception_3b/double3x3a <- inception_3a/output_inception_3a/output_0_split_2
I1201 03:59:30.980531 18504 net.cpp:380] inception_3b/double3x3a -> inception_3b/double3x3a
I1201 03:59:30.983453 18504 net.cpp:122] Setting up inception_3b/double3x3a
I1201 03:59:30.983472 18504 net.cpp:129] Top shape: 5 128 56 56 (2007040)
I1201 03:59:30.983479 18504 net.cpp:137] Memory required for data: 235827280
I1201 03:59:30.983489 18504 layer_factory.hpp:77] Creating layer inception_3b/relu_double3x3a
I1201 03:59:30.983500 18504 net.cpp:84] Creating Layer inception_3b/relu_double3x3a
I1201 03:59:30.983505 18504 net.cpp:406] inception_3b/relu_double3x3a <- inception_3b/double3x3a
I1201 03:59:30.983515 18504 net.cpp:367] inception_3b/relu_double3x3a -> inception_3b/double3x3a (in-place)
I1201 03:59:30.986445 18504 net.cpp:122] Setting up inception_3b/relu_double3x3a
I1201 03:59:30.986469 18504 net.cpp:129] Top shape: 5 128 56 56 (2007040)
I1201 03:59:30.986474 18504 net.cpp:137] Memory required for data: 243855440
I1201 03:59:30.986481 18504 layer_factory.hpp:77] Creating layer inception_3b/double3x3b
I1201 03:59:30.986493 18504 net.cpp:84] Creating Layer inception_3b/double3x3b
I1201 03:59:30.986501 18504 net.cpp:406] inception_3b/double3x3b <- inception_3b/double3x3a
I1201 03:59:30.986511 18504 net.cpp:380] inception_3b/double3x3b -> inception_3b/double3x3b
I1201 03:59:30.989987 18504 net.cpp:122] Setting up inception_3b/double3x3b
I1201 03:59:30.990007 18504 net.cpp:129] Top shape: 5 128 56 56 (2007040)
I1201 03:59:30.990015 18504 net.cpp:137] Memory required for data: 251883600
I1201 03:59:30.990028 18504 layer_factory.hpp:77] Creating layer inception_3b/relu_double3x3b
I1201 03:59:30.990039 18504 net.cpp:84] Creating Layer inception_3b/relu_double3x3b
I1201 03:59:30.990046 18504 net.cpp:406] inception_3b/relu_double3x3b <- inception_3b/double3x3b
I1201 03:59:30.990056 18504 net.cpp:367] inception_3b/relu_double3x3b -> inception_3b/double3x3b (in-place)
I1201 03:59:30.991102 18504 net.cpp:122] Setting up inception_3b/relu_double3x3b
I1201 03:59:30.991122 18504 net.cpp:129] Top shape: 5 128 56 56 (2007040)
I1201 03:59:30.991127 18504 net.cpp:137] Memory required for data: 259911760
I1201 03:59:30.991139 18504 layer_factory.hpp:77] Creating layer inception_3b/output
I1201 03:59:30.991161 18504 net.cpp:84] Creating Layer inception_3b/output
I1201 03:59:30.991170 18504 net.cpp:406] inception_3b/output <- inception_3b/1x1
I1201 03:59:30.991178 18504 net.cpp:406] inception_3b/output <- inception_3b/3x3
I1201 03:59:30.991185 18504 net.cpp:406] inception_3b/output <- inception_3b/double3x3b
I1201 03:59:30.991194 18504 net.cpp:380] inception_3b/output -> inception_3b/output
I1201 03:59:30.991245 18504 net.cpp:122] Setting up inception_3b/output
I1201 03:59:30.991255 18504 net.cpp:129] Top shape: 5 256 56 56 (4014080)
I1201 03:59:30.991261 18504 net.cpp:137] Memory required for data: 275968080
I1201 03:59:30.991266 18504 layer_factory.hpp:77] Creating layer inception_3b/output_inception_3b/output_0_split
I1201 03:59:30.991276 18504 net.cpp:84] Creating Layer inception_3b/output_inception_3b/output_0_split
I1201 03:59:30.991281 18504 net.cpp:406] inception_3b/output_inception_3b/output_0_split <- inception_3b/output
I1201 03:59:30.991289 18504 net.cpp:380] inception_3b/output_inception_3b/output_0_split -> inception_3b/output_inception_3b/output_0_split_0
I1201 03:59:30.991299 18504 net.cpp:380] inception_3b/output_inception_3b/output_0_split -> inception_3b/output_inception_3b/output_0_split_1
I1201 03:59:30.991310 18504 net.cpp:380] inception_3b/output_inception_3b/output_0_split -> inception_3b/output_inception_3b/output_0_split_2
I1201 03:59:30.991389 18504 net.cpp:122] Setting up inception_3b/output_inception_3b/output_0_split
…
I1201 03:59:31.090363 18504 net.cpp:84] Creating Layer inception_4b/output_inception_4b/output_0_split
I1201 03:59:31.090373 18504 net.cpp:406] inception_4b/output_inception_4b/output_0_split <- inception_4b/output
I1201 03:59:31.090389 18504 net.cpp:380] inception_4b/output_inception_4b/output_0_split -> inception_4b/output_inception_4b/output_0_split_0
I1201 03:59:31.090402 18504 net.cpp:380] inception_4b/output_inception_4b/output_0_split -> inception_4b/output_inception_4b/output_0_split_1
I1201 03:59:31.090416 18504 net.cpp:380] inception_4b/output_inception_4b/output_0_split -> inception_4b/output_inception_4b/output_0_split_2
I1201 03:59:31.090541 18504 net.cpp:122] Setting up inception_4b/output_inception_4b/output_0_split
I1201 03:59:31.090554 18504 net.cpp:129] Top shape: 5 512 28 28 (2007040)
I1201 03:59:31.090564 18504 net.cpp:129] Top shape: 5 512 28 28 (2007040)
I1201 03:59:31.090572 18504 net.cpp:129] Top shape: 5 512 28 28 (2007040)
I1201 03:59:31.090581 18504 net.cpp:137] Memory required for data: 629207120
I1201 03:59:31.090589 18504 layer_factory.hpp:77] Creating layer inception_4c/1x1
I1201 03:59:31.090607 18504 net.cpp:84] Creating Layer inception_4c/1x1
I1201 03:59:31.090616 18504 net.cpp:406] inception_4c/1x1 <- inception_4b/output_inception_4b/output_0_split_0
I1201 03:59:31.090629 18504 net.cpp:380] inception_4c/1x1 -> inception_4c/1x1
I1201 03:59:31.097702 18504 net.cpp:122] Setting up inception_4c/1x1
I1201 03:59:31.097743 18504 net.cpp:129] Top shape: 5 128 28 28 (501760)
I1201 03:59:31.097754 18504 net.cpp:137] Memory required for data: 631214160
I1201 03:59:31.097785 18504 layer_factory.hpp:77] Creating layer inception_4c/relu_1x1
I1201 03:59:31.097827 18504 net.cpp:84] Creating Layer inception_4c/relu_1x1
I1201 03:59:31.097842 18504 net.cpp:406] inception_4c/relu_1x1 <- inception_4c/1x1
I1201 03:59:31.097857 18504 net.cpp:367] inception_4c/relu_1x1 -> inception_4c/1x1 (in-place)
I1201 03:59:31.101833 18504 net.cpp:122] Setting up inception_4c/relu_1x1
I1201 03:59:31.101871 18504 net.cpp:129] Top shape: 5 128 28 28 (501760)
I1201 03:59:31.101881 18504 net.cpp:137] Memory required for data: 633221200
I1201 03:59:31.101891 18504 layer_factory.hpp:77] Creating layer inception_4c/3x3
I1201 03:59:31.101913 18504 net.cpp:84] Creating Layer inception_4c/3x3
I1201 03:59:31.101924 18504 net.cpp:406] inception_4c/3x3 <- inception_4b/output_inception_4b/output_0_split_1
I1201 03:59:31.101943 18504 net.cpp:380] inception_4c/3x3 -> inception_4c/3x3
I1201 03:59:31.108559 18504 net.cpp:122] Setting up inception_4c/3x3
I1201 03:59:31.108594 18504 net.cpp:129] Top shape: 5 128 28 28 (501760)
I1201 03:59:31.108604 18504 net.cpp:137] Memory required for data: 635228240
I1201 03:59:31.108620 18504 layer_factory.hpp:77] Creating layer inception_4c/relu_3x3
I1201 03:59:31.108636 18504 net.cpp:84] Creating Layer inception_4c/relu_3x3
I1201 03:59:31.108649 18504 net.cpp:406] inception_4c/relu_3x3 <- inception_4c/3x3
I1201 03:59:31.108665 18504 net.cpp:367] inception_4c/relu_3x3 -> inception_4c/3x3 (in-place)
I1201 03:59:31.110363 18504 net.cpp:122] Setting up inception_4c/relu_3x3
I1201 03:59:31.110394 18504 net.cpp:129] Top shape: 5 128 28 28 (501760)
I1201 03:59:31.110404 18504 net.cpp:137] Memory required for data: 637235280
I1201 03:59:31.110414 18504 layer_factory.hpp:77] Creating layer inception_4c/double3x3a
I1201 03:59:31.110433 18504 net.cpp:84] Creating Layer inception_4c/double3x3a
I1201 03:59:31.110445 18504 net.cpp:406] inception_4c/double3x3a <- inception_4b/output_inception_4b/output_0_split_2
I1201 03:59:31.110462 18504 net.cpp:380] inception_4c/double3x3a -> inception_4c/double3x3a
I1201 03:59:31.121819 18504 net.cpp:122] Setting up inception_4c/double3x3a
I1201 03:59:31.121850 18504 net.cpp:129] Top shape: 5 256 28 28 (1003520)
I1201 03:59:31.121860 18504 net.cpp:137] Memory required for data: 641249360
I1201 03:59:31.121879 18504 layer_factory.hpp:77] Creating layer inception_4c/relu_double3x3a
I1201 03:59:31.121894 18504 net.cpp:84] Creating Layer inception_4c/relu_double3x3a
I1201 03:59:31.121906 18504 net.cpp:406] inception_4c/relu_double3x3a <- inception_4c/double3x3a
I1201 03:59:31.121922 18504 net.cpp:367] inception_4c/relu_double3x3a -> inception_4c/double3x3a (in-place)
I1201 03:59:31.122320 18504 net.cpp:122] Setting up inception_4c/relu_double3x3a
I1201 03:59:31.122339 18504 net.cpp:129] Top shape: 5 256 28 28 (1003520)
I1201 03:59:31.122347 18504 net.cpp:137] Memory required for data: 645263440
I1201 03:59:31.122356 18504 layer_factory.hpp:77] Creating layer inception_4c/double3x3b
I1201 03:59:31.122376 18504 net.cpp:84] Creating Layer inception_4c/double3x3b
I1201 03:59:31.122385 18504 net.cpp:406] inception_4c/double3x3b <- inception_4c/double3x3a
I1201 03:59:31.122401 18504 net.cpp:380] inception_4c/double3x3b -> inception_4c/double3x3b
I1201 03:59:31.129221 18504 net.cpp:122] Setting up inception_4c/double3x3b
I1201 03:59:31.129253 18504 net.cpp:129] Top shape: 5 256 28 28 (1003520)
I1201 03:59:31.129263 18504 net.cpp:137] Memory required for data: 649277520
I1201 03:59:31.129278 18504 layer_factory.hpp:77] Creating layer inception_4c/relu_double3x3b
I1201 03:59:31.129293 18504 net.cpp:84] Creating Layer inception_4c/relu_double3x3b
I1201 03:59:31.129305 18504 net.cpp:406] inception_4c/relu_double3x3b <- inception_4c/double3x3b
I1201 03:59:31.129319 18504 net.cpp:367] inception_4c/relu_double3x3b -> inception_4c/double3x3b (in-place)
I1201 03:59:31.129722 18504 net.cpp:122] Setting up inception_4c/relu_double3x3b
I1201 03:59:31.129740 18504 net.cpp:129] Top shape: 5 256 28 28 (1003520)
I1201 03:59:31.129750 18504 net.cpp:137] Memory required for data: 653291600
I1201 03:59:31.129772 18504 layer_factory.hpp:77] Creating layer inception_4c/output
I1201 03:59:31.129812 18504 net.cpp:84] Creating Layer inception_4c/output
I1201 03:59:31.129823 18504 net.cpp:406] inception_4c/output <- inception_4c/1x1
I1201 03:59:31.129837 18504 net.cpp:406] inception_4c/output <- inception_4c/3x3
I1201 03:59:31.129847 18504 net.cpp:406] inception_4c/output <- inception_4c/double3x3b
I1201 03:59:31.129859 18504 net.cpp:380] inception_4c/output -> inception_4c/output
I1201 03:59:31.129938 18504 net.cpp:122] Setting up inception_4c/output
I1201 03:59:31.129954 18504 net.cpp:129] Top shape: 5 512 28 28 (2007040)
I1201 03:59:31.129962 18504 net.cpp:137] Memory required for data: 661319760
I1201 03:59:31.129971 18504 layer_factory.hpp:77] Creating layer inception_4c/output_inception_4c/output_0_split
I1201 03:59:31.129986 18504 net.cpp:84] Creating Layer inception_4c/output_inception_4c/output_0_split
I1201 03:59:31.129995 18504 net.cpp:406] inception_4c/output_inception_4c/output_0_split <- inception_4c/output
I1201 03:59:31.130010 18504 net.cpp:380] inception_4c/output_inception_4c/output_0_split -> inception_4c/output_inception_4c/output_0_split_0
I1201 03:59:31.130059 18504 net.cpp:380] inception_4c/output_inception_4c/output_0_split -> inception_4c/output_inception_4c/output_0_split_1
I1201 03:59:31.130074 18504 net.cpp:380] inception_4c/output_inception_4c/output_0_split -> inception_4c/output_inception_4c/output_0_split_2
I1201 03:59:31.130206 18504 net.cpp:122] Setting up inception_4c/output_inception_4c/output_0_split
I1201 03:59:31.130224 18504 net.cpp:129] Top shape: 5 512 28 28 (2007040)
I1201 03:59:31.130234 18504 net.cpp:129] Top shape: 5 512 28 28 (2007040)
I1201 03:59:31.130244 18504 net.cpp:129] Top shape: 5 512 28 28 (2007040)
I1201 03:59:31.130254 18504 net.cpp:137] Memory required for data: 685404240
I1201 03:59:31.130261 18504 layer_factory.hpp:77] Creating layer inception_4d/1x1
I1201 03:59:31.130278 18504 net.cpp:84] Creating Layer inception_4d/1x1
I1201 03:59:31.130287 18504 net.cpp:406] inception_4d/1x1 <- inception_4c/output_inception_4c/output_0_split_0
I1201 03:59:31.130301 18504 net.cpp:380] inception_4d/1x1 -> inception_4d/1x1
I1201 03:59:31.133463 18504 net.cpp:122] Setting up inception_4d/1x1
I1201 03:59:31.133491 18504 net.cpp:129] Top shape: 5 128 28 28 (501760)
I1201 03:59:31.133500 18504 net.cpp:137] Memory required for data: 687411280
I1201 03:59:31.133517 18504 layer_factory.hpp:77] Creating layer inception_4d/relu_1x1
I1201 03:59:31.133530 18504 net.cpp:84] Creating Layer inception_4d/relu_1x1
I1201 03:59:31.133540 18504 net.cpp:406] inception_4d/relu_1x1 <- inception_4d/1x1
I1201 03:59:31.133555 18504 net.cpp:367] inception_4d/relu_1x1 -> inception_4d/1x1 (in-place)
I1201 03:59:31.133924 18504 net.cpp:122] Setting up inception_4d/relu_1x1
I1201 03:59:31.133941 18504 net.cpp:129] Top shape: 5 128 28 28 (501760)
I1201 03:59:31.133950 18504 net.cpp:137] Memory required for data: 689418320
I1201 03:59:31.133960 18504 layer_factory.hpp:77] Creating layer inception_4d/3x3
I1201 03:59:31.133980 18504 net.cpp:84] Creating Layer inception_4d/3x3
I1201 03:59:31.133990 18504 net.cpp:406] inception_4d/3x3 <- inception_4c/output_inception_4c/output_0_split_1
I1201 03:59:31.134004 18504 net.cpp:380] inception_4d/3x3 -> inception_4d/3x3
I1201 03:59:31.144444 18504 net.cpp:122] Setting up inception_4d/3x3
I1201 03:59:31.144476 18504 net.cpp:129] Top shape: 5 128 28 28 (501760)
I1201 03:59:31.144486 18504 net.cpp:137] Memory required for data: 691425360
I1201 03:59:31.144500 18504 layer_factory.hpp:77] Creating layer inception_4d/relu_3x3
I1201 03:59:31.144515 18504 net.cpp:84] Creating Layer inception_4d/relu_3x3
I1201 03:59:31.144526 18504 net.cpp:406] inception_4d/relu_3x3 <- inception_4d/3x3
I1201 03:59:31.144541 18504 net.cpp:367] inception_4d/relu_3x3 -> inception_4d/3x3 (in-place)
I1201 03:59:31.144912 18504 net.cpp:122] Setting up inception_4d/relu_3x3
I1201 03:59:31.144930 18504 net.cpp:129] Top shape: 5 128 28 28 (501760)
I1201 03:59:31.144939 18504 net.cpp:137] Memory required for data: 693432400
I1201 03:59:31.144970 18504 layer_factory.hpp:77] Creating layer inception_4d/double3x3a
I1201 03:59:31.144989 18504 net.cpp:84] Creating Layer inception_4d/double3x3a
I1201 03:59:31.144999 18504 net.cpp:406] inception_4d/double3x3a <- inception_4c/output_inception_4c/output_0_split_2
I1201 03:59:31.145015 18504 net.cpp:380] inception_4d/double3x3a -> inception_4d/double3x3a
I1201 03:59:31.153216 18504 net.cpp:122] Setting up inception_4d/double3x3a
I1201 03:59:31.153244 18504 net.cpp:129] Top shape: 5 256 28 28 (1003520)
I1201 03:59:31.153251 18504 net.cpp:137] Memory required for data: 697446480
I1201 03:59:31.153266 18504 layer_factory.hpp:77] Creating layer inception_4d/relu_double3x3a
I1201 03:59:31.153283 18504 net.cpp:84] Creating Layer inception_4d/relu_double3x3a
I1201 03:59:31.153293 18504 net.cpp:406] inception_4d/relu_double3x3a <- inception_4d/double3x3a
I1201 03:59:31.153304 18504 net.cpp:367] inception_4d/relu_double3x3a -> inception_4d/double3x3a (in-place)
I1201 03:59:31.154808 18504 net.cpp:122] Setting up inception_4d/relu_double3x3a
I1201 03:59:31.154834 18504 net.cpp:129] Top shape: 5 256 28 28 (1003520)
I1201 03:59:31.154841 18504 net.cpp:137] Memory required for data: 701460560
I1201 03:59:31.154851 18504 layer_factory.hpp:77] Creating layer inception_4d/double3x3b
I1201 03:59:31.154868 18504 net.cpp:84] Creating Layer inception_4d/double3x3b
I1201 03:59:31.154877 18504 net.cpp:406] inception_4d/double3x3b <- inception_4d/double3x3a
I1201 03:59:31.154892 18504 net.cpp:380] inception_4d/double3x3b -> inception_4d/double3x3b
I1201 03:59:31.164302 18504 net.cpp:122] Setting up inception_4d/double3x3b
I1201 03:59:31.164333 18504 net.cpp:129] Top shape: 5 256 28 28 (1003520)
I1201 03:59:31.164342 18504 net.cpp:137] Memory required for data: 705474640
I1201 03:59:31.164377 18504 layer_factory.hpp:77] Creating layer inception_4d/relu_double3x3b
I1201 03:59:31.164391 18504 net.cpp:84] Creating Layer inception_4d/relu_double3x3b
I1201 03:59:31.164402 18504 net.cpp:406] inception_4d/relu_double3x3b <- inception_4d/double3x3b
I1201 03:59:31.164414 18504 net.cpp:367] inception_4d/relu_double3x3b -> inception_4d/double3x3b (in-place)
I1201 03:59:31.165844 18504 net.cpp:122] Setting up inception_4d/relu_double3x3b
I1201 03:59:31.165868 18504 net.cpp:129] Top shape: 5 256 28 28 (1003520)
I1201 03:59:31.165876 18504 net.cpp:137] Memory required for data: 709488720
I1201 03:59:31.165884 18504 layer_factory.hpp:77] Creating layer inception_4d/output
I1201 03:59:31.165899 18504 net.cpp:84] Creating Layer inception_4d/output
I1201 03:59:31.165907 18504 net.cpp:406] inception_4d/output <- inception_4d/1x1
I1201 03:59:31.165920 18504 net.cpp:406] inception_4d/output <- inception_4d/3x3
I1201 03:59:31.165928 18504 net.cpp:406] inception_4d/output <- inception_4d/double3x3b
I1201 03:59:31.165940 18504 net.cpp:380] inception_4d/output -> inception_4d/output
I1201 03:59:31.166012 18504 net.cpp:122] Setting up inception_4d/output
I1201 03:59:31.166026 18504 net.cpp:129] Top shape: 5 512 28 28 (2007040)
I1201 03:59:31.166033 18504 net.cpp:137] Memory required for data: 717516880
I1201 03:59:31.166043 18504 layer_factory.hpp:77] Creating layer pool4
I1201 03:59:31.166055 18504 net.cpp:84] Creating Layer pool4
I1201 03:59:31.166064 18504 net.cpp:406] pool4 <- inception_4d/output
I1201 03:59:31.166079 18504 net.cpp:380] pool4 -> pool4
I1201 03:59:31.166173 18504 net.cpp:122] Setting up pool4
I1201 03:59:31.166187 18504 net.cpp:129] Top shape: 5 512 14 14 (501760)
I1201 03:59:31.166194 18504 net.cpp:137] Memory required for data: 719523920
I1201 03:59:31.166201 18504 layer_factory.hpp:77] Creating layer pool4_pool4_0_split
I1201 03:59:31.166214 18504 net.cpp:84] Creating Layer pool4_pool4_0_split
I1201 03:59:31.166223 18504 net.cpp:406] pool4_pool4_0_split <- pool4
I1201 03:59:31.166236 18504 net.cpp:380] pool4_pool4_0_split -> pool4_pool4_0_split_0
I1201 03:59:31.166249 18504 net.cpp:380] pool4_pool4_0_split -> pool4_pool4_0_split_1
I1201 03:59:31.166261 18504 net.cpp:380] pool4_pool4_0_split -> pool4_pool4_0_split_2
I1201 03:59:31.166401 18504 net.cpp:122] Setting up pool4_pool4_0_split
I1201 03:59:31.166416 18504 net.cpp:129] Top shape: 5 512 14 14 (501760)
I1201 03:59:31.166425 18504 net.cpp:129] Top shape: 5 512 14 14 (501760)
I1201 03:59:31.166435 18504 net.cpp:129] Top shape: 5 512 14 14 (501760)
I1201 03:59:31.166441 18504 net.cpp:137] Memory required for data: 725545040
I1201 03:59:31.166450 18504 layer_factory.hpp:77] Creating layer inception_5a/1x1
I1201 03:59:31.166467 18504 net.cpp:84] Creating Layer inception_5a/1x1
I1201 03:59:31.166476 18504 net.cpp:406] inception_5a/1x1 <- pool4_pool4_0_split_0
I1201 03:59:31.166491 18504 net.cpp:380] inception_5a/1x1 -> inception_5a/1x1
I1201 03:59:31.169327 18504 net.cpp:122] Setting up inception_5a/1x1
I1201 03:59:31.169353 18504 net.cpp:129] Top shape: 5 128 14 14 (125440)
I1201 03:59:31.169360 18504 net.cpp:137] Memory required for data: 726046800
I1201 03:59:31.169373 18504 layer_factory.hpp:77] Creating layer inception_5a/relu_1x1
I1201 03:59:31.169386 18504 net.cpp:84] Creating Layer inception_5a/relu_1x1
I1201 03:59:31.169395 18504 net.cpp:406] inception_5a/relu_1x1 <- inception_5a/1x1
I1201 03:59:31.169409 18504 net.cpp:367] inception_5a/relu_1x1 -> inception_5a/1x1 (in-place)
I1201 03:59:31.169731 18504 net.cpp:122] Setting up inception_5a/relu_1x1
I1201 03:59:31.169749 18504 net.cpp:129] Top shape: 5 128 14 14 (125440)
I1201 03:59:31.169755 18504 net.cpp:137] Memory required for data: 726548560
I1201 03:59:31.169764 18504 layer_factory.hpp:77] Creating layer inception_5a/3x3
I1201 03:59:31.169781 18504 net.cpp:84] Creating Layer inception_5a/3x3
I1201 03:59:31.169791 18504 net.cpp:406] inception_5a/3x3 <- pool4_pool4_0_split_1
I1201 03:59:31.169806 18504 net.cpp:380] inception_5a/3x3 -> inception_5a/3x3
I1201 03:59:31.176015 18504 net.cpp:122] Setting up inception_5a/3x3
I1201 03:59:31.176043 18504 net.cpp:129] Top shape: 5 128 14 14 (125440)
I1201 03:59:31.176053 18504 net.cpp:137] Memory required for data: 727050320
I1201 03:59:31.176065 18504 layer_factory.hpp:77] Creating layer inception_5a/relu_3x3
I1201 03:59:31.176079 18504 net.cpp:84] Creating Layer inception_5a/relu_3x3
I1201 03:59:31.176087 18504 net.cpp:406] inception_5a/relu_3x3 <- inception_5a/3x3
I1201 03:59:31.176101 18504 net.cpp:367] inception_5a/relu_3x3 -> inception_5a/3x3 (in-place)
I1201 03:59:31.176457 18504 net.cpp:122] Setting up inception_5a/relu_3x3
I1201 03:59:31.176475 18504 net.cpp:129] Top shape: 5 128 14 14 (125440)
I1201 03:59:31.176481 18504 net.cpp:137] Memory required for data: 727552080
I1201 03:59:31.176491 18504 layer_factory.hpp:77] Creating layer inception_5a/double3x3a
I1201 03:59:31.176506 18504 net.cpp:84] Creating Layer inception_5a/double3x3a
I1201 03:59:31.176515 18504 net.cpp:406] inception_5a/double3x3a <- pool4_pool4_0_split_2
I1201 03:59:31.176527 18504 net.cpp:380] inception_5a/double3x3a -> inception_5a/double3x3a
I1201 03:59:31.184360 18504 net.cpp:122] Setting up inception_5a/double3x3a
I1201 03:59:31.184386 18504 net.cpp:129] Top shape: 5 256 14 14 (250880)
I1201 03:59:31.184393 18504 net.cpp:137] Memory required for data: 728555600
I1201 03:59:31.184406 18504 layer_factory.hpp:77] Creating layer inception_5a/relu_double3x3a
I1201 03:59:31.184420 18504 net.cpp:84] Creating Layer inception_5a/relu_double3x3a
I1201 03:59:31.184429 18504 net.cpp:406] inception_5a/relu_double3x3a <- inception_5a/double3x3a
I1201 03:59:31.184442 18504 net.cpp:367] inception_5a/relu_double3x3a -> inception_5a/double3x3a (in-place)
I1201 03:59:31.184782 18504 net.cpp:122] Setting up inception_5a/relu_double3x3a
I1201 03:59:31.184798 18504 net.cpp:129] Top shape: 5 256 14 14 (250880)
I1201 03:59:31.184805 18504 net.cpp:137] Memory required for data: 729559120
I1201 03:59:31.184813 18504 layer_factory.hpp:77] Creating layer inception_5a/double3x3b
I1201 03:59:31.184828 18504 net.cpp:84] Creating Layer inception_5a/double3x3b
I1201 03:59:31.184836 18504 net.cpp:406] inception_5a/double3x3b <- inception_5a/double3x3a
I1201 03:59:31.184846 18504 net.cpp:380] inception_5a/double3x3b -> inception_5a/double3x3b
I1201 03:59:31.190698 18504 net.cpp:122] Setting up inception_5a/double3x3b
I1201 03:59:31.190724 18504 net.cpp:129] Top shape: 5 256 14 14 (250880)
I1201 03:59:31.190733 18504 net.cpp:137] Memory required for data: 730562640
I1201 03:59:31.190747 18504 layer_factory.hpp:77] Creating layer inception_5a/relu_double3x3b
I1201 03:59:31.190758 18504 net.cpp:84] Creating Layer inception_5a/relu_double3x3b
I1201 03:59:31.190768 18504 net.cpp:406] inception_5a/relu_double3x3b <- inception_5a/double3x3b
I1201 03:59:31.190781 18504 net.cpp:367] inception_5a/relu_double3x3b -> inception_5a/double3x3b (in-place)
I1201 03:59:31.191118 18504 net.cpp:122] Setting up inception_5a/relu_double3x3b
I1201 03:59:31.191133 18504 net.cpp:129] Top shape: 5 256 14 14 (250880)
I1201 03:59:31.191139 18504 net.cpp:137] Memory required for data: 731566160
I1201 03:59:31.191148 18504 layer_factory.hpp:77] Creating layer inception_5a/output
I1201 03:59:31.191159 18504 net.cpp:84] Creating Layer inception_5a/output
I1201 03:59:31.191165 18504 net.cpp:406] inception_5a/output <- inception_5a/1x1
I1201 03:59:31.191175 18504 net.cpp:406] inception_5a/output <- inception_5a/3x3
I1201 03:59:31.191184 18504 net.cpp:406] inception_5a/output <- inception_5a/double3x3b
I1201 03:59:31.191197 18504 net.cpp:380] inception_5a/output -> inception_5a/output
I1201 03:59:31.191264 18504 net.cpp:122] Setting up inception_5a/output
I1201 03:59:31.191277 18504 net.cpp:129] Top shape: 5 512 14 14 (501760)
I1201 03:59:31.191284 18504 net.cpp:137] Memory required for data: 733573200
I1201 03:59:31.191293 18504 layer_factory.hpp:77] Creating layer inception_5a/output_inception_5a/output_0_split
I1201 03:59:31.191304 18504 net.cpp:84] Creating Layer inception_5a/output_inception_5a/output_0_split
I1201 03:59:31.191313 18504 net.cpp:406] inception_5a/output_inception_5a/output_0_split <- inception_5a/output
I1201 03:59:31.191326 18504 net.cpp:380] inception_5a/output_inception_5a/output_0_split -> inception_5a/output_inception_5a/output_0_split_0
I1201 03:59:31.191339 18504 net.cpp:380] inception_5a/output_inception_5a/output_0_split -> inception_5a/output_inception_5a/output_0_split_1
I1201 03:59:31.191351 18504 net.cpp:380] inception_5a/output_inception_5a/output_0_split -> inception_5a/output_inception_5a/output_0_split_2
I1201 03:59:31.191470 18504 net.cpp:122] Setting up inception_5a/output_inception_5a/output_0_split
I1201 03:59:31.191483 18504 net.cpp:129] Top shape: 5 512 14 14 (501760)
I1201 03:59:31.191493 18504 net.cpp:129] Top shape: 5 512 14 14 (501760)
I1201 03:59:31.191501 18504 net.cpp:129] Top shape: 5 512 14 14 (501760)
I1201 03:59:31.191507 18504 net.cpp:137] Memory required for data: 739594320
I1201 03:59:31.191515 18504 layer_factory.hpp:77] Creating layer inception_5b/1x1
I1201 03:59:31.191529 18504 net.cpp:84] Creating Layer inception_5b/1x1
I1201 03:59:31.191536 18504 net.cpp:406] inception_5b/1x1 <- inception_5a/output_inception_5a/output_0_split_0
I1201 03:59:31.191547 18504 net.cpp:380] inception_5b/1x1 -> inception_5b/1x1
I1201 03:59:31.194226 18504 net.cpp:122] Setting up inception_5b/1x1
I1201 03:59:31.194252 18504 net.cpp:129] Top shape: 5 128 14 14 (125440)
I1201 03:59:31.194258 18504 net.cpp:137] Memory required for data: 740096080
I1201 03:59:31.194270 18504 layer_factory.hpp:77] Creating layer inception_5b/relu_1x1
I1201 03:59:31.194283 18504 net.cpp:84] Creating Layer inception_5b/relu_1x1
I1201 03:59:31.194291 18504 net.cpp:406] inception_5b/relu_1x1 <- inception_5b/1x1
I1201 03:59:31.194303 18504 net.cpp:367] inception_5b/relu_1x1 -> inception_5b/1x1 (in-place)
I1201 03:59:31.195652 18504 net.cpp:122] Setting up inception_5b/relu_1x1
I1201 03:59:31.195674 18504 net.cpp:129] Top shape: 5 128 14 14 (125440)
I1201 03:59:31.195682 18504 net.cpp:137] Memory required for data: 740597840
I1201 03:59:31.195688 18504 layer_factory.hpp:77] Creating layer inception_5b/3x3
I1201 03:59:31.195706 18504 net.cpp:84] Creating Layer inception_5b/3x3
I1201 03:59:31.195715 18504 net.cpp:406] inception_5b/3x3 <- inception_5a/output_inception_5a/output_0_split_1
I1201 03:59:31.195750 18504 net.cpp:380] inception_5b/3x3 -> inception_5b/3x3
I1201 03:59:31.200404 18504 net.cpp:122] Setting up inception_5b/3x3
I1201 03:59:31.200426 18504 net.cpp:129] Top shape: 5 128 14 14 (125440)
I1201 03:59:31.200434 18504 net.cpp:137] Memory required for data: 741099600
I1201 03:59:31.200446 18504 layer_factory.hpp:77] Creating layer inception_5b/relu_3x3
I1201 03:59:31.200459 18504 net.cpp:84] Creating Layer inception_5b/relu_3x3
I1201 03:59:31.200466 18504 net.cpp:406] inception_5b/relu_3x3 <- inception_5b/3x3
I1201 03:59:31.200479 18504 net.cpp:367] inception_5b/relu_3x3 -> inception_5b/3x3 (in-place)
I1201 03:59:31.201767 18504 net.cpp:122] Setting up inception_5b/relu_3x3
I1201 03:59:31.201788 18504 net.cpp:129] Top shape: 5 128 14 14 (125440)
I1201 03:59:31.201795 18504 net.cpp:137] Memory required for data: 741601360
I1201 03:59:31.201803 18504 layer_factory.hpp:77] Creating layer inception_5b/double3x3a
I1201 03:59:31.201817 18504 net.cpp:84] Creating Layer inception_5b/double3x3a
I1201 03:59:31.201827 18504 net.cpp:406] inception_5b/double3x3a <- inception_5a/output_inception_5a/output_0_split_2
I1201 03:59:31.201839 18504 net.cpp:380] inception_5b/double3x3a -> inception_5b/double3x3a
I1201 03:59:31.213827 18504 net.cpp:122] Setting up inception_5b/double3x3a
I1201 03:59:31.213884 18504 net.cpp:129] Top shape: 5 256 14 14 (250880)
I1201 03:59:31.213896 18504 net.cpp:137] Memory required for data: 742604880
I1201 03:59:31.213917 18504 layer_factory.hpp:77] Creating layer inception_5b/relu_double3x3a
I1201 03:59:31.213939 18504 net.cpp:84] Creating Layer inception_5b/relu_double3x3a
I1201 03:59:31.213953 18504 net.cpp:406] inception_5b/relu_double3x3a <- inception_5b/double3x3a
I1201 03:59:31.213971 18504 net.cpp:367] inception_5b/relu_double3x3a -> inception_5b/double3x3a (in-place)
I1201 03:59:31.215867 18504 net.cpp:122] Setting up inception_5b/relu_double3x3a
I1201 03:59:31.215898 18504 net.cpp:129] Top shape: 5 256 14 14 (250880)
I1201 03:59:31.215909 18504 net.cpp:137] Memory required for data: 743608400
I1201 03:59:31.215922 18504 layer_factory.hpp:77] Creating layer inception_5b/double3x3b
I1201 03:59:31.215945 18504 net.cpp:84] Creating Layer inception_5b/double3x3b
I1201 03:59:31.215960 18504 net.cpp:406] inception_5b/double3x3b <- inception_5b/double3x3a
I1201 03:59:31.215975 18504 net.cpp:380] inception_5b/double3x3b -> inception_5b/double3x3b
I1201 03:59:31.223865 18504 net.cpp:122] Setting up inception_5b/double3x3b
I1201 03:59:31.223896 18504 net.cpp:129] Top shape: 5 256 14 14 (250880)
I1201 03:59:31.223906 18504 net.cpp:137] Memory required for data: 744611920
I1201 03:59:31.223929 18504 layer_factory.hpp:77] Creating layer inception_5b/relu_double3x3b
I1201 03:59:31.223948 18504 net.cpp:84] Creating Layer inception_5b/relu_double3x3b
I1201 03:59:31.223960 18504 net.cpp:406] inception_5b/relu_double3x3b <- inception_5b/double3x3b
I1201 03:59:31.223975 18504 net.cpp:367] inception_5b/relu_double3x3b -> inception_5b/double3x3b (in-place)
I1201 03:59:31.224421 18504 net.cpp:122] Setting up inception_5b/relu_double3x3b
I1201 03:59:31.224443 18504 net.cpp:129] Top shape: 5 256 14 14 (250880)
I1201 03:59:31.224452 18504 net.cpp:137] Memory required for data: 745615440
I1201 03:59:31.224462 18504 layer_factory.hpp:77] Creating layer inception_5b/output
I1201 03:59:31.224478 18504 net.cpp:84] Creating Layer inception_5b/output
I1201 03:59:31.224488 18504 net.cpp:406] inception_5b/output <- inception_5b/1x1
I1201 03:59:31.224500 18504 net.cpp:406] inception_5b/output <- inception_5b/3x3
I1201 03:59:31.224514 18504 net.cpp:406] inception_5b/output <- inception_5b/double3x3b
I1201 03:59:31.224526 18504 net.cpp:380] inception_5b/output -> inception_5b/output
I1201 03:59:31.224614 18504 net.cpp:122] Setting up inception_5b/output
I1201 03:59:31.224630 18504 net.cpp:129] Top shape: 5 512 14 14 (501760)
I1201 03:59:31.224640 18504 net.cpp:137] Memory required for data: 747622480
I1201 03:59:31.224649 18504 layer_factory.hpp:77] Creating layer inception_5b/output_inception_5b/output_0_split
I1201 03:59:31.224709 18504 net.cpp:84] Creating Layer inception_5b/output_inception_5b/output_0_split
I1201 03:59:31.224720 18504 net.cpp:406] inception_5b/output_inception_5b/output_0_split <- inception_5b/output
I1201 03:59:31.224735 18504 net.cpp:380] inception_5b/output_inception_5b/output_0_split -> inception_5b/output_inception_5b/output_0_split_0
I1201 03:59:31.224752 18504 net.cpp:380] inception_5b/output_inception_5b/output_0_split -> inception_5b/output_inception_5b/output_0_split_1
I1201 03:59:31.224771 18504 net.cpp:380] inception_5b/output_inception_5b/output_0_split -> inception_5b/output_inception_5b/output_0_split_2
I1201 03:59:31.224926 18504 net.cpp:122] Setting up inception_5b/output_inception_5b/output_0_split
I1201 03:59:31.224943 18504 net.cpp:129] Top shape: 5 512 14 14 (501760)
I1201 03:59:31.224954 18504 net.cpp:129] Top shape: 5 512 14 14 (501760)
I1201 03:59:31.224966 18504 net.cpp:129] Top shape: 5 512 14 14 (501760)
I1201 03:59:31.224973 18504 net.cpp:137] Memory required for data: 753643600
I1201 03:59:31.224983 18504 layer_factory.hpp:77] Creating layer inception_5c/1x1
I1201 03:59:31.225005 18504 net.cpp:84] Creating Layer inception_5c/1x1
I1201 03:59:31.225015 18504 net.cpp:406] inception_5c/1x1 <- inception_5b/output_inception_5b/output_0_split_0
I1201 03:59:31.225031 18504 net.cpp:380] inception_5c/1x1 -> inception_5c/1x1
I1201 03:59:31.228582 18504 net.cpp:122] Setting up inception_5c/1x1
I1201 03:59:31.228615 18504 net.cpp:129] Top shape: 5 128 14 14 (125440)
I1201 03:59:31.228624 18504 net.cpp:137] Memory required for data: 754145360
I1201 03:59:31.228641 18504 layer_factory.hpp:77] Creating layer inception_5c/relu_1x1
I1201 03:59:31.228657 18504 net.cpp:84] Creating Layer inception_5c/relu_1x1
I1201 03:59:31.228667 18504 net.cpp:406] inception_5c/relu_1x1 <- inception_5c/1x1
I1201 03:59:31.228683 18504 net.cpp:367] inception_5c/relu_1x1 -> inception_5c/1x1 (in-place)
I1201 03:59:31.229079 18504 net.cpp:122] Setting up inception_5c/relu_1x1
I1201 03:59:31.229099 18504 net.cpp:129] Top shape: 5 128 14 14 (125440)
I1201 03:59:31.229109 18504 net.cpp:137] Memory required for data: 754647120
I1201 03:59:31.229117 18504 layer_factory.hpp:77] Creating layer inception_5c/3x3
I1201 03:59:31.229136 18504 net.cpp:84] Creating Layer inception_5c/3x3
I1201 03:59:31.229148 18504 net.cpp:406] inception_5c/3x3 <- inception_5b/output_inception_5b/output_0_split_1
I1201 03:59:31.229162 18504 net.cpp:380] inception_5c/3x3 -> inception_5c/3x3
I1201 03:59:31.239787 18504 net.cpp:122] Setting up inception_5c/3x3
I1201 03:59:31.239833 18504 net.cpp:129] Top shape: 5 128 14 14 (125440)
I1201 03:59:31.239845 18504 net.cpp:137] Memory required for data: 755148880
I1201 03:59:31.239861 18504 layer_factory.hpp:77] Creating layer inception_5c/relu_3x3
I1201 03:59:31.239881 18504 net.cpp:84] Creating Layer inception_5c/relu_3x3
I1201 03:59:31.239890 18504 net.cpp:406] inception_5c/relu_3x3 <- inception_5c/3x3
I1201 03:59:31.239904 18504 net.cpp:367] inception_5c/relu_3x3 -> inception_5c/3x3 (in-place)
I1201 03:59:31.240324 18504 net.cpp:122] Setting up inception_5c/relu_3x3
I1201 03:59:31.240345 18504 net.cpp:129] Top shape: 5 128 14 14 (125440)
I1201 03:59:31.240355 18504 net.cpp:137] Memory required for data: 755650640
I1201 03:59:31.240365 18504 layer_factory.hpp:77] Creating layer inception_5c/double3x3a
I1201 03:59:31.240381 18504 net.cpp:84] Creating Layer inception_5c/double3x3a
I1201 03:59:31.240389 18504 net.cpp:406] inception_5c/double3x3a <- inception_5b/output_inception_5b/output_0_split_2
I1201 03:59:31.240406 18504 net.cpp:380] inception_5c/double3x3a -> inception_5c/double3x3a
I1201 03:59:31.249022 18504 net.cpp:122] Setting up inception_5c/double3x3a
I1201 03:59:31.249049 18504 net.cpp:129] Top shape: 5 256 14 14 (250880)
I1201 03:59:31.249058 18504 net.cpp:137] Memory required for data: 756654160
I1201 03:59:31.249071 18504 layer_factory.hpp:77] Creating layer inception_5c/relu_double3x3a
I1201 03:59:31.249089 18504 net.cpp:84] Creating Layer inception_5c/relu_double3x3a
I1201 03:59:31.249106 18504 net.cpp:406] inception_5c/relu_double3x3a <- inception_5c/double3x3a
I1201 03:59:31.249135 18504 net.cpp:367] inception_5c/relu_double3x3a -> inception_5c/double3x3a (in-place)
I1201 03:59:31.250684 18504 net.cpp:122] Setting up inception_5c/relu_double3x3a
I1201 03:59:31.250710 18504 net.cpp:129] Top shape: 5 256 14 14 (250880)
I1201 03:59:31.250717 18504 net.cpp:137] Memory required for data: 757657680
I1201 03:59:31.250725 18504 layer_factory.hpp:77] Creating layer inception_5c/double3x3b
I1201 03:59:31.250752 18504 net.cpp:84] Creating Layer inception_5c/double3x3b
I1201 03:59:31.250764 18504 net.cpp:406] inception_5c/double3x3b <- inception_5c/double3x3a
I1201 03:59:31.250779 18504 net.cpp:380] inception_5c/double3x3b -> inception_5c/double3x3b
I1201 03:59:31.258486 18504 net.cpp:122] Setting up inception_5c/double3x3b
I1201 03:59:31.258512 18504 net.cpp:129] Top shape: 5 256 14 14 (250880)
I1201 03:59:31.258522 18504 net.cpp:137] Memory required for data: 758661200
I1201 03:59:31.258535 18504 layer_factory.hpp:77] Creating layer inception_5c/relu_double3x3b
I1201 03:59:31.258551 18504 net.cpp:84] Creating Layer inception_5c/relu_double3x3b
I1201 03:59:31.258561 18504 net.cpp:406] inception_5c/relu_double3x3b <- inception_5c/double3x3b
I1201 03:59:31.258574 18504 net.cpp:367] inception_5c/relu_double3x3b -> inception_5c/double3x3b (in-place)
I1201 03:59:31.260058 18504 net.cpp:122] Setting up inception_5c/relu_double3x3b
I1201 03:59:31.260082 18504 net.cpp:129] Top shape: 5 256 14 14 (250880)
I1201 03:59:31.260089 18504 net.cpp:137] Memory required for data: 759664720
I1201 03:59:31.260098 18504 layer_factory.hpp:77] Creating layer inception_5c/output
I1201 03:59:31.260113 18504 net.cpp:84] Creating Layer inception_5c/output
I1201 03:59:31.260123 18504 net.cpp:406] inception_5c/output <- inception_5c/1x1
I1201 03:59:31.260135 18504 net.cpp:406] inception_5c/output <- inception_5c/3x3
I1201 03:59:31.260145 18504 net.cpp:406] inception_5c/output <- inception_5c/double3x3b
I1201 03:59:31.260157 18504 net.cpp:380] inception_5c/output -> inception_5c/output
I1201 03:59:31.260231 18504 net.cpp:122] Setting up inception_5c/output
I1201 03:59:31.260246 18504 net.cpp:129] Top shape: 5 512 14 14 (501760)
I1201 03:59:31.260253 18504 net.cpp:137] Memory required for data: 761671760
I1201 03:59:31.260260 18504 layer_factory.hpp:77] Creating layer inception_5c/output_inception_5c/output_0_split
I1201 03:59:31.260272 18504 net.cpp:84] Creating Layer inception_5c/output_inception_5c/output_0_split
I1201 03:59:31.260280 18504 net.cpp:406] inception_5c/output_inception_5c/output_0_split <- inception_5c/output
I1201 03:59:31.260295 18504 net.cpp:380] inception_5c/output_inception_5c/output_0_split -> inception_5c/output_inception_5c/output_0_split_0
I1201 03:59:31.260309 18504 net.cpp:380] inception_5c/output_inception_5c/output_0_split -> inception_5c/output_inception_5c/output_0_split_1
I1201 03:59:31.260324 18504 net.cpp:380] inception_5c/output_inception_5c/output_0_split -> inception_5c/output_inception_5c/output_0_split_2
I1201 03:59:31.260452 18504 net.cpp:122] Setting up inception_5c/output_inception_5c/output_0_split
I1201 03:59:31.260465 18504 net.cpp:129] Top shape: 5 512 14 14 (501760)
I1201 03:59:31.260474 18504 net.cpp:129] Top shape: 5 512 14 14 (501760)
I1201 03:59:31.260483 18504 net.cpp:129] Top shape: 5 512 14 14 (501760)
I1201 03:59:31.260489 18504 net.cpp:137] Memory required for data: 767692880
I1201 03:59:31.260498 18504 layer_factory.hpp:77] Creating layer inception_5d/1x1
I1201 03:59:31.260512 18504 net.cpp:84] Creating Layer inception_5d/1x1
I1201 03:59:31.260520 18504 net.cpp:406] inception_5d/1x1 <- inception_5c/output_inception_5c/output_0_split_0
I1201 03:59:31.260535 18504 net.cpp:380] inception_5d/1x1 -> inception_5d/1x1
I1201 03:59:31.266340 18504 net.cpp:122] Setting up inception_5d/1x1
I1201 03:59:31.266372 18504 net.cpp:129] Top shape: 5 128 14 14 (125440)
I1201 03:59:31.266381 18504 net.cpp:137] Memory required for data: 768194640
I1201 03:59:31.266405 18504 layer_factory.hpp:77] Creating layer inception_5d/relu_1x1
I1201 03:59:31.266439 18504 net.cpp:84] Creating Layer inception_5d/relu_1x1
I1201 03:59:31.266451 18504 net.cpp:406] inception_5d/relu_1x1 <- inception_5d/1x1
I1201 03:59:31.266465 18504 net.cpp:367] inception_5d/relu_1x1 -> inception_5d/1x1 (in-place)
I1201 03:59:31.266813 18504 net.cpp:122] Setting up inception_5d/relu_1x1
I1201 03:59:31.266830 18504 net.cpp:129] Top shape: 5 128 14 14 (125440)
I1201 03:59:31.266837 18504 net.cpp:137] Memory required for data: 768696400
I1201 03:59:31.266845 18504 layer_factory.hpp:77] Creating layer inception_5d/3x3
I1201 03:59:31.266861 18504 net.cpp:84] Creating Layer inception_5d/3x3
I1201 03:59:31.266871 18504 net.cpp:406] inception_5d/3x3 <- inception_5c/output_inception_5c/output_0_split_1
I1201 03:59:31.266885 18504 net.cpp:380] inception_5d/3x3 -> inception_5d/3x3
I1201 03:59:31.275625 18504 net.cpp:122] Setting up inception_5d/3x3
I1201 03:59:31.275653 18504 net.cpp:129] Top shape: 5 128 14 14 (125440)
I1201 03:59:31.275662 18504 net.cpp:137] Memory required for data: 769198160
I1201 03:59:31.275676 18504 layer_factory.hpp:77] Creating layer inception_5d/relu_3x3
I1201 03:59:31.275691 18504 net.cpp:84] Creating Layer inception_5d/relu_3x3
I1201 03:59:31.275701 18504 net.cpp:406] inception_5d/relu_3x3 <- inception_5d/3x3
I1201 03:59:31.275712 18504 net.cpp:367] inception_5d/relu_3x3 -> inception_5d/3x3 (in-place)
I1201 03:59:31.276082 18504 net.cpp:122] Setting up inception_5d/relu_3x3
I1201 03:59:31.276100 18504 net.cpp:129] Top shape: 5 128 14 14 (125440)
I1201 03:59:31.276108 18504 net.cpp:137] Memory required for data: 769699920
I1201 03:59:31.276115 18504 layer_factory.hpp:77] Creating layer inception_5d/double3x3a
I1201 03:59:31.276149 18504 net.cpp:84] Creating Layer inception_5d/double3x3a
I1201 03:59:31.276159 18504 net.cpp:406] inception_5d/double3x3a <- inception_5c/output_inception_5c/output_0_split_2
I1201 03:59:31.276170 18504 net.cpp:380] inception_5d/double3x3a -> inception_5d/double3x3a
I1201 03:59:31.283838 18504 net.cpp:122] Setting up inception_5d/double3x3a
I1201 03:59:31.283862 18504 net.cpp:129] Top shape: 5 256 14 14 (250880)
I1201 03:59:31.283870 18504 net.cpp:137] Memory required for data: 770703440
I1201 03:59:31.283882 18504 layer_factory.hpp:77] Creating layer inception_5d/relu_double3x3a
I1201 03:59:31.283898 18504 net.cpp:84] Creating Layer inception_5d/relu_double3x3a
I1201 03:59:31.283907 18504 net.cpp:406] inception_5d/relu_double3x3a <- inception_5d/double3x3a
I1201 03:59:31.283918 18504 net.cpp:367] inception_5d/relu_double3x3a -> inception_5d/double3x3a (in-place)
I1201 03:59:31.284271 18504 net.cpp:122] Setting up inception_5d/relu_double3x3a
I1201 03:59:31.284288 18504 net.cpp:129] Top shape: 5 256 14 14 (250880)
I1201 03:59:31.284296 18504 net.cpp:137] Memory required for data: 771706960
I1201 03:59:31.284302 18504 layer_factory.hpp:77] Creating layer inception_5d/double3x3b
I1201 03:59:31.284319 18504 net.cpp:84] Creating Layer inception_5d/double3x3b
I1201 03:59:31.284329 18504 net.cpp:406] inception_5d/double3x3b <- inception_5d/double3x3a
I1201 03:59:31.284340 18504 net.cpp:380] inception_5d/double3x3b -> inception_5d/double3x3b
I1201 03:59:31.290338 18504 net.cpp:122] Setting up inception_5d/double3x3b
I1201 03:59:31.290364 18504 net.cpp:129] Top shape: 5 256 14 14 (250880)
I1201 03:59:31.290374 18504 net.cpp:137] Memory required for data: 772710480
I1201 03:59:31.290385 18504 layer_factory.hpp:77] Creating layer inception_5d/relu_double3x3b
I1201 03:59:31.290398 18504 net.cpp:84] Creating Layer inception_5d/relu_double3x3b
I1201 03:59:31.290407 18504 net.cpp:406] inception_5d/relu_double3x3b <- inception_5d/double3x3b
I1201 03:59:31.290421 18504 net.cpp:367] inception_5d/relu_double3x3b -> inception_5d/double3x3b (in-place)
I1201 03:59:31.290756 18504 net.cpp:122] Setting up inception_5d/relu_double3x3b
I1201 03:59:31.290772 18504 net.cpp:129] Top shape: 5 256 14 14 (250880)
I1201 03:59:31.290779 18504 net.cpp:137] Memory required for data: 773714000
I1201 03:59:31.290796 18504 layer_factory.hpp:77] Creating layer inception_5d/output
I1201 03:59:31.290827 18504 net.cpp:84] Creating Layer inception_5d/output
I1201 03:59:31.290835 18504 net.cpp:406] inception_5d/output <- inception_5d/1x1
I1201 03:59:31.290845 18504 net.cpp:406] inception_5d/output <- inception_5d/3x3
I1201 03:59:31.290855 18504 net.cpp:406] inception_5d/output <- inception_5d/double3x3b
I1201 03:59:31.290868 18504 net.cpp:380] inception_5d/output -> inception_5d/output
I1201 03:59:31.290937 18504 net.cpp:122] Setting up inception_5d/output
I1201 03:59:31.290951 18504 net.cpp:129] Top shape: 5 512 14 14 (501760)
I1201 03:59:31.290958 18504 net.cpp:137] Memory required for data: 775721040
I1201 03:59:31.290967 18504 layer_factory.hpp:77] Creating layer inception_5d/output_inception_5d/output_0_split
I1201 03:59:31.290982 18504 net.cpp:84] Creating Layer inception_5d/output_inception_5d/output_0_split
I1201 03:59:31.290988 18504 net.cpp:406] inception_5d/output_inception_5d/output_0_split <- inception_5d/output
I1201 03:59:31.291002 18504 net.cpp:380] inception_5d/output_inception_5d/output_0_split -> inception_5d/output_inception_5d/output_0_split_0
I1201 03:59:31.291016 18504 net.cpp:380] inception_5d/output_inception_5d/output_0_split -> inception_5d/output_inception_5d/output_0_split_1
I1201 03:59:31.291028 18504 net.cpp:380] inception_5d/output_inception_5d/output_0_split -> inception_5d/output_inception_5d/output_0_split_2
I1201 03:59:31.291040 18504 net.cpp:380] inception_5d/output_inception_5d/output_0_split -> inception_5d/output_inception_5d/output_0_split_3
I1201 03:59:31.291195 18504 net.cpp:122] Setting up inception_5d/output_inception_5d/output_0_split
I1201 03:59:31.291208 18504 net.cpp:129] Top shape: 5 512 14 14 (501760)
I1201 03:59:31.291215 18504 net.cpp:129] Top shape: 5 512 14 14 (501760)
I1201 03:59:31.291224 18504 net.cpp:129] Top shape: 5 512 14 14 (501760)
I1201 03:59:31.291234 18504 net.cpp:129] Top shape: 5 512 14 14 (501760)
I1201 03:59:31.291239 18504 net.cpp:137] Memory required for data: 783749200
I1201 03:59:31.291246 18504 layer_factory.hpp:77] Creating layer pool5/spm7
I1201 03:59:31.291303 18504 net.cpp:84] Creating Layer pool5/spm7
I1201 03:59:31.291313 18504 net.cpp:406] pool5/spm7 <- inception_5d/output_inception_5d/output_0_split_0
I1201 03:59:31.291324 18504 net.cpp:380] pool5/spm7 -> pool5/spm7
I1201 03:59:31.291414 18504 net.cpp:122] Setting up pool5/spm7
I1201 03:59:31.291426 18504 net.cpp:129] Top shape: 5 512 7 7 (125440)
I1201 03:59:31.291435 18504 net.cpp:137] Memory required for data: 784250960
I1201 03:59:31.291441 18504 layer_factory.hpp:77] Creating layer pool5/spm7_flatten
I1201 03:59:31.291451 18504 net.cpp:84] Creating Layer pool5/spm7_flatten
I1201 03:59:31.291458 18504 net.cpp:406] pool5/spm7_flatten <- pool5/spm7
I1201 03:59:31.291469 18504 net.cpp:380] pool5/spm7_flatten -> pool5/spm7_flatten
I1201 03:59:31.291523 18504 net.cpp:122] Setting up pool5/spm7_flatten
I1201 03:59:31.291534 18504 net.cpp:129] Top shape: 5 25088 (125440)
I1201 03:59:31.291541 18504 net.cpp:137] Memory required for data: 784752720
I1201 03:59:31.291549 18504 layer_factory.hpp:77] Creating layer pool5/spm3
I1201 03:59:31.291558 18504 net.cpp:84] Creating Layer pool5/spm3
I1201 03:59:31.291566 18504 net.cpp:406] pool5/spm3 <- inception_5d/output_inception_5d/output_0_split_1
I1201 03:59:31.291576 18504 net.cpp:380] pool5/spm3 -> pool5/spm3
I1201 03:59:31.291666 18504 net.cpp:122] Setting up pool5/spm3
I1201 03:59:31.291677 18504 net.cpp:129] Top shape: 5 512 3 3 (23040)
I1201 03:59:31.291683 18504 net.cpp:137] Memory required for data: 784844880
I1201 03:59:31.291690 18504 layer_factory.hpp:77] Creating layer pool5/spm3_flatten
I1201 03:59:31.291700 18504 net.cpp:84] Creating Layer pool5/spm3_flatten
I1201 03:59:31.291708 18504 net.cpp:406] pool5/spm3_flatten <- pool5/spm3
I1201 03:59:31.291721 18504 net.cpp:380] pool5/spm3_flatten -> pool5/spm3_flatten
I1201 03:59:31.291774 18504 net.cpp:122] Setting up pool5/spm3_flatten
I1201 03:59:31.291790 18504 net.cpp:129] Top shape: 5 4608 (23040)
I1201 03:59:31.291820 18504 net.cpp:137] Memory required for data: 784937040
I1201 03:59:31.291848 18504 layer_factory.hpp:77] Creating layer pool5/spm2
I1201 03:59:31.291859 18504 net.cpp:84] Creating Layer pool5/spm2
I1201 03:59:31.291868 18504 net.cpp:406] pool5/spm2 <- inception_5d/output_inception_5d/output_0_split_2
I1201 03:59:31.291878 18504 net.cpp:380] pool5/spm2 -> pool5/spm2
I1201 03:59:31.291970 18504 net.cpp:122] Setting up pool5/spm2
I1201 03:59:31.291981 18504 net.cpp:129] Top shape: 5 512 2 2 (10240)
I1201 03:59:31.291990 18504 net.cpp:137] Memory required for data: 784978000
I1201 03:59:31.291997 18504 layer_factory.hpp:77] Creating layer pool5/spm2_flatten
I1201 03:59:31.292006 18504 net.cpp:84] Creating Layer pool5/spm2_flatten
I1201 03:59:31.292013 18504 net.cpp:406] pool5/spm2_flatten <- pool5/spm2
I1201 03:59:31.292026 18504 net.cpp:380] pool5/spm2_flatten -> pool5/spm2_flatten
I1201 03:59:31.292081 18504 net.cpp:122] Setting up pool5/spm2_flatten
I1201 03:59:31.292091 18504 net.cpp:129] Top shape: 5 2048 (10240)
I1201 03:59:31.292098 18504 net.cpp:137] Memory required for data: 785018960
I1201 03:59:31.292105 18504 layer_factory.hpp:77] Creating layer pool5/spm1
I1201 03:59:31.292126 18504 net.cpp:84] Creating Layer pool5/spm1
I1201 03:59:31.292141 18504 net.cpp:406] pool5/spm1 <- inception_5d/output_inception_5d/output_0_split_3
I1201 03:59:31.292152 18504 net.cpp:380] pool5/spm1 -> pool5/spm1
I1201 03:59:31.292235 18504 net.cpp:122] Setting up pool5/spm1
I1201 03:59:31.292248 18504 net.cpp:129] Top shape: 5 512 1 1 (2560)
I1201 03:59:31.292263 18504 net.cpp:137] Memory required for data: 785029200
I1201 03:59:31.292268 18504 layer_factory.hpp:77] Creating layer pool5/spm1_flatten
I1201 03:59:31.292279 18504 net.cpp:84] Creating Layer pool5/spm1_flatten
I1201 03:59:31.292286 18504 net.cpp:406] pool5/spm1_flatten <- pool5/spm1
I1201 03:59:31.292295 18504 net.cpp:380] pool5/spm1_flatten -> pool5/spm1_flatten
I1201 03:59:31.292346 18504 net.cpp:122] Setting up pool5/spm1_flatten
I1201 03:59:31.292357 18504 net.cpp:129] Top shape: 5 512 (2560)
I1201 03:59:31.292363 18504 net.cpp:137] Memory required for data: 785039440
I1201 03:59:31.292369 18504 layer_factory.hpp:77] Creating layer pool5/spm
I1201 03:59:31.292382 18504 net.cpp:84] Creating Layer pool5/spm
I1201 03:59:31.292392 18504 net.cpp:406] pool5/spm <- pool5/spm1_flatten
I1201 03:59:31.292399 18504 net.cpp:406] pool5/spm <- pool5/spm2_flatten
I1201 03:59:31.292407 18504 net.cpp:406] pool5/spm <- pool5/spm3_flatten
I1201 03:59:31.292414 18504 net.cpp:406] pool5/spm <- pool5/spm7_flatten
I1201 03:59:31.292425 18504 net.cpp:380] pool5/spm -> pool5/spm
I1201 03:59:31.292476 18504 net.cpp:122] Setting up pool5/spm
I1201 03:59:31.292487 18504 net.cpp:129] Top shape: 5 32256 (161280)
I1201 03:59:31.292493 18504 net.cpp:137] Memory required for data: 785684560
I1201 03:59:31.292500 18504 layer_factory.hpp:77] Creating layer fc6
I1201 03:59:31.292512 18504 net.cpp:84] Creating Layer fc6
I1201 03:59:31.292520 18504 net.cpp:406] fc6 <- pool5/spm
I1201 03:59:31.292532 18504 net.cpp:380] fc6 -> fc6
I1201 03:59:31.678036 18504 net.cpp:122] Setting up fc6
I1201 03:59:31.678098 18504 net.cpp:129] Top shape: 5 4096 (20480)
I1201 03:59:31.678109 18504 net.cpp:137] Memory required for data: 785766480
I1201 03:59:31.678133 18504 layer_factory.hpp:77] Creating layer fc6/relu
I1201 03:59:31.678158 18504 net.cpp:84] Creating Layer fc6/relu
I1201 03:59:31.678170 18504 net.cpp:406] fc6/relu <- fc6
I1201 03:59:31.678186 18504 net.cpp:367] fc6/relu -> fc6 (in-place)
I1201 03:59:31.683405 18504 net.cpp:122] Setting up fc6/relu
I1201 03:59:31.683465 18504 net.cpp:129] Top shape: 5 4096 (20480)
I1201 03:59:31.683475 18504 net.cpp:137] Memory required for data: 785848400
I1201 03:59:31.683486 18504 layer_factory.hpp:77] Creating layer fc6/dropout
I1201 03:59:31.683504 18504 net.cpp:84] Creating Layer fc6/dropout
I1201 03:59:31.683518 18504 net.cpp:406] fc6/dropout <- fc6
I1201 03:59:31.683537 18504 net.cpp:367] fc6/dropout -> fc6 (in-place)
I1201 03:59:31.683660 18504 net.cpp:122] Setting up fc6/dropout
I1201 03:59:31.683702 18504 net.cpp:129] Top shape: 5 4096 (20480)
I1201 03:59:31.683713 18504 net.cpp:137] Memory required for data: 785930320
I1201 03:59:31.683722 18504 layer_factory.hpp:77] Creating layer fc7
I1201 03:59:31.683737 18504 net.cpp:84] Creating Layer fc7
I1201 03:59:31.683746 18504 net.cpp:406] fc7 <- fc6
I1201 03:59:31.683765 18504 net.cpp:380] fc7 -> fc7
I1201 03:59:31.744575 18504 net.cpp:122] Setting up fc7
I1201 03:59:31.744628 18504 net.cpp:129] Top shape: 5 4096 (20480)
I1201 03:59:31.744637 18504 net.cpp:137] Memory required for data: 786012240
I1201 03:59:31.744653 18504 layer_factory.hpp:77] Creating layer fc7/relu
I1201 03:59:31.744673 18504 net.cpp:84] Creating Layer fc7/relu
I1201 03:59:31.744683 18504 net.cpp:406] fc7/relu <- fc7
I1201 03:59:31.744693 18504 net.cpp:367] fc7/relu -> fc7 (in-place)
I1201 03:59:31.745131 18504 net.cpp:122] Setting up fc7/relu
I1201 03:59:31.745147 18504 net.cpp:129] Top shape: 5 4096 (20480)
I1201 03:59:31.745154 18504 net.cpp:137] Memory required for data: 786094160
I1201 03:59:31.745160 18504 layer_factory.hpp:77] Creating layer fc7/dropout
I1201 03:59:31.745173 18504 net.cpp:84] Creating Layer fc7/dropout
I1201 03:59:31.745180 18504 net.cpp:406] fc7/dropout <- fc7
I1201 03:59:31.745190 18504 net.cpp:367] fc7/dropout -> fc7 (in-place)
I1201 03:59:31.745261 18504 net.cpp:122] Setting up fc7/dropout
I1201 03:59:31.745275 18504 net.cpp:129] Top shape: 5 4096 (20480)
I1201 03:59:31.745280 18504 net.cpp:137] Memory required for data: 786176080
I1201 03:59:31.745286 18504 layer_factory.hpp:77] Creating layer classifier_re
I1201 03:59:31.745302 18504 net.cpp:84] Creating Layer classifier_re
I1201 03:59:31.745311 18504 net.cpp:406] classifier_re <- fc7
I1201 03:59:31.745321 18504 net.cpp:380] classifier_re -> classifier_re
I1201 03:59:31.752393 18504 net.cpp:122] Setting up classifier_re
I1201 03:59:31.752419 18504 net.cpp:129] Top shape: 5 80 (400)
I1201 03:59:31.752426 18504 net.cpp:137] Memory required for data: 786177680
I1201 03:59:31.752437 18504 layer_factory.hpp:77] Creating layer classifier_re_classifier_re_0_split
I1201 03:59:31.752452 18504 net.cpp:84] Creating Layer classifier_re_classifier_re_0_split
I1201 03:59:31.752460 18504 net.cpp:406] classifier_re_classifier_re_0_split <- classifier_re
I1201 03:59:31.752471 18504 net.cpp:380] classifier_re_classifier_re_0_split -> classifier_re_classifier_re_0_split_0
I1201 03:59:31.752485 18504 net.cpp:380] classifier_re_classifier_re_0_split -> classifier_re_classifier_re_0_split_1
I1201 03:59:31.752493 18504 net.cpp:380] classifier_re_classifier_re_0_split -> classifier_re_classifier_re_0_split_2
I1201 03:59:31.752602 18504 net.cpp:122] Setting up classifier_re_classifier_re_0_split
I1201 03:59:31.752612 18504 net.cpp:129] Top shape: 5 80 (400)
I1201 03:59:31.752619 18504 net.cpp:129] Top shape: 5 80 (400)
I1201 03:59:31.752625 18504 net.cpp:129] Top shape: 5 80 (400)
I1201 03:59:31.752630 18504 net.cpp:137] Memory required for data: 786182480
I1201 03:59:31.752636 18504 layer_factory.hpp:77] Creating layer accuracy_top_3
I1201 03:59:31.752650 18504 net.cpp:84] Creating Layer accuracy_top_3
I1201 03:59:31.752657 18504 net.cpp:406] accuracy_top_3 <- classifier_re_classifier_re_0_split_0
I1201 03:59:31.752666 18504 net.cpp:406] accuracy_top_3 <- label_data_1_split_0
…
