…
    mean_value: 114.005
    mean_value: 121.639
    mean_value: 125.972
    max_rotation_angle: 10
    contrast_brightness_adjustment: true
    smooth_filtering: true
    min_contrast: 0.8
    max_contrast: 1.2
    max_smooth: 6
    apply_probability: 0.5
    debug_params: false
    max_color_shift: 20
  }
  image_data_param {
    source: "/home/public/wuxiaodong/caffe/examples/ai_challenge/train.txt"
    batch_size: 30
    shuffle: true
    new_height: 256
    new_width: 256
    root_folder: "/home/public/wuxiaodong/caffe/examples/ai_challenge/train_imgs/"
  }
}
layer {
  name: "conv1_1"
  type: "Convolution"
  bottom: "data"
  top: "conv1_1"
  convolution_param {
    num_output: 64
    pad: 1
    kernel_size: 3
  }
}
layer {
  name: "relu1_1"
  type: "ReLU"
  bottom: "conv1_1"
  top: "conv1_1"
}
layer {
  name: "conv1_2"
  type: "Convolution"
  bottom: "conv1_1"
  top: "conv1_2"
  convolution_param {
    num_output: 64
    pad: 1
    kernel_size: 3
  }
}
layer {
  name: "relu1_2"
  type: "ReLU"
  bottom: "conv1_2"
  top: "conv1_2"
}
layer {
  name: "pool1"
  type: "Pooling"
  bottom: "conv1_2"
  top: "pool1"
  pooling_param {
    pool: MAX
    kernel_size: 2
    stride: 2
  }
}
layer {
  name: "conv2_1"
  type: "Convolution"
  bottom: "pool1"
  top: "conv2_1"
  convolution_param {
    num_output: 128
    pad: 1
    kernel_size: 3
  }
}
layer {
  name: "relu2_1"
  type: "ReLU"
  bottom: "conv2_1"
  top: "conv2_1"
}
layer {
  name: "conv2_2"
  type: "Convolution"
  bottom: "conv2_1"
  top: "conv2_2"
  convolution_param {
    num_output: 128
    pad: 1
    kernel_size: 3
    weight_filler {
      type: "gaussian"
      std: 0.01
    }
    bias_filler {
      type: "constant"
      value: 0
    }
  }
}
layer {
  name: "relu2_2"
  type: "ReLU"
  bottom: "conv2_2"
  top: "conv2_2"
}
layer {
  name: "pool2"
  type: "Pooling"
  bottom: "conv2_2"
  top: "pool2"
  pooling_param {
    pool: MAX
    kernel_size: 2
    stride: 2
  }
}
layer {
  name: "conv3_1"
  type: "Convolution"
  bottom: "pool2"
  top: "conv3_1"
  convolution_param {
    num_output: 256
    pad: 1
    kernel_size: 3
  }
}
layer {
  name: "relu3_1"
  type: "ReLU"
  bottom: "conv3_1"
  top: "conv3_1"
}
layer {
  name: "conv3_2"
  type: "Convolution"
  bottom: "conv3_1"
  top: "conv3_2"
  convolution_param {
    num_output: 256
    pad: 1
    kernel_size: 3
  }
}
layer {
  name: "relu3_2"
  type: "ReLU"
  bottom: "conv3_2"
  top: "conv3_2"
}
layer {
  name: "conv3_3"
  type: "Convolution"
  bottom: "conv3_2"
  top: "conv3_3"
  convolution_param {
    num_output: 256
    pad: 1
    kernel_size: 3
  }
}
layer {
  name: "relu3_3"
  type: "ReLU"
  bottom: "conv3_3"
  top: "conv3_3"
}
layer {
  name: "conv3_4"
  type: "Convolution"
  bottom: "conv3_3"
  top: "conv3_4"
  convolution_param {
    num_output: 256
    pad: 1
    kernel_size: 3
  }
}
layer {
  name: "relu3_4"
  type: "ReLU"
  bottom: "conv3_4"
  top: "conv3_4"
}
layer {
  name: "pool3"
  type: "Pooling"
  bottom: "conv3_4"
  top: "pool3"
  pooling_param {
    pool: MAX
    kernel_size: 2
    stride: 2
  }
}
layer {
  name: "conv4_1"
  type: "Convolution"
  bottom: "pool3"
  top: "conv4_1"
  convolution_param {
    num_output: 512
    pad: 1
    kernel_size: 3
  }
}
layer {
  name: "relu4_1"
  type: "ReLU"
  bottom: "conv4_1"
  top: "conv4_1"
}
layer {
  name: "conv4_2"
  type: "Convolution"
  bottom: "conv4_1"
  top: "conv4_2"
  convolution_param {
    num_output: 512
    pad: 1
    kernel_size: 3
  }
}
layer {
  name: "relu4_2"
  type: "ReLU"
  bottom: "conv4_2"
  top: "conv4_2"
}
layer {
  name: "conv4_3"
  type: "Convolution"
  bottom: "conv4_2"
  top: "conv4_3"
  convolution_param {
    num_output: 512
    pad: 1
    kernel_size: 3
  }
}
layer {
  name: "relu4_3"
  type: "ReLU"
  bottom: "conv4_3"
  top: "conv4_3"
}
layer {
  name: "conv4_4"
  type: "Convolution"
  bottom: "conv4_3"
  top: "conv4_4"
  convolution_param {
    num_output: 512
    pad: 1
    kernel_size: 3
  }
}
layer {
  name: "relu4_4"
  type: "ReLU"
  bottom: "conv4_4"
  top: "conv4_4"
}
layer {
  name: "pool4"
  type: "Pooling"
  bottom: "conv4_4"
  top: "pool4"
  pooling_param {
    pool: MAX
    kernel_size: 2
    stride: 2
  }
}
layer {
  name: "conv5_1"
  type: "Convolution"
  bottom: "pool4"
  top: "conv5_1"
  convolution_param {
    num_output: 512
    pad: 1
    kernel_size: 3
  }
}
layer {
  name: "relu5_1"
  type: "ReLU"
  bottom: "conv5_1"
  top: "conv5_1"
}
layer {
  name: "conv5_2"
  type: "Convolution"
  bottom: "conv5_1"
  top: "conv5_2"
  convolution_param {
    num_output: 512
    pad: 1
    kernel_size: 3
  }
}
layer {
  name: "relu5_2"
  type: "ReLU"
  bottom: "conv5_2"
  top: "conv5_2"
}
layer {
  name: "conv5_3"
  type: "Convolution"
  bottom: "conv5_2"
  top: "conv5_3"
  convolution_param {
    num_output: 512
    pad: 1
    kernel_size: 3
  }
}
layer {
  name: "relu5_3"
  type: "ReLU"
  bottom: "conv5_3"
  top: "conv5_3"
}
layer {
  name: "conv5_4"
  type: "Convolution"
  bottom: "conv5_3"
  top: "conv5_4"
  convolution_param {
    num_output: 512
    pad: 1
    kernel_size: 3
  }
}
layer {
  name: "relu5_4"
  type: "ReLU"
  bottom: "conv5_4"
  top: "conv5_4"
}
layer {
  name: "pool5"
  type: "Pooling"
  bottom: "conv5_4"
  top: "pool5"
  pooling_param {
    pool: MAX
    kernel_size: 2
    stride: 2
  }
}
layer {
  name: "fc6"
  type: "InnerProduct"
  bottom: "pool5"
  top: "fc6"
  inner_product_param {
    num_output: 4096
  }
}
layer {
  name: "relu6"
  type: "ReLU"
  bottom: "fc6"
  top: "fc6"
}
layer {
  name: "drop6"
  type: "Dropout"
  bottom: "fc6"
  top: "fc6"
  dropout_param {
    dropout_ratio: 0.5
  }
}
layer {
  name: "fc7"
  type: "InnerProduct"
  bottom: "fc6"
  top: "fc7"
  inner_product_param {
    num_output: 4096
  }
}
layer {
  name: "relu7"
  type: "ReLU"
  bottom: "fc7"
  top: "fc7"
}
layer {
  name: "drop7"
  type: "Dropout"
  bottom: "fc7"
  top: "fc7"
  dropout_param {
    dropout_ratio: 0.5
  }
}
layer {
  name: "classifier_re"
  type: "InnerProduct"
  bottom: "fc7"
  top: "classifier_re"
  param {
    lr_mult: 10
    decay_mult: 1
  }
  param {
    lr_mult: 20
    decay_mult: 0
  }
  inner_product_param {
    num_output: 80
    weight_filler {
      type: "gaussian"
      std: 0.01
    }
    bias_filler {
      type: "constant"
      value: 0
    }
  }
}
layer {
  name: "loss"
  type: "SoftmaxWithLoss"
  bottom: "classifier_re"
  bottom: "label"
  top: "loss"
}
I1201 02:58:37.313156 25729 layer_factory.hpp:77] Creating layer data
I1201 02:58:37.313221 25729 net.cpp:84] Creating Layer data
I1201 02:58:37.313242 25729 net.cpp:380] data -> data
I1201 02:58:37.313284 25729 net.cpp:380] data -> label
I1201 02:58:37.313721 25729 image_data_layer.cpp:38] Opening file /home/public/wuxiaodong/caffe/examples/ai_challenge/train.txt
I1201 02:58:37.355726 25729 image_data_layer.cpp:53] Shuffling data
I1201 02:58:37.367902 25729 image_data_layer.cpp:63] A total of 53879 images.
I1201 02:58:37.379813 25729 image_data_layer.cpp:90] output data size: 30,3,224,224
I1201 02:58:37.430383 25729 net.cpp:122] Setting up data
I1201 02:58:37.430433 25729 net.cpp:129] Top shape: 30 3 224 224 (4515840)
I1201 02:58:37.430441 25729 net.cpp:129] Top shape: 30 (30)
I1201 02:58:37.430446 25729 net.cpp:137] Memory required for data: 18063480
I1201 02:58:37.430457 25729 layer_factory.hpp:77] Creating layer conv1_1
I1201 02:58:37.430481 25729 net.cpp:84] Creating Layer conv1_1
I1201 02:58:37.430491 25729 net.cpp:406] conv1_1 <- data
I1201 02:58:37.430510 25729 net.cpp:380] conv1_1 -> conv1_1
I1201 02:58:38.326849 25729 net.cpp:122] Setting up conv1_1
I1201 02:58:38.326917 25729 net.cpp:129] Top shape: 30 64 224 224 (96337920)
I1201 02:58:38.326925 25729 net.cpp:137] Memory required for data: 403415160
I1201 02:58:38.326961 25729 layer_factory.hpp:77] Creating layer relu1_1
I1201 02:58:38.327020 25729 net.cpp:84] Creating Layer relu1_1
I1201 02:58:38.327029 25729 net.cpp:406] relu1_1 <- conv1_1
I1201 02:58:38.327039 25729 net.cpp:367] relu1_1 -> conv1_1 (in-place)
I1201 02:58:38.327539 25729 net.cpp:122] Setting up relu1_1
I1201 02:58:38.327558 25729 net.cpp:129] Top shape: 30 64 224 224 (96337920)
I1201 02:58:38.327565 25729 net.cpp:137] Memory required for data: 788766840
I1201 02:58:38.327571 25729 layer_factory.hpp:77] Creating layer conv1_2
I1201 02:58:38.327595 25729 net.cpp:84] Creating Layer conv1_2
I1201 02:58:38.327602 25729 net.cpp:406] conv1_2 <- conv1_1
I1201 02:58:38.327612 25729 net.cpp:380] conv1_2 -> conv1_2
I1201 02:58:38.329403 25729 net.cpp:122] Setting up conv1_2
I1201 02:58:38.329423 25729 net.cpp:129] Top shape: 30 64 224 224 (96337920)
I1201 02:58:38.329429 25729 net.cpp:137] Memory required for data: 1174118520
I1201 02:58:38.329444 25729 layer_factory.hpp:77] Creating layer relu1_2
I1201 02:58:38.329455 25729 net.cpp:84] Creating Layer relu1_2
I1201 02:58:38.329461 25729 net.cpp:406] relu1_2 <- conv1_2
I1201 02:58:38.329469 25729 net.cpp:367] relu1_2 -> conv1_2 (in-place)
I1201 02:58:38.329737 25729 net.cpp:122] Setting up relu1_2
I1201 02:58:38.329749 25729 net.cpp:129] Top shape: 30 64 224 224 (96337920)
I1201 02:58:38.329756 25729 net.cpp:137] Memory required for data: 1559470200
I1201 02:58:38.329761 25729 layer_factory.hpp:77] Creating layer pool1
I1201 02:58:38.329789 25729 net.cpp:84] Creating Layer pool1
I1201 02:58:38.329797 25729 net.cpp:406] pool1 <- conv1_2
I1201 02:58:38.329804 25729 net.cpp:380] pool1 -> pool1
I1201 02:58:38.329879 25729 net.cpp:122] Setting up pool1
I1201 02:58:38.329890 25729 net.cpp:129] Top shape: 30 64 112 112 (24084480)
I1201 02:58:38.329895 25729 net.cpp:137] Memory required for data: 1655808120
I1201 02:58:38.329902 25729 layer_factory.hpp:77] Creating layer conv2_1
I1201 02:58:38.329912 25729 net.cpp:84] Creating Layer conv2_1
I1201 02:58:38.329919 25729 net.cpp:406] conv2_1 <- pool1
I1201 02:58:38.329927 25729 net.cpp:380] conv2_1 -> conv2_1
I1201 02:58:38.333170 25729 net.cpp:122] Setting up conv2_1
I1201 02:58:38.333192 25729 net.cpp:129] Top shape: 30 128 112 112 (48168960)
I1201 02:58:38.333200 25729 net.cpp:137] Memory required for data: 1848483960
I1201 02:58:38.333214 25729 layer_factory.hpp:77] Creating layer relu2_1
I1201 02:58:38.333225 25729 net.cpp:84] Creating Layer relu2_1
I1201 02:58:38.333230 25729 net.cpp:406] relu2_1 <- conv2_1
I1201 02:58:38.333240 25729 net.cpp:367] relu2_1 -> conv2_1 (in-place)
I1201 02:58:38.333703 25729 net.cpp:122] Setting up relu2_1
I1201 02:58:38.333721 25729 net.cpp:129] Top shape: 30 128 112 112 (48168960)
I1201 02:58:38.333727 25729 net.cpp:137] Memory required for data: 2041159800
I1201 02:58:38.333734 25729 layer_factory.hpp:77] Creating layer conv2_2
I1201 02:58:38.333750 25729 net.cpp:84] Creating Layer conv2_2
I1201 02:58:38.333755 25729 net.cpp:406] conv2_2 <- conv2_1
I1201 02:58:38.333765 25729 net.cpp:380] conv2_2 -> conv2_2
I1201 02:58:38.337714 25729 net.cpp:122] Setting up conv2_2
I1201 02:58:38.337766 25729 net.cpp:129] Top shape: 30 128 112 112 (48168960)
I1201 02:58:38.337774 25729 net.cpp:137] Memory required for data: 2233835640
I1201 02:58:38.337785 25729 layer_factory.hpp:77] Creating layer relu2_2
I1201 02:58:38.337798 25729 net.cpp:84] Creating Layer relu2_2
I1201 02:58:38.337805 25729 net.cpp:406] relu2_2 <- conv2_2
I1201 02:58:38.337812 25729 net.cpp:367] relu2_2 -> conv2_2 (in-place)
I1201 02:58:38.338084 25729 net.cpp:122] Setting up relu2_2
I1201 02:58:38.338098 25729 net.cpp:129] Top shape: 30 128 112 112 (48168960)
I1201 02:58:38.338102 25729 net.cpp:137] Memory required for data: 2426511480
I1201 02:58:38.338107 25729 layer_factory.hpp:77] Creating layer pool2
I1201 02:58:38.338116 25729 net.cpp:84] Creating Layer pool2
I1201 02:58:38.338124 25729 net.cpp:406] pool2 <- conv2_2
I1201 02:58:38.338130 25729 net.cpp:380] pool2 -> pool2
I1201 02:58:38.338189 25729 net.cpp:122] Setting up pool2
I1201 02:58:38.338199 25729 net.cpp:129] Top shape: 30 128 56 56 (12042240)
I1201 02:58:38.338205 25729 net.cpp:137] Memory required for data: 2474680440
I1201 02:58:38.338210 25729 layer_factory.hpp:77] Creating layer conv3_1
I1201 02:58:38.338220 25729 net.cpp:84] Creating Layer conv3_1
I1201 02:58:38.338227 25729 net.cpp:406] conv3_1 <- pool2
I1201 02:58:38.338235 25729 net.cpp:380] conv3_1 -> conv3_1
I1201 02:58:38.341079 25729 net.cpp:122] Setting up conv3_1
I1201 02:58:38.341101 25729 net.cpp:129] Top shape: 30 256 56 56 (24084480)
I1201 02:58:38.341116 25729 net.cpp:137] Memory required for data: 2571018360
I1201 02:58:38.341133 25729 layer_factory.hpp:77] Creating layer relu3_1
I1201 02:58:38.341143 25729 net.cpp:84] Creating Layer relu3_1
I1201 02:58:38.341150 25729 net.cpp:406] relu3_1 <- conv3_1
I1201 02:58:38.341157 25729 net.cpp:367] relu3_1 -> conv3_1 (in-place)
I1201 02:58:38.341648 25729 net.cpp:122] Setting up relu3_1
I1201 02:58:38.341666 25729 net.cpp:129] Top shape: 30 256 56 56 (24084480)
I1201 02:58:38.341671 25729 net.cpp:137] Memory required for data: 2667356280
I1201 02:58:38.341677 25729 layer_factory.hpp:77] Creating layer conv3_2
I1201 02:58:38.341693 25729 net.cpp:84] Creating Layer conv3_2
I1201 02:58:38.341699 25729 net.cpp:406] conv3_2 <- conv3_1
I1201 02:58:38.341711 25729 net.cpp:380] conv3_2 -> conv3_2
I1201 02:58:38.346410 25729 net.cpp:122] Setting up conv3_2
I1201 02:58:38.346451 25729 net.cpp:129] Top shape: 30 256 56 56 (24084480)
I1201 02:58:38.346457 25729 net.cpp:137] Memory required for data: 2763694200
I1201 02:58:38.346470 25729 layer_factory.hpp:77] Creating layer relu3_2
I1201 02:58:38.346482 25729 net.cpp:84] Creating Layer relu3_2
I1201 02:58:38.346490 25729 net.cpp:406] relu3_2 <- conv3_2
I1201 02:58:38.346501 25729 net.cpp:367] relu3_2 -> conv3_2 (in-place)
I1201 02:58:38.347002 25729 net.cpp:122] Setting up relu3_2
I1201 02:58:38.347021 25729 net.cpp:129] Top shape: 30 256 56 56 (24084480)
I1201 02:58:38.347028 25729 net.cpp:137] Memory required for data: 2860032120
I1201 02:58:38.347034 25729 layer_factory.hpp:77] Creating layer conv3_3
I1201 02:58:38.347046 25729 net.cpp:84] Creating Layer conv3_3
I1201 02:58:38.347052 25729 net.cpp:406] conv3_3 <- conv3_2
I1201 02:58:38.347065 25729 net.cpp:380] conv3_3 -> conv3_3
I1201 02:58:38.350605 25729 net.cpp:122] Setting up conv3_3
I1201 02:58:38.350625 25729 net.cpp:129] Top shape: 30 256 56 56 (24084480)
I1201 02:58:38.350632 25729 net.cpp:137] Memory required for data: 2956370040
I1201 02:58:38.350643 25729 layer_factory.hpp:77] Creating layer relu3_3
I1201 02:58:38.350658 25729 net.cpp:84] Creating Layer relu3_3
I1201 02:58:38.350664 25729 net.cpp:406] relu3_3 <- conv3_3
I1201 02:58:38.350673 25729 net.cpp:367] relu3_3 -> conv3_3 (in-place)
I1201 02:58:38.350960 25729 net.cpp:122] Setting up relu3_3
I1201 02:58:38.350973 25729 net.cpp:129] Top shape: 30 256 56 56 (24084480)
I1201 02:58:38.350978 25729 net.cpp:137] Memory required for data: 3052707960
I1201 02:58:38.350985 25729 layer_factory.hpp:77] Creating layer conv3_4
I1201 02:58:38.351020 25729 net.cpp:84] Creating Layer conv3_4
I1201 02:58:38.351052 25729 net.cpp:406] conv3_4 <- conv3_3
I1201 02:58:38.351063 25729 net.cpp:380] conv3_4 -> conv3_4
I1201 02:58:38.354758 25729 net.cpp:122] Setting up conv3_4
I1201 02:58:38.354790 25729 net.cpp:129] Top shape: 30 256 56 56 (24084480)
I1201 02:58:38.354797 25729 net.cpp:137] Memory required for data: 3149045880
I1201 02:58:38.354809 25729 layer_factory.hpp:77] Creating layer relu3_4
I1201 02:58:38.354817 25729 net.cpp:84] Creating Layer relu3_4
I1201 02:58:38.354825 25729 net.cpp:406] relu3_4 <- conv3_4
I1201 02:58:38.354832 25729 net.cpp:367] relu3_4 -> conv3_4 (in-place)
I1201 02:58:38.355317 25729 net.cpp:122] Setting up relu3_4
I1201 02:58:38.355335 25729 net.cpp:129] Top shape: 30 256 56 56 (24084480)
I1201 02:58:38.355346 25729 net.cpp:137] Memory required for data: 3245383800
I1201 02:58:38.355352 25729 layer_factory.hpp:77] Creating layer pool3
I1201 02:58:38.355365 25729 net.cpp:84] Creating Layer pool3
I1201 02:58:38.355370 25729 net.cpp:406] pool3 <- conv3_4
I1201 02:58:38.355381 25729 net.cpp:380] pool3 -> pool3
I1201 02:58:38.355471 25729 net.cpp:122] Setting up pool3
I1201 02:58:38.355481 25729 net.cpp:129] Top shape: 30 256 28 28 (6021120)
I1201 02:58:38.355486 25729 net.cpp:137] Memory required for data: 3269468280
I1201 02:58:38.355492 25729 layer_factory.hpp:77] Creating layer conv4_1
I1201 02:58:38.355504 25729 net.cpp:84] Creating Layer conv4_1
I1201 02:58:38.355509 25729 net.cpp:406] conv4_1 <- pool3
I1201 02:58:38.355520 25729 net.cpp:380] conv4_1 -> conv4_1
I1201 02:58:38.362092 25729 net.cpp:122] Setting up conv4_1
I1201 02:58:38.362120 25729 net.cpp:129] Top shape: 30 512 28 28 (12042240)
I1201 02:58:38.362128 25729 net.cpp:137] Memory required for data: 3317637240
I1201 02:58:38.362148 25729 layer_factory.hpp:77] Creating layer relu4_1
I1201 02:58:38.362160 25729 net.cpp:84] Creating Layer relu4_1
I1201 02:58:38.362181 25729 net.cpp:406] relu4_1 <- conv4_1
I1201 02:58:38.362211 25729 net.cpp:367] relu4_1 -> conv4_1 (in-place)
I1201 02:58:38.362514 25729 net.cpp:122] Setting up relu4_1
I1201 02:58:38.362542 25729 net.cpp:129] Top shape: 30 512 28 28 (12042240)
I1201 02:58:38.362548 25729 net.cpp:137] Memory required for data: 3365806200
I1201 02:58:38.362565 25729 layer_factory.hpp:77] Creating layer conv4_2
I1201 02:58:38.362579 25729 net.cpp:84] Creating Layer conv4_2
I1201 02:58:38.362586 25729 net.cpp:406] conv4_2 <- conv4_1
I1201 02:58:38.362596 25729 net.cpp:380] conv4_2 -> conv4_2
I1201 02:58:38.372325 25729 net.cpp:122] Setting up conv4_2
I1201 02:58:38.372357 25729 net.cpp:129] Top shape: 30 512 28 28 (12042240)
I1201 02:58:38.372365 25729 net.cpp:137] Memory required for data: 3413975160
I1201 02:58:38.372376 25729 layer_factory.hpp:77] Creating layer relu4_2
I1201 02:58:38.372387 25729 net.cpp:84] Creating Layer relu4_2
I1201 02:58:38.372395 25729 net.cpp:406] relu4_2 <- conv4_2
I1201 02:58:38.372403 25729 net.cpp:367] relu4_2 -> conv4_2 (in-place)
I1201 02:58:38.373044 25729 net.cpp:122] Setting up relu4_2
I1201 02:58:38.373064 25729 net.cpp:129] Top shape: 30 512 28 28 (12042240)
I1201 02:58:38.373080 25729 net.cpp:137] Memory required for data: 3462144120
I1201 02:58:38.373085 25729 layer_factory.hpp:77] Creating layer conv4_3
I1201 02:58:38.373097 25729 net.cpp:84] Creating Layer conv4_3
I1201 02:58:38.373103 25729 net.cpp:406] conv4_3 <- conv4_2
I1201 02:58:38.373116 25729 net.cpp:380] conv4_3 -> conv4_3
I1201 02:58:38.381659 25729 net.cpp:122] Setting up conv4_3
I1201 02:58:38.381688 25729 net.cpp:129] Top shape: 30 512 28 28 (12042240)
I1201 02:58:38.381695 25729 net.cpp:137] Memory required for data: 3510313080
I1201 02:58:38.381706 25729 layer_factory.hpp:77] Creating layer relu4_3
I1201 02:58:38.381721 25729 net.cpp:84] Creating Layer relu4_3
I1201 02:58:38.381728 25729 net.cpp:406] relu4_3 <- conv4_3
I1201 02:58:38.381737 25729 net.cpp:367] relu4_3 -> conv4_3 (in-place)
I1201 02:58:38.382244 25729 net.cpp:122] Setting up relu4_3
I1201 02:58:38.382263 25729 net.cpp:129] Top shape: 30 512 28 28 (12042240)
I1201 02:58:38.382277 25729 net.cpp:137] Memory required for data: 3558482040
I1201 02:58:38.382320 25729 layer_factory.hpp:77] Creating layer conv4_4
I1201 02:58:38.382336 25729 net.cpp:84] Creating Layer conv4_4
I1201 02:58:38.382344 25729 net.cpp:406] conv4_4 <- conv4_3
I1201 02:58:38.382355 25729 net.cpp:380] conv4_4 -> conv4_4
I1201 02:58:38.390321 25729 net.cpp:122] Setting up conv4_4
I1201 02:58:38.390348 25729 net.cpp:129] Top shape: 30 512 28 28 (12042240)
I1201 02:58:38.390357 25729 net.cpp:137] Memory required for data: 3606651000
I1201 02:58:38.390367 25729 layer_factory.hpp:77] Creating layer relu4_4
I1201 02:58:38.390380 25729 net.cpp:84] Creating Layer relu4_4
I1201 02:58:38.390388 25729 net.cpp:406] relu4_4 <- conv4_4
I1201 02:58:38.390398 25729 net.cpp:367] relu4_4 -> conv4_4 (in-place)
I1201 02:58:38.390668 25729 net.cpp:122] Setting up relu4_4
I1201 02:58:38.390681 25729 net.cpp:129] Top shape: 30 512 28 28 (12042240)
I1201 02:58:38.390687 25729 net.cpp:137] Memory required for data: 3654819960
I1201 02:58:38.390693 25729 layer_factory.hpp:77] Creating layer pool4
I1201 02:58:38.390705 25729 net.cpp:84] Creating Layer pool4
I1201 02:58:38.390712 25729 net.cpp:406] pool4 <- conv4_4
I1201 02:58:38.390722 25729 net.cpp:380] pool4 -> pool4
I1201 02:58:38.390789 25729 net.cpp:122] Setting up pool4
I1201 02:58:38.390799 25729 net.cpp:129] Top shape: 30 512 14 14 (3010560)
I1201 02:58:38.390805 25729 net.cpp:137] Memory required for data: 3666862200
I1201 02:58:38.390810 25729 layer_factory.hpp:77] Creating layer conv5_1
I1201 02:58:38.390822 25729 net.cpp:84] Creating Layer conv5_1
I1201 02:58:38.390828 25729 net.cpp:406] conv5_1 <- pool4
I1201 02:58:38.390838 25729 net.cpp:380] conv5_1 -> conv5_1
I1201 02:58:38.398910 25729 net.cpp:122] Setting up conv5_1
I1201 02:58:38.398941 25729 net.cpp:129] Top shape: 30 512 14 14 (3010560)
I1201 02:58:38.398948 25729 net.cpp:137] Memory required for data: 3678904440
I1201 02:58:38.398970 25729 layer_factory.hpp:77] Creating layer relu5_1
I1201 02:58:38.398982 25729 net.cpp:84] Creating Layer relu5_1
I1201 02:58:38.398989 25729 net.cpp:406] relu5_1 <- conv5_1
I1201 02:58:38.399000 25729 net.cpp:367] relu5_1 -> conv5_1 (in-place)
I1201 02:58:38.399521 25729 net.cpp:122] Setting up relu5_1
I1201 02:58:38.399539 25729 net.cpp:129] Top shape: 30 512 14 14 (3010560)
I1201 02:58:38.399545 25729 net.cpp:137] Memory required for data: 3690946680
I1201 02:58:38.399551 25729 layer_factory.hpp:77] Creating layer conv5_2
I1201 02:58:38.399565 25729 net.cpp:84] Creating Layer conv5_2
I1201 02:58:38.399571 25729 net.cpp:406] conv5_2 <- conv5_1
I1201 02:58:38.399581 25729 net.cpp:380] conv5_2 -> conv5_2
I1201 02:58:38.407822 25729 net.cpp:122] Setting up conv5_2
I1201 02:58:38.407851 25729 net.cpp:129] Top shape: 30 512 14 14 (3010560)
I1201 02:58:38.407857 25729 net.cpp:137] Memory required for data: 3702988920
I1201 02:58:38.407871 25729 layer_factory.hpp:77] Creating layer relu5_2
I1201 02:58:38.407889 25729 net.cpp:84] Creating Layer relu5_2
I1201 02:58:38.407897 25729 net.cpp:406] relu5_2 <- conv5_2
I1201 02:58:38.407907 25729 net.cpp:367] relu5_2 -> conv5_2 (in-place)
I1201 02:58:38.408182 25729 net.cpp:122] Setting up relu5_2
I1201 02:58:38.408195 25729 net.cpp:129] Top shape: 30 512 14 14 (3010560)
I1201 02:58:38.408201 25729 net.cpp:137] Memory required for data: 3715031160
I1201 02:58:38.408206 25729 layer_factory.hpp:77] Creating layer conv5_3
I1201 02:58:38.408229 25729 net.cpp:84] Creating Layer conv5_3
I1201 02:58:38.408236 25729 net.cpp:406] conv5_3 <- conv5_2
I1201 02:58:38.408244 25729 net.cpp:380] conv5_3 -> conv5_3
I1201 02:58:38.415871 25729 net.cpp:122] Setting up conv5_3
I1201 02:58:38.415899 25729 net.cpp:129] Top shape: 30 512 14 14 (3010560)
I1201 02:58:38.415905 25729 net.cpp:137] Memory required for data: 3727073400
I1201 02:58:38.415930 25729 layer_factory.hpp:77] Creating layer relu5_3
I1201 02:58:38.415940 25729 net.cpp:84] Creating Layer relu5_3
I1201 02:58:38.415948 25729 net.cpp:406] relu5_3 <- conv5_3
I1201 02:58:38.415956 25729 net.cpp:367] relu5_3 -> conv5_3 (in-place)
I1201 02:58:38.416462 25729 net.cpp:122] Setting up relu5_3
I1201 02:58:38.416503 25729 net.cpp:129] Top shape: 30 512 14 14 (3010560)
I1201 02:58:38.416512 25729 net.cpp:137] Memory required for data: 3739115640
I1201 02:58:38.416517 25729 layer_factory.hpp:77] Creating layer conv5_4
I1201 02:58:38.416530 25729 net.cpp:84] Creating Layer conv5_4
I1201 02:58:38.416538 25729 net.cpp:406] conv5_4 <- conv5_3
I1201 02:58:38.416549 25729 net.cpp:380] conv5_4 -> conv5_4
I1201 02:58:38.424366 25729 net.cpp:122] Setting up conv5_4
I1201 02:58:38.424391 25729 net.cpp:129] Top shape: 30 512 14 14 (3010560)
I1201 02:58:38.424397 25729 net.cpp:137] Memory required for data: 3751157880
I1201 02:58:38.424408 25729 layer_factory.hpp:77] Creating layer relu5_4
I1201 02:58:38.424419 25729 net.cpp:84] Creating Layer relu5_4
I1201 02:58:38.424427 25729 net.cpp:406] relu5_4 <- conv5_4
I1201 02:58:38.424434 25729 net.cpp:367] relu5_4 -> conv5_4 (in-place)
I1201 02:58:38.424952 25729 net.cpp:122] Setting up relu5_4
I1201 02:58:38.424970 25729 net.cpp:129] Top shape: 30 512 14 14 (3010560)
I1201 02:58:38.424976 25729 net.cpp:137] Memory required for data: 3763200120
I1201 02:58:38.424983 25729 layer_factory.hpp:77] Creating layer pool5
I1201 02:58:38.424995 25729 net.cpp:84] Creating Layer pool5
I1201 02:58:38.425002 25729 net.cpp:406] pool5 <- conv5_4
I1201 02:58:38.425011 25729 net.cpp:380] pool5 -> pool5
I1201 02:58:38.425087 25729 net.cpp:122] Setting up pool5
I1201 02:58:38.425098 25729 net.cpp:129] Top shape: 30 512 7 7 (752640)
I1201 02:58:38.425103 25729 net.cpp:137] Memory required for data: 3766210680
I1201 02:58:38.425119 25729 layer_factory.hpp:77] Creating layer fc6
I1201 02:58:38.425130 25729 net.cpp:84] Creating Layer fc6
I1201 02:58:38.425137 25729 net.cpp:406] fc6 <- pool5
I1201 02:58:38.425148 25729 net.cpp:380] fc6 -> fc6
I1201 02:58:38.820417 25729 net.cpp:122] Setting up fc6
I1201 02:58:38.820503 25729 net.cpp:129] Top shape: 30 4096 (122880)
I1201 02:58:38.820510 25729 net.cpp:137] Memory required for data: 3766702200
I1201 02:58:38.820538 25729 layer_factory.hpp:77] Creating layer relu6
I1201 02:58:38.820554 25729 net.cpp:84] Creating Layer relu6
I1201 02:58:38.820559 25729 net.cpp:406] relu6 <- fc6
I1201 02:58:38.820569 25729 net.cpp:367] relu6 -> fc6 (in-place)
I1201 02:58:38.820956 25729 net.cpp:122] Setting up relu6
I1201 02:58:38.820967 25729 net.cpp:129] Top shape: 30 4096 (122880)
I1201 02:58:38.820972 25729 net.cpp:137] Memory required for data: 3767193720
I1201 02:58:38.820977 25729 layer_factory.hpp:77] Creating layer drop6
I1201 02:58:38.820986 25729 net.cpp:84] Creating Layer drop6
I1201 02:58:38.820991 25729 net.cpp:406] drop6 <- fc6
I1201 02:58:38.820997 25729 net.cpp:367] drop6 -> fc6 (in-place)
I1201 02:58:38.821043 25729 net.cpp:122] Setting up drop6
I1201 02:58:38.821050 25729 net.cpp:129] Top shape: 30 4096 (122880)
I1201 02:58:38.821054 25729 net.cpp:137] Memory required for data: 3767685240
I1201 02:58:38.821059 25729 layer_factory.hpp:77] Creating layer fc7
I1201 02:58:38.821075 25729 net.cpp:84] Creating Layer fc7
I1201 02:58:38.821079 25729 net.cpp:406] fc7 <- fc6
I1201 02:58:38.821085 25729 net.cpp:380] fc7 -> fc7
I1201 02:58:38.873087 25729 net.cpp:122] Setting up fc7
I1201 02:58:38.873142 25729 net.cpp:129] Top shape: 30 4096 (122880)
I1201 02:58:38.873148 25729 net.cpp:137] Memory required for data: 3768176760
I1201 02:58:38.873162 25729 layer_factory.hpp:77] Creating layer relu7
I1201 02:58:38.873179 25729 net.cpp:84] Creating Layer relu7
I1201 02:58:38.873188 25729 net.cpp:406] relu7 <- fc7
I1201 02:58:38.873214 25729 net.cpp:367] relu7 -> fc7 (in-place)
I1201 02:58:38.873952 25729 net.cpp:122] Setting up relu7
I1201 02:58:38.873970 25729 net.cpp:129] Top shape: 30 4096 (122880)
I1201 02:58:38.873991 25729 net.cpp:137] Memory required for data: 3768668280
I1201 02:58:38.873996 25729 layer_factory.hpp:77] Creating layer drop7
I1201 02:58:38.874008 25729 net.cpp:84] Creating Layer drop7
I1201 02:58:38.874014 25729 net.cpp:406] drop7 <- fc7
I1201 02:58:38.874022 25729 net.cpp:367] drop7 -> fc7 (in-place)
I1201 02:58:38.874112 25729 net.cpp:122] Setting up drop7
I1201 02:58:38.874122 25729 net.cpp:129] Top shape: 30 4096 (122880)
I1201 02:58:38.874127 25729 net.cpp:137] Memory required for data: 3769159800
I1201 02:58:38.874133 25729 layer_factory.hpp:77] Creating layer classifier_re
I1201 02:58:38.874146 25729 net.cpp:84] Creating Layer classifier_re
I1201 02:58:38.874151 25729 net.cpp:406] classifier_re <- fc7
I1201 02:58:38.874159 25729 net.cpp:380] classifier_re -> classifier_re
I1201 02:58:38.880156 25729 net.cpp:122] Setting up classifier_re
I1201 02:58:38.880172 25729 net.cpp:129] Top shape: 30 80 (2400)
I1201 02:58:38.880177 25729 net.cpp:137] Memory required for data: 3769169400
I1201 02:58:38.880192 25729 layer_factory.hpp:77] Creating layer loss
I1201 02:58:38.880203 25729 net.cpp:84] Creating Layer loss
I1201 02:58:38.880208 25729 net.cpp:406] loss <- classifier_re
I1201 02:58:38.880215 25729 net.cpp:406] loss <- label
I1201 02:58:38.880226 25729 net.cpp:380] loss -> loss
I1201 02:58:38.880247 25729 layer_factory.hpp:77] Creating layer loss
…
I1201 02:58:38.882226 25729 net.cpp:51] Initializing net from parameters: 
name: "siat_scene_vgg_19_layers"
state {
  phase: TEST
}
layer {
  name: "data"
  type: "ImageData"
  top: "data"
  top: "label"
  include {
    phase: TEST
  }
  transform_param {
    mirror: false
    crop_size: 224
    mean_value: 114.005
    mean_value: 121.639
    mean_value: 125.972
  }
  image_data_param {
    source: "/home/public/wuxiaodong/caffe/examples/ai_challenge/val.txt"
    batch_size: 4
    shuffle: false
    new_height: 256
    new_width: 256
    root_folder: "/home/public/wuxiaodong/caffe/examples/ai_challenge/val_imgs/"
  }
}
layer {
  name: "conv1_1"
  type: "Convolution"
  bottom: "data"
  top: "conv1_1"
  convolution_param {
    num_output: 64
    pad: 1
    kernel_size: 3
  }
}
layer {
  name: "relu1_1"
  type: "ReLU"
  bottom: "conv1_1"
  top: "conv1_1"
}
layer {
  name: "conv1_2"
  type: "Convolution"
  bottom: "conv1_1"
  top: "conv1_2"
  convolution_param {
    num_output: 64
    pad: 1
    kernel_size: 3
  }
}
layer {
  name: "relu1_2"
  type: "ReLU"
  bottom: "conv1_2"
  top: "conv1_2"
}
layer {
  name: "pool1"
  type: "Pooling"
  bottom: "conv1_2"
  top: "pool1"
  pooling_param {
    pool: MAX
    kernel_size: 2
    stride: 2
  }
}
layer {
  name: "conv2_1"
  type: "Convolution"
  bottom: "pool1"
  top: "conv2_1"
  convolution_param {
    num_output: 128
    pad: 1
    kernel_size: 3
  }
}
layer {
  name: "relu2_1"
  type: "ReLU"
  bottom: "conv2_1"
  top: "conv2_1"
}
layer {
  name: "conv2_2"
  type: "Convolution"
  bottom: "conv2_1"
  top: "conv2_2"
  convolution_param {
    num_output: 128
    pad: 1
    kernel_size: 3
    weight_filler {
      type: "gaussian"
      std: 0.01
    }
    bias_filler {
      type: "constant"
      value: 0
    }
  }
}
layer {
  name: "relu2_2"
  type: "ReLU"
  bottom: "conv2_2"
  top: "conv2_2"
}
layer {
  name: "pool2"
  type: "Pooling"
  bottom: "conv2_2"
  top: "pool2"
  pooling_param {
    pool: MAX
    kernel_size: 2
    stride: 2
  }
}
layer {
  name: "conv3_1"
  type: "Convolution"
  bottom: "pool2"
  top: "conv3_1"
  convolution_param {
    num_output: 256
    pad: 1
    kernel_size: 3
  }
}
layer {
  name: "relu3_1"
  type: "ReLU"
  bottom: "conv3_1"
  top: "conv3_1"
}
layer {
  name: "conv3_2"
  type: "Convolution"
  bottom: "conv3_1"
  top: "conv3_2"
  convolution_param {
    num_output: 256
    pad: 1
    kernel_size: 3
  }
}
layer {
  name: "relu3_2"
  type: "ReLU"
  bottom: "conv3_2"
  top: "conv3_2"
}
layer {
  name: "conv3_3"
  type: "Convolution"
  bottom: "conv3_2"
  top: "conv3_3"
  convolution_param {
    num_output: 256
    pad: 1
    kernel_size: 3
  }
}
layer {
  name: "relu3_3"
  type: "ReLU"
  bottom: "conv3_3"
  top: "conv3_3"
}
layer {
  name: "conv3_4"
  type: "Convolution"
  bottom: "conv3_3"
  top: "conv3_4"
  convolution_param {
    num_output: 256
    pad: 1
    kernel_size: 3
  }
}
layer {
  name: "relu3_4"
  type: "ReLU"
  bottom: "conv3_4"
  top: "conv3_4"
}
layer {
  name: "pool3"
  type: "Pooling"
  bottom: "conv3_4"
  top: "pool3"
  pooling_param {
    pool: MAX
    kernel_size: 2
    stride: 2
  }
}
layer {
  name: "conv4_1"
  type: "Convolution"
  bottom: "pool3"
  top: "conv4_1"
  convolution_param {
    num_output: 512
    pad: 1
    kernel_size: 3
  }
}
layer {
  name: "relu4_1"
  type: "ReLU"
  bottom: "conv4_1"
  top: "conv4_1"
}
layer {
  name: "conv4_2"
  type: "Convolution"
  bottom: "conv4_1"
  top: "conv4_2"
  convolution_param {
    num_output: 512
    pad: 1
    kernel_size: 3
  }
}
layer {
  name: "relu4_2"
  type: "ReLU"
  bottom: "conv4_2"
  top: "conv4_2"
}
layer {
  name: "conv4_3"
  type: "Convolution"
  bottom: "conv4_2"
  top: "conv4_3"
  convolution_param {
    num_output: 512
    pad: 1
    kernel_size: 3
  }
}
layer {
  name: "relu4_3"
  type: "ReLU"
  bottom: "conv4_3"
  top: "conv4_3"
}
layer {
  name: "conv4_4"
  type: "Convolution"
  bottom: "conv4_3"
  top: "conv4_4"
  convolution_param {
    num_output: 512
    pad: 1
    kernel_size: 3
  }
}
layer {
  name: "relu4_4"
  type: "ReLU"
  bottom: "conv4_4"
  top: "conv4_4"
}
layer {
  name: "pool4"
  type: "Pooling"
  bottom: "conv4_4"
  top: "pool4"
  pooling_param {
    pool: MAX
    kernel_size: 2
    stride: 2
  }
}
layer {
  name: "conv5_1"
  type: "Convolution"
  bottom: "pool4"
  top: "conv5_1"
  convolution_param {
    num_output: 512
    pad: 1
    kernel_size: 3
  }
}
layer {
  name: "relu5_1"
  type: "ReLU"
  bottom: "conv5_1"
  top: "conv5_1"
}
layer {
  name: "conv5_2"
  type: "Convolution"
  bottom: "conv5_1"
  top: "conv5_2"
  convolution_param {
    num_output: 512
    pad: 1
    kernel_size: 3
  }
}
layer {
  name: "relu5_2"
  type: "ReLU"
  bottom: "conv5_2"
  top: "conv5_2"
}
layer {
  name: "conv5_3"
  type: "Convolution"
  bottom: "conv5_2"
  top: "conv5_3"
  convolution_param {
    num_output: 512
    pad: 1
    kernel_size: 3
  }
}
layer {
  name: "relu5_3"
  type: "ReLU"
  bottom: "conv5_3"
  top: "conv5_3"
}
layer {
  name: "conv5_4"
  type: "Convolution"
  bottom: "conv5_3"
  top: "conv5_4"
  convolution_param {
    num_output: 512
    pad: 1
    kernel_size: 3
  }
}
layer {
  name: "relu5_4"
  type: "ReLU"
  bottom: "conv5_4"
  top: "conv5_4"
}
layer {
  name: "pool5"
  type: "Pooling"
  bottom: "conv5_4"
  top: "pool5"
  pooling_param {
    pool: MAX
    kernel_size: 2
    stride: 2
  }
}
layer {
  name: "fc6"
  type: "InnerProduct"
  bottom: "pool5"
  top: "fc6"
  inner_product_param {
    num_output: 4096
  }
}
layer {
  name: "relu6"
  type: "ReLU"
  bottom: "fc6"
  top: "fc6"
}
layer {
  name: "drop6"
  type: "Dropout"
  bottom: "fc6"
  top: "fc6"
  dropout_param {
    dropout_ratio: 0.5
  }
}
layer {
  name: "fc7"
  type: "InnerProduct"
  bottom: "fc6"
  top: "fc7"
  inner_product_param {
    num_output: 4096
  }
}
layer {
  name: "relu7"
  type: "ReLU"
  bottom: "fc7"
  top: "fc7"
}
layer {
  name: "drop7"
  type: "Dropout"
  bottom: "fc7"
  top: "fc7"
  dropout_param {
    dropout_ratio: 0.5
  }
}
layer {
  name: "classifier_re"
  type: "InnerProduct"
  bottom: "fc7"
  top: "classifier_re"
  param {
    lr_mult: 10
    decay_mult: 1
  }
  param {
    lr_mult: 20
    decay_mult: 0
  }
  inner_product_param {
    num_output: 80
    weight_filler {
      type: "gaussian"
      std: 0.01
    }
    bias_filler {
      type: "constant"
      value: 0
    }
  }
}
layer {
  name: "accuracy_top_3"
  type: "Accuracy"
  bottom: "classifier_re"
  bottom: "label"
  top: "accuracy_top_3"
  include {
    phase: TEST
  }
  accuracy_param {
    top_k: 3
  }
}
layer {
  name: "accuracy"
  type: "Accuracy"
  bottom: "classifier_re"
  bottom: "label"
  top: "accuracy"
  include {
    phase: TEST
  }
}
layer {
  name: "loss"
  type: "SoftmaxWithLoss"
  bottom: "classifier_re"
  bottom: "label"
  top: "loss"
}
I1201 02:58:38.882441 25729 layer_factory.hpp:77] Creating layer data
I1201 02:58:38.882469 25729 net.cpp:84] Creating Layer data
I1201 02:58:38.882477 25729 net.cpp:380] data -> data
I1201 02:58:38.882493 25729 net.cpp:380] data -> label
I1201 02:58:38.882513 25729 image_data_layer.cpp:38] Opening file /home/public/wuxiaodong/caffe/examples/ai_challenge/val.txt
I1201 02:58:38.886667 25729 image_data_layer.cpp:63] A total of 7120 images.
I1201 02:58:38.893443 25729 image_data_layer.cpp:90] output data size: 4,3,224,224
I1201 02:58:38.900712 25729 net.cpp:122] Setting up data
I1201 02:58:38.900733 25729 net.cpp:129] Top shape: 4 3 224 224 (602112)
I1201 02:58:38.900739 25729 net.cpp:129] Top shape: 4 (4)
I1201 02:58:38.900744 25729 net.cpp:137] Memory required for data: 2408464
I1201 02:58:38.900749 25729 layer_factory.hpp:77] Creating layer label_data_1_split
I1201 02:58:38.900766 25729 net.cpp:84] Creating Layer label_data_1_split
I1201 02:58:38.900771 25729 net.cpp:406] label_data_1_split <- label
I1201 02:58:38.900779 25729 net.cpp:380] label_data_1_split -> label_data_1_split_0
I1201 02:58:38.900789 25729 net.cpp:380] label_data_1_split -> label_data_1_split_1
I1201 02:58:38.900797 25729 net.cpp:380] label_data_1_split -> label_data_1_split_2
I1201 02:58:38.901165 25729 net.cpp:122] Setting up label_data_1_split
I1201 02:58:38.901209 25729 net.cpp:129] Top shape: 4 (4)
I1201 02:58:38.901219 25729 net.cpp:129] Top shape: 4 (4)
I1201 02:58:38.901228 25729 net.cpp:129] Top shape: 4 (4)
I1201 02:58:38.901234 25729 net.cpp:137] Memory required for data: 2408512
I1201 02:58:38.901243 25729 layer_factory.hpp:77] Creating layer conv1_1
I1201 02:58:38.901268 25729 net.cpp:84] Creating Layer conv1_1
I1201 02:58:38.901278 25729 net.cpp:406] conv1_1 <- data
I1201 02:58:38.901290 25729 net.cpp:380] conv1_1 -> conv1_1
I1201 02:58:38.903959 25729 net.cpp:122] Setting up conv1_1
I1201 02:58:38.903985 25729 net.cpp:129] Top shape: 4 64 224 224 (12845056)
I1201 02:58:38.903993 25729 net.cpp:137] Memory required for data: 53788736
I1201 02:58:38.904013 25729 layer_factory.hpp:77] Creating layer relu1_1
I1201 02:58:38.904026 25729 net.cpp:84] Creating Layer relu1_1
I1201 02:58:38.904033 25729 net.cpp:406] relu1_1 <- conv1_1
I1201 02:58:38.904044 25729 net.cpp:367] relu1_1 -> conv1_1 (in-place)
I1201 02:58:38.904645 25729 net.cpp:122] Setting up relu1_1
I1201 02:58:38.904669 25729 net.cpp:129] Top shape: 4 64 224 224 (12845056)
I1201 02:58:38.904675 25729 net.cpp:137] Memory required for data: 105168960
I1201 02:58:38.904685 25729 layer_factory.hpp:77] Creating layer conv1_2
I1201 02:58:38.904700 25729 net.cpp:84] Creating Layer conv1_2
I1201 02:58:38.904708 25729 net.cpp:406] conv1_2 <- conv1_1
I1201 02:58:38.904719 25729 net.cpp:380] conv1_2 -> conv1_2
I1201 02:58:38.908004 25729 net.cpp:122] Setting up conv1_2
I1201 02:58:38.908030 25729 net.cpp:129] Top shape: 4 64 224 224 (12845056)
I1201 02:58:38.908037 25729 net.cpp:137] Memory required for data: 156549184
I1201 02:58:38.908056 25729 layer_factory.hpp:77] Creating layer relu1_2
I1201 02:58:38.908072 25729 net.cpp:84] Creating Layer relu1_2
I1201 02:58:38.908082 25729 net.cpp:406] relu1_2 <- conv1_2
I1201 02:58:38.908099 25729 net.cpp:367] relu1_2 -> conv1_2 (in-place)
I1201 02:58:38.908843 25729 net.cpp:122] Setting up relu1_2
I1201 02:58:38.908869 25729 net.cpp:129] Top shape: 4 64 224 224 (12845056)
I1201 02:58:38.908875 25729 net.cpp:137] Memory required for data: 207929408
I1201 02:58:38.908895 25729 layer_factory.hpp:77] Creating layer pool1
I1201 02:58:38.908921 25729 net.cpp:84] Creating Layer pool1
I1201 02:58:38.908928 25729 net.cpp:406] pool1 <- conv1_2
I1201 02:58:38.908939 25729 net.cpp:380] pool1 -> pool1
I1201 02:58:38.909025 25729 net.cpp:122] Setting up pool1
I1201 02:58:38.909036 25729 net.cpp:129] Top shape: 4 64 112 112 (3211264)
I1201 02:58:38.909044 25729 net.cpp:137] Memory required for data: 220774464
I1201 02:58:38.909049 25729 layer_factory.hpp:77] Creating layer conv2_1
I1201 02:58:38.909061 25729 net.cpp:84] Creating Layer conv2_1
I1201 02:58:38.909068 25729 net.cpp:406] conv2_1 <- pool1
I1201 02:58:38.909078 25729 net.cpp:380] conv2_1 -> conv2_1
I1201 02:58:38.912495 25729 net.cpp:122] Setting up conv2_1
I1201 02:58:38.912523 25729 net.cpp:129] Top shape: 4 128 112 112 (6422528)
I1201 02:58:38.912564 25729 net.cpp:137] Memory required for data: 246464576
I1201 02:58:38.912585 25729 layer_factory.hpp:77] Creating layer relu2_1
I1201 02:58:38.912643 25729 net.cpp:84] Creating Layer relu2_1
I1201 02:58:38.912653 25729 net.cpp:406] relu2_1 <- conv2_1
I1201 02:58:38.912664 25729 net.cpp:367] relu2_1 -> conv2_1 (in-place)
I1201 02:58:38.913034 25729 net.cpp:122] Setting up relu2_1
I1201 02:58:38.913049 25729 net.cpp:129] Top shape: 4 128 112 112 (6422528)
I1201 02:58:38.913055 25729 net.cpp:137] Memory required for data: 272154688
I1201 02:58:38.913063 25729 layer_factory.hpp:77] Creating layer conv2_2
I1201 02:58:38.913079 25729 net.cpp:84] Creating Layer conv2_2
I1201 02:58:38.913085 25729 net.cpp:406] conv2_2 <- conv2_1
I1201 02:58:38.913096 25729 net.cpp:380] conv2_2 -> conv2_2
I1201 02:58:38.917757 25729 net.cpp:122] Setting up conv2_2
I1201 02:58:38.917783 25729 net.cpp:129] Top shape: 4 128 112 112 (6422528)
I1201 02:58:38.917789 25729 net.cpp:137] Memory required for data: 297844800
I1201 02:58:38.917800 25729 layer_factory.hpp:77] Creating layer relu2_2
I1201 02:58:38.917811 25729 net.cpp:84] Creating Layer relu2_2
I1201 02:58:38.917819 25729 net.cpp:406] relu2_2 <- conv2_2
I1201 02:58:38.917829 25729 net.cpp:367] relu2_2 -> conv2_2 (in-place)
I1201 02:58:38.918380 25729 net.cpp:122] Setting up relu2_2
I1201 02:58:38.918401 25729 net.cpp:129] Top shape: 4 128 112 112 (6422528)
I1201 02:58:38.918408 25729 net.cpp:137] Memory required for data: 323534912
I1201 02:58:38.918416 25729 layer_factory.hpp:77] Creating layer pool2
I1201 02:58:38.918427 25729 net.cpp:84] Creating Layer pool2
I1201 02:58:38.918434 25729 net.cpp:406] pool2 <- conv2_2
I1201 02:58:38.918445 25729 net.cpp:380] pool2 -> pool2
I1201 02:58:38.918529 25729 net.cpp:122] Setting up pool2
I1201 02:58:38.918540 25729 net.cpp:129] Top shape: 4 128 56 56 (1605632)
I1201 02:58:38.918546 25729 net.cpp:137] Memory required for data: 329957440
I1201 02:58:38.918553 25729 layer_factory.hpp:77] Creating layer conv3_1
I1201 02:58:38.918565 25729 net.cpp:84] Creating Layer conv3_1
I1201 02:58:38.918572 25729 net.cpp:406] conv3_1 <- pool2
I1201 02:58:38.918582 25729 net.cpp:380] conv3_1 -> conv3_1
I1201 02:58:38.921866 25729 net.cpp:122] Setting up conv3_1
I1201 02:58:38.921890 25729 net.cpp:129] Top shape: 4 256 56 56 (3211264)
I1201 02:58:38.921897 25729 net.cpp:137] Memory required for data: 342802496
I1201 02:58:38.921913 25729 layer_factory.hpp:77] Creating layer relu3_1
I1201 02:58:38.921926 25729 net.cpp:84] Creating Layer relu3_1
I1201 02:58:38.921933 25729 net.cpp:406] relu3_1 <- conv3_1
I1201 02:58:38.921943 25729 net.cpp:367] relu3_1 -> conv3_1 (in-place)
I1201 02:58:38.922284 25729 net.cpp:122] Setting up relu3_1
I1201 02:58:38.922300 25729 net.cpp:129] Top shape: 4 256 56 56 (3211264)
I1201 02:58:38.922307 25729 net.cpp:137] Memory required for data: 355647552
I1201 02:58:38.922313 25729 layer_factory.hpp:77] Creating layer conv3_2
I1201 02:58:38.922324 25729 net.cpp:84] Creating Layer conv3_2
I1201 02:58:38.922333 25729 net.cpp:406] conv3_2 <- conv3_1
I1201 02:58:38.922343 25729 net.cpp:380] conv3_2 -> conv3_2
I1201 02:58:38.926782 25729 net.cpp:122] Setting up conv3_2
I1201 02:58:38.926810 25729 net.cpp:129] Top shape: 4 256 56 56 (3211264)
I1201 02:58:38.926818 25729 net.cpp:137] Memory required for data: 368492608
I1201 02:58:38.926831 25729 layer_factory.hpp:77] Creating layer relu3_2
I1201 02:58:38.926846 25729 net.cpp:84] Creating Layer relu3_2
I1201 02:58:38.926853 25729 net.cpp:406] relu3_2 <- conv3_2
I1201 02:58:38.926863 25729 net.cpp:367] relu3_2 -> conv3_2 (in-place)
I1201 02:58:38.927390 25729 net.cpp:122] Setting up relu3_2
I1201 02:58:38.927409 25729 net.cpp:129] Top shape: 4 256 56 56 (3211264)
I1201 02:58:38.927415 25729 net.cpp:137] Memory required for data: 381337664
I1201 02:58:38.927423 25729 layer_factory.hpp:77] Creating layer conv3_3
I1201 02:58:38.927439 25729 net.cpp:84] Creating Layer conv3_3
I1201 02:58:38.927445 25729 net.cpp:406] conv3_3 <- conv3_2
I1201 02:58:38.927465 25729 net.cpp:380] conv3_3 -> conv3_3
I1201 02:58:38.933042 25729 net.cpp:122] Setting up conv3_3
I1201 02:58:38.933078 25729 net.cpp:129] Top shape: 4 256 56 56 (3211264)
I1201 02:58:38.933089 25729 net.cpp:137] Memory required for data: 394182720
I1201 02:58:38.933105 25729 layer_factory.hpp:77] Creating layer relu3_3
I1201 02:58:38.933122 25729 net.cpp:84] Creating Layer relu3_3
I1201 02:58:38.933132 25729 net.cpp:406] relu3_3 <- conv3_3
I1201 02:58:38.933146 25729 net.cpp:367] relu3_3 -> conv3_3 (in-place)
I1201 02:58:38.933965 25729 net.cpp:122] Setting up relu3_3
I1201 02:58:38.933996 25729 net.cpp:129] Top shape: 4 256 56 56 (3211264)
I1201 02:58:38.934005 25729 net.cpp:137] Memory required for data: 407027776
I1201 02:58:38.934015 25729 layer_factory.hpp:77] Creating layer conv3_4
I1201 02:58:38.934033 25729 net.cpp:84] Creating Layer conv3_4
I1201 02:58:38.934044 25729 net.cpp:406] conv3_4 <- conv3_3
I1201 02:58:38.934061 25729 net.cpp:380] conv3_4 -> conv3_4
I1201 02:58:38.939734 25729 net.cpp:122] Setting up conv3_4
I1201 02:58:38.939769 25729 net.cpp:129] Top shape: 4 256 56 56 (3211264)
I1201 02:58:38.939781 25729 net.cpp:137] Memory required for data: 419872832
I1201 02:58:38.939798 25729 layer_factory.hpp:77] Creating layer relu3_4
I1201 02:58:38.939813 25729 net.cpp:84] Creating Layer relu3_4
I1201 02:58:38.939823 25729 net.cpp:406] relu3_4 <- conv3_4
I1201 02:58:38.939839 25729 net.cpp:367] relu3_4 -> conv3_4 (in-place)
I1201 02:58:38.940305 25729 net.cpp:122] Setting up relu3_4
I1201 02:58:38.940326 25729 net.cpp:129] Top shape: 4 256 56 56 (3211264)
I1201 02:58:38.940335 25729 net.cpp:137] Memory required for data: 432717888
I1201 02:58:38.940346 25729 layer_factory.hpp:77] Creating layer pool3
I1201 02:58:38.940362 25729 net.cpp:84] Creating Layer pool3
I1201 02:58:38.940371 25729 net.cpp:406] pool3 <- conv3_4
I1201 02:58:38.940385 25729 net.cpp:380] pool3 -> pool3
I1201 02:58:38.940505 25729 net.cpp:122] Setting up pool3
I1201 02:58:38.940521 25729 net.cpp:129] Top shape: 4 256 28 28 (802816)
I1201 02:58:38.940529 25729 net.cpp:137] Memory required for data: 435929152
I1201 02:58:38.940538 25729 layer_factory.hpp:77] Creating layer conv4_1
I1201 02:58:38.940556 25729 net.cpp:84] Creating Layer conv4_1
I1201 02:58:38.940565 25729 net.cpp:406] conv4_1 <- pool3
I1201 02:58:38.940578 25729 net.cpp:380] conv4_1 -> conv4_1
I1201 02:58:38.948575 25729 net.cpp:122] Setting up conv4_1
I1201 02:58:38.948648 25729 net.cpp:129] Top shape: 4 512 28 28 (1605632)
I1201 02:58:38.948659 25729 net.cpp:137] Memory required for data: 442351680
I1201 02:58:38.948684 25729 layer_factory.hpp:77] Creating layer relu4_1
I1201 02:58:38.948701 25729 net.cpp:84] Creating Layer relu4_1
I1201 02:58:38.948719 25729 net.cpp:406] relu4_1 <- conv4_1
I1201 02:58:38.948732 25729 net.cpp:367] relu4_1 -> conv4_1 (in-place)
I1201 02:58:38.949486 25729 net.cpp:122] Setting up relu4_1
I1201 02:58:38.949513 25729 net.cpp:129] Top shape: 4 512 28 28 (1605632)
I1201 02:58:38.949524 25729 net.cpp:137] Memory required for data: 448774208
I1201 02:58:38.949533 25729 layer_factory.hpp:77] Creating layer conv4_2
I1201 02:58:38.949550 25729 net.cpp:84] Creating Layer conv4_2
I1201 02:58:38.949560 25729 net.cpp:406] conv4_2 <- conv4_1
I1201 02:58:38.949576 25729 net.cpp:380] conv4_2 -> conv4_2
I1201 02:58:38.960351 25729 net.cpp:122] Setting up conv4_2
I1201 02:58:38.960387 25729 net.cpp:129] Top shape: 4 512 28 28 (1605632)
I1201 02:58:38.960397 25729 net.cpp:137] Memory required for data: 455196736
I1201 02:58:38.960413 25729 layer_factory.hpp:77] Creating layer relu4_2
I1201 02:58:38.960429 25729 net.cpp:84] Creating Layer relu4_2
I1201 02:58:38.960439 25729 net.cpp:406] relu4_2 <- conv4_2
I1201 02:58:38.960451 25729 net.cpp:367] relu4_2 -> conv4_2 (in-place)
I1201 02:58:38.960969 25729 net.cpp:122] Setting up relu4_2
I1201 02:58:38.960992 25729 net.cpp:129] Top shape: 4 512 28 28 (1605632)
I1201 02:58:38.961001 25729 net.cpp:137] Memory required for data: 461619264
I1201 02:58:38.961009 25729 layer_factory.hpp:77] Creating layer conv4_3
I1201 02:58:38.961040 25729 net.cpp:84] Creating Layer conv4_3
I1201 02:58:38.961076 25729 net.cpp:406] conv4_3 <- conv4_2
I1201 02:58:38.961092 25729 net.cpp:380] conv4_3 -> conv4_3
I1201 02:58:38.971712 25729 net.cpp:122] Setting up conv4_3
I1201 02:58:38.971750 25729 net.cpp:129] Top shape: 4 512 28 28 (1605632)
I1201 02:58:38.971758 25729 net.cpp:137] Memory required for data: 468041792
I1201 02:58:38.971773 25729 layer_factory.hpp:77] Creating layer relu4_3
I1201 02:58:38.971786 25729 net.cpp:84] Creating Layer relu4_3
I1201 02:58:38.971797 25729 net.cpp:406] relu4_3 <- conv4_3
I1201 02:58:38.971812 25729 net.cpp:367] relu4_3 -> conv4_3 (in-place)
I1201 02:58:38.972510 25729 net.cpp:122] Setting up relu4_3
I1201 02:58:38.972545 25729 net.cpp:129] Top shape: 4 512 28 28 (1605632)
I1201 02:58:38.972554 25729 net.cpp:137] Memory required for data: 474464320
I1201 02:58:38.972563 25729 layer_factory.hpp:77] Creating layer conv4_4
I1201 02:58:38.972579 25729 net.cpp:84] Creating Layer conv4_4
I1201 02:58:38.972589 25729 net.cpp:406] conv4_4 <- conv4_3
I1201 02:58:38.972630 25729 net.cpp:380] conv4_4 -> conv4_4
I1201 02:58:38.982575 25729 net.cpp:122] Setting up conv4_4
I1201 02:58:38.982607 25729 net.cpp:129] Top shape: 4 512 28 28 (1605632)
I1201 02:58:38.982616 25729 net.cpp:137] Memory required for data: 480886848
I1201 02:58:38.982630 25729 layer_factory.hpp:77] Creating layer relu4_4
I1201 02:58:38.982643 25729 net.cpp:84] Creating Layer relu4_4
I1201 02:58:38.982652 25729 net.cpp:406] relu4_4 <- conv4_4
I1201 02:58:38.982666 25729 net.cpp:367] relu4_4 -> conv4_4 (in-place)
I1201 02:58:38.983352 25729 net.cpp:122] Setting up relu4_4
I1201 02:58:38.983376 25729 net.cpp:129] Top shape: 4 512 28 28 (1605632)
I1201 02:58:38.983383 25729 net.cpp:137] Memory required for data: 487309376
I1201 02:58:38.983391 25729 layer_factory.hpp:77] Creating layer pool4
I1201 02:58:38.983405 25729 net.cpp:84] Creating Layer pool4
I1201 02:58:38.983412 25729 net.cpp:406] pool4 <- conv4_4
I1201 02:58:38.983427 25729 net.cpp:380] pool4 -> pool4
I1201 02:58:38.983531 25729 net.cpp:122] Setting up pool4
I1201 02:58:38.983544 25729 net.cpp:129] Top shape: 4 512 14 14 (401408)
I1201 02:58:38.983551 25729 net.cpp:137] Memory required for data: 488915008
I1201 02:58:38.983558 25729 layer_factory.hpp:77] Creating layer conv5_1
I1201 02:58:38.983575 25729 net.cpp:84] Creating Layer conv5_1
I1201 02:58:38.983584 25729 net.cpp:406] conv5_1 <- pool4
I1201 02:58:38.983595 25729 net.cpp:380] conv5_1 -> conv5_1
I1201 02:58:38.993443 25729 net.cpp:122] Setting up conv5_1
I1201 02:58:38.993482 25729 net.cpp:129] Top shape: 4 512 14 14 (401408)
I1201 02:58:38.993492 25729 net.cpp:137] Memory required for data: 490520640
I1201 02:58:38.993506 25729 layer_factory.hpp:77] Creating layer relu5_1
I1201 02:58:38.993520 25729 net.cpp:84] Creating Layer relu5_1
I1201 02:58:38.993528 25729 net.cpp:406] relu5_1 <- conv5_1
I1201 02:58:38.993541 25729 net.cpp:367] relu5_1 -> conv5_1 (in-place)
I1201 02:58:38.993881 25729 net.cpp:122] Setting up relu5_1
I1201 02:58:38.993896 25729 net.cpp:129] Top shape: 4 512 14 14 (401408)
I1201 02:58:38.993903 25729 net.cpp:137] Memory required for data: 492126272
I1201 02:58:38.993911 25729 layer_factory.hpp:77] Creating layer conv5_2
I1201 02:58:38.993935 25729 net.cpp:84] Creating Layer conv5_2
I1201 02:58:38.993942 25729 net.cpp:406] conv5_2 <- conv5_1
I1201 02:58:38.993954 25729 net.cpp:380] conv5_2 -> conv5_2
I1201 02:58:39.004205 25729 net.cpp:122] Setting up conv5_2
I1201 02:58:39.004242 25729 net.cpp:129] Top shape: 4 512 14 14 (401408)
I1201 02:58:39.004256 25729 net.cpp:137] Memory required for data: 493731904
I1201 02:58:39.004269 25729 layer_factory.hpp:77] Creating layer relu5_2
I1201 02:58:39.004287 25729 net.cpp:84] Creating Layer relu5_2
I1201 02:58:39.004295 25729 net.cpp:406] relu5_2 <- conv5_2
I1201 02:58:39.004307 25729 net.cpp:367] relu5_2 -> conv5_2 (in-place)
I1201 02:58:39.004947 25729 net.cpp:122] Setting up relu5_2
I1201 02:58:39.004969 25729 net.cpp:129] Top shape: 4 512 14 14 (401408)
I1201 02:58:39.004987 25729 net.cpp:137] Memory required for data: 495337536
I1201 02:58:39.005022 25729 layer_factory.hpp:77] Creating layer conv5_3
I1201 02:58:39.005051 25729 net.cpp:84] Creating Layer conv5_3
I1201 02:58:39.005060 25729 net.cpp:406] conv5_3 <- conv5_2
I1201 02:58:39.005074 25729 net.cpp:380] conv5_3 -> conv5_3
I1201 02:58:39.014190 25729 net.cpp:122] Setting up conv5_3
I1201 02:58:39.014225 25729 net.cpp:129] Top shape: 4 512 14 14 (401408)
I1201 02:58:39.014232 25729 net.cpp:137] Memory required for data: 496943168
I1201 02:58:39.014245 25729 layer_factory.hpp:77] Creating layer relu5_3
I1201 02:58:39.014257 25729 net.cpp:84] Creating Layer relu5_3
I1201 02:58:39.014266 25729 net.cpp:406] relu5_3 <- conv5_3
I1201 02:58:39.014279 25729 net.cpp:367] relu5_3 -> conv5_3 (in-place)
I1201 02:58:39.014595 25729 net.cpp:122] Setting up relu5_3
I1201 02:58:39.014609 25729 net.cpp:129] Top shape: 4 512 14 14 (401408)
I1201 02:58:39.014616 25729 net.cpp:137] Memory required for data: 498548800
I1201 02:58:39.014622 25729 layer_factory.hpp:77] Creating layer conv5_4
I1201 02:58:39.014637 25729 net.cpp:84] Creating Layer conv5_4
I1201 02:58:39.014644 25729 net.cpp:406] conv5_4 <- conv5_3
I1201 02:58:39.014655 25729 net.cpp:380] conv5_4 -> conv5_4
I1201 02:58:39.024423 25729 net.cpp:122] Setting up conv5_4
I1201 02:58:39.024462 25729 net.cpp:129] Top shape: 4 512 14 14 (401408)
I1201 02:58:39.024469 25729 net.cpp:137] Memory required for data: 500154432
I1201 02:58:39.024483 25729 layer_factory.hpp:77] Creating layer relu5_4
I1201 02:58:39.024499 25729 net.cpp:84] Creating Layer relu5_4
I1201 02:58:39.024507 25729 net.cpp:406] relu5_4 <- conv5_4
I1201 02:58:39.024520 25729 net.cpp:367] relu5_4 -> conv5_4 (in-place)
I1201 02:58:39.025138 25729 net.cpp:122] Setting up relu5_4
I1201 02:58:39.025158 25729 net.cpp:129] Top shape: 4 512 14 14 (401408)
I1201 02:58:39.025166 25729 net.cpp:137] Memory required for data: 501760064
I1201 02:58:39.025171 25729 layer_factory.hpp:77] Creating layer pool5
I1201 02:58:39.025182 25729 net.cpp:84] Creating Layer pool5
I1201 02:58:39.025189 25729 net.cpp:406] pool5 <- conv5_4
I1201 02:58:39.025202 25729 net.cpp:380] pool5 -> pool5
I1201 02:58:39.025296 25729 net.cpp:122] Setting up pool5
I1201 02:58:39.025307 25729 net.cpp:129] Top shape: 4 512 7 7 (100352)
I1201 02:58:39.025315 25729 net.cpp:137] Memory required for data: 502161472
I1201 02:58:39.025319 25729 layer_factory.hpp:77] Creating layer fc6
I1201 02:58:39.025332 25729 net.cpp:84] Creating Layer fc6
I1201 02:58:39.025338 25729 net.cpp:406] fc6 <- pool5
I1201 02:58:39.025347 25729 net.cpp:380] fc6 -> fc6
I1201 02:58:40.266193 25729 net.cpp:122] Setting up fc6
I1201 02:58:40.266275 25729 net.cpp:129] Top shape: 4 4096 (16384)
I1201 02:58:40.266281 25729 net.cpp:137] Memory required for data: 502227008
I1201 02:58:40.266311 25729 layer_factory.hpp:77] Creating layer relu6
I1201 02:58:40.266326 25729 net.cpp:84] Creating Layer relu6
I1201 02:58:40.266332 25729 net.cpp:406] relu6 <- fc6
I1201 02:58:40.266341 25729 net.cpp:367] relu6 -> fc6 (in-place)
I1201 02:58:40.267048 25729 net.cpp:122] Setting up relu6
I1201 02:58:40.267063 25729 net.cpp:129] Top shape: 4 4096 (16384)
I1201 02:58:40.267068 25729 net.cpp:137] Memory required for data: 502292544
I1201 02:58:40.267073 25729 layer_factory.hpp:77] Creating layer drop6
I1201 02:58:40.267086 25729 net.cpp:84] Creating Layer drop6
I1201 02:58:40.267091 25729 net.cpp:406] drop6 <- fc6
I1201 02:58:40.267098 25729 net.cpp:367] drop6 -> fc6 (in-place)
I1201 02:58:40.267163 25729 net.cpp:122] Setting up drop6
I1201 02:58:40.267172 25729 net.cpp:129] Top shape: 4 4096 (16384)
I1201 02:58:40.267175 25729 net.cpp:137] Memory required for data: 502358080
I1201 02:58:40.267180 25729 layer_factory.hpp:77] Creating layer fc7
I1201 02:58:40.267189 25729 net.cpp:84] Creating Layer fc7
I1201 02:58:40.267194 25729 net.cpp:406] fc7 <- fc6
I1201 02:58:40.267201 25729 net.cpp:380] fc7 -> fc7
I1201 02:58:40.321537 25729 net.cpp:122] Setting up fc7
I1201 02:58:40.321597 25729 net.cpp:129] Top shape: 4 4096 (16384)
I1201 02:58:40.321617 25729 net.cpp:137] Memory required for data: 502423616
I1201 02:58:40.321660 25729 layer_factory.hpp:77] Creating layer relu7
I1201 02:58:40.321676 25729 net.cpp:84] Creating Layer relu7
I1201 02:58:40.321682 25729 net.cpp:406] relu7 <- fc7
I1201 02:58:40.321694 25729 net.cpp:367] relu7 -> fc7 (in-place)
I1201 02:58:40.322016 25729 net.cpp:122] Setting up relu7
I1201 02:58:40.322026 25729 net.cpp:129] Top shape: 4 4096 (16384)
I1201 02:58:40.322031 25729 net.cpp:137] Memory required for data: 502489152
I1201 02:58:40.322036 25729 layer_factory.hpp:77] Creating layer drop7
I1201 02:58:40.322044 25729 net.cpp:84] Creating Layer drop7
I1201 02:58:40.322052 25729 net.cpp:406] drop7 <- fc7
I1201 02:58:40.322057 25729 net.cpp:367] drop7 -> fc7 (in-place)
I1201 02:58:40.322105 25729 net.cpp:122] Setting up drop7
I1201 02:58:40.322113 25729 net.cpp:129] Top shape: 4 4096 (16384)
I1201 02:58:40.322118 25729 net.cpp:137] Memory required for data: 502554688
I1201 02:58:40.322121 25729 layer_factory.hpp:77] Creating layer classifier_re
I1201 02:58:40.322134 25729 net.cpp:84] Creating Layer classifier_re
I1201 02:58:40.322139 25729 net.cpp:406] classifier_re <- fc7
I1201 02:58:40.322149 25729 net.cpp:380] classifier_re -> classifier_re
I1201 02:58:40.327299 25729 net.cpp:122] Setting up classifier_re
I1201 02:58:40.327316 25729 net.cpp:129] Top shape: 4 80 (320)
I1201 02:58:40.327320 25729 net.cpp:137] Memory required for data: 502555968
I1201 02:58:40.327328 25729 layer_factory.hpp:77] Creating layer classifier_re_classifier_re_0_split
I1201 02:58:40.327339 25729 net.cpp:84] Creating Layer classifier_re_classifier_re_0_split
I1201 02:58:40.327345 25729 net.cpp:406] classifier_re_classifier_re_0_split <- classifier_re
I1201 02:58:40.327363 25729 net.cpp:380] classifier_re_classifier_re_0_split -> classifier_re_classifier_re_0_split_0
I1201 02:58:40.327376 25729 net.cpp:380] classifier_re_classifier_re_0_split -> classifier_re_classifier_re_0_split_1
I1201 02:58:40.327384 25729 net.cpp:380] classifier_re_classifier_re_0_split -> classifier_re_classifier_re_0_split_2
I1201 02:58:40.327466 25729 net.cpp:122] Setting up classifier_re_classifier_re_0_split
I1201 02:58:40.327474 25729 net.cpp:129] Top shape: 4 80 (320)
I1201 02:58:40.327479 25729 net.cpp:129] Top shape: 4 80 (320)
I1201 02:58:40.327483 25729 net.cpp:129] Top shape: 4 80 (320)
I1201 02:58:40.327488 25729 net.cpp:137] Memory required for data: 502559808
I1201 02:58:40.327492 25729 layer_factory.hpp:77] Creating layer accuracy_top_3
I1201 02:58:40.327503 25729 net.cpp:84] Creating Layer accuracy_top_3
I1201 02:58:40.327508 25729 net.cpp:406] accuracy_top_3 <- classifier_re_classifier_re_0_split_0
I1201 02:58:40.327517 25729 net.cpp:406] accuracy_top_3 <- label_data_1_split_0
…
