…
    mean_value: 125.972
    max_rotation_angle: 10
    contrast_brightness_adjustment: true
    smooth_filtering: true
    min_contrast: 0.8
    max_contrast: 1.2
    max_smooth: 6
    apply_probability: 0.5
    debug_params: false
    max_color_shift: 20
  }
  image_data_param {
    source: "/home/wuxiaodong/data/ai_challenge/ai_challenger_scene_train_20170904_/train.txt"
    batch_size: 15
    shuffle: true
    new_height: 256
    new_width: 256
    root_folder: "/home/wuxiaodong/data/ai_challenge/ai_challenger_scene_train_20170904_/scene_train_images_20170904/"
  }
}
layer {
  name: "conv1"
  type: "Convolution"
  bottom: "data"
  top: "conv1"
  param {
    lr_mult: 1
    decay_mult: 1
  }
  convolution_param {
    num_output: 64
    bias_term: false
    pad: 3
    kernel_size: 7
    stride: 2
    weight_filler {
      type: "msra"
    }
  }
}
layer {
  name: "conv1/bn"
  type: "BatchNorm"
  bottom: "conv1"
  top: "conv1"
  param {
    lr_mult: 0
    decay_mult: 0
  }
  param {
    lr_mult: 0
    decay_mult: 0
  }
  param {
    lr_mult: 0
    decay_mult: 0
  }
  batch_norm_param {
    eps: 0.0001
  }
}
layer {
  name: "conv1/scale"
  type: "Scale"
  bottom: "conv1"
  top: "conv1"
  scale_param {
    bias_term: true
  }
}
layer {
  name: "relu1"
  type: "ReLU"
  bottom: "conv1"
  top: "conv1"
}
layer {
  name: "pool1"
  type: "Pooling"
  bottom: "conv1"
  top: "pool1"
  pooling_param {
    pool: MAX
    kernel_size: 3
    stride: 2
  }
}
layer {
  name: "conv2_1/prj"
  type: "Convolution"
  bottom: "pool1"
  top: "conv2_1/prj"
  param {
    lr_mult: 1
    decay_mult: 1
  }
  convolution_param {
    num_output: 256
    bias_term: false
    kernel_size: 1
    weight_filler {
      type: "msra"
    }
  }
}
layer {
  name: "conv2_1/prj/bn"
  type: "BatchNorm"
  bottom: "conv2_1/prj"
  top: "conv2_1/prj"
  param {
    lr_mult: 0
    decay_mult: 0
  }
  param {
    lr_mult: 0
    decay_mult: 0
  }
  param {
    lr_mult: 0
    decay_mult: 0
  }
  batch_norm_param {
    eps: 0.0001
  }
}
layer {
  name: "conv2_1/prj/scale"
  type: "Scale"
  bottom: "conv2_1/prj"
  top: "conv2_1/prj"
  scale_param {
    bias_term: true
  }
}
layer {
  name: "conv2_1/x1"
  type: "Convolution"
  bottom: "pool1"
  top: "conv2_1/x1"
  param {
    lr_mult: 1
    decay_mult: 1
  }
  convolution_param {
    num_output: 64
    bias_term: false
    kernel_size: 1
    weight_filler {
      type: "msra"
    }
  }
}
layer {
  name: "conv2_1/x1/bn"
  type: "BatchNorm"
  bottom: "conv2_1/x1"
  top: "conv2_1/x1"
  param {
    lr_mult: 0
    decay_mult: 0
  }
  param {
    lr_mult: 0
    decay_mult: 0
  }
  param {
    lr_mult: 0
    decay_mult: 0
  }
  batch_norm_param {
    eps: 0.0001
  }
}
layer {
  name: "conv2_1/x1/scale"
  type: "Scale"
  bottom: "conv2_1/x1"
  top: "conv2_1/x1"
  scale_param {
    bias_term: true
  }
}
layer {
  name: "relu2_1/x1"
  type: "ReLU"
  bottom: "conv2_1/x1"
  top: "conv2_1/x1"
}
layer {
  name: "conv2_1/x2"
  type: "Convolution"
  bottom: "conv2_1/x1"
  top: "conv2_1/x2"
  param {
    lr_mult: 1
    decay_mult: 1
  }
  convolution_param {
    num_output: 64
    bias_term: false
    pad: 1
    kernel_size: 3
    weight_filler {
      type: "msra"
    }
  }
}
layer {
  name: "conv2_1/x2/bn"
  type: "BatchNorm"
  bottom: "conv2_1/x2"
  top: "conv2_1/x2"
  param {
    lr_mult: 0
    decay_mult: 0
  }
  param {
    lr_mult: 0
    decay_mult: 0
  }
  param {
    lr_mult: 0
    decay_mult: 0
  }
  batch_norm_param {
    eps: 0.0001
  }
}
layer {
  name: "conv2_1/x2/scale"
  type: "Scale"
  bottom: "conv2_1/x2"
  top: "conv2_1/x2"
  scale_param {
    bias_term: true
  }
}
layer {
  name: "relu2_1/x2"
  type: "ReLU"
  bottom: "conv2_1/x2"
  top: "conv2_1/x2"
}
layer {
  name: "conv2_1/x3"
  type: "Convolution"
  bottom: "conv2_1/x2"
  top: "conv2_1/x3"
  param {
    lr_mult: 1
    decay_mult: 1
  }
  convolution_param {
    num_output: 256
    bias_term: false
    kernel_size: 1
    weight_filler {
      type: "msra"
    }
  }
}
layer {
  name: "conv2_1/x3/bn"
  type: "BatchNorm"
  bottom: "conv2_1/x3"
  top: "conv2_1/x3"
  param {
    lr_mult: 0
    decay_mult: 0
  }
  param {
    lr_mult: 0
    decay_mult: 0
  }
  param {
    lr_mult: 0
    decay_mult: 0
  }
  batch_norm_param {
    eps: 0.0001
  }
}
layer {
  name: "conv2_1/x3/scale"
  type: "Scale"
  bottom: "conv2_1/x3"
  top: "conv2_1/x3"
  scale_param {
    bias_term: true
  }
}
layer {
  name: "pool2_1/gap"
  type: "Pooling"
  bottom: "conv2_1/x3"
  top: "pool2_1/gap"
  pooling_param {
    pool: AVE
    global_pooling: true
  }
}
layer {
  name: "fc2_1/sqz"
  type: "InnerProduct"
  bottom: "pool2_1/gap"
  top: "fc2_1/sqz"
  param {
    lr_mult: 1
    decay_mult: 1
  }
  param {
    lr_mult: 2
    decay_mult: 0
  }
  inner_product_param {
    num_output: 16
    weight_filler {
      type: "msra"
    }
    bias_filler {
      type: "constant"
      value: 0
    }
  }
}
layer {
  name: "relu2_1/sqz"
  type: "ReLU"
  bottom: "fc2_1/sqz"
  top: "fc2_1/sqz"
}
layer {
  name: "fc2_1/exc"
  type: "InnerProduct"
  bottom: "fc2_1/sqz"
  top: "fc2_1/exc"
  param {
    lr_mult: 1
    decay_mult: 1
  }
  param {
    lr_mult: 2
    decay_mult: 0
  }
  inner_product_param {
    num_output: 256
    weight_filler {
      type: "msra"
    }
    bias_filler {
      type: "constant"
      value: 0
    }
  }
}
layer {
  name: "sigm2_1/gate"
  type: "Sigmoid"
  bottom: "fc2_1/exc"
  top: "fc2_1/exc"
}
layer {
  name: "scale2_1"
  type: "Scale"
  bottom: "conv2_1/x3"
  bottom: "fc2_1/exc"
  top: "scale2_1"
  scale_param {
    axis: 0
    bias_term: false
  }
}
layer {
  name: "block_2_1"
  type: "Eltwise"
  bottom: "conv2_1/prj"
  bottom: "scale2_1"
  top: "block_2_1"
}
layer {
  name: "relu2_1"
  type: "ReLU"
  bottom: "block_2_1"
  top: "block_2_1"
}
layer {
  name: "conv2_2/x1"
  type: "Convolution"
  bottom: "block_2_1"
  top: "conv2_2/x1"
  param {
    lr_mult: 1
    decay_mult: 1
  }
  convolution_param {
    num_output: 64
    bias_term: false
    kernel_size: 1
    weight_filler {
      type: "msra"
    }
  }
}
layer {
  name: "conv2_2/x1/bn"
  type: "BatchNorm"
  bottom: "conv2_2/x1"
  top: "conv2_2/x1"
  param {
    lr_mult: 0
    decay_mult: 0
  }
  param {
    lr_mult: 0
    decay_mult: 0
  }
  param {
    lr_mult: 0
    decay_mult: 0
  }
  batch_norm_param {
    eps: 0.0001
  }
}
layer {
  name: "conv2_2/x1/scale"
  type: "Scale"
  bottom: "conv2_2/x1"
  top: "conv2_2/x1"
  scale_param {
    bias_term: true
  }
}
layer {
  name: "relu2_2/x1"
  type: "ReLU"
  bottom: "conv2_2/x1"
  top: "conv2_2/x1"
}
layer {
  name: "conv2_2/x2"
  type: "Convolution"
  bottom: "conv2_2/x1"
  top: "conv2_2/x2"
  param {
    lr_mult: 1
    decay_mult: 1
  }
  convolution_param {
    num_output: 64
    bias_term: false
    pad: 1
    kernel_size: 3
    weight_filler {
      type: "msra"
    }
  }
}
layer {
  name: "conv2_2/x2/bn"
  type: "BatchNorm"
  bottom: "conv2_2/x2"
  top: "conv2_2/x2"
  param {
    lr_mult: 0
    decay_mult: 0
  }
  param {
    lr_mult: 0
    decay_mult: 0
  }
  param {
    lr_mult: 0
    decay_mult: 0
  }
  batch_norm_param {
    eps: 0.0001
  }
}
layer {
  name: "conv2_2/x2/scale"
  type: "Scale"
  bottom: "conv2_2/x2"
  top: "conv2_2/x2"
  scale_param {
    bias_term: true
  }
}
layer {
  name: "relu2_2/x2"
  type: "ReLU"
  bottom: "conv2_2/x2"
  top: "conv2_2/x2"
}
layer {
  name: "conv2_2/x3"
  type: "Convolution"
  bottom: "conv2_2/x2"
  top: "conv2_2/x3"
  param {
    lr_mult: 1
    decay_mult: 1
  }
  convolution_param {
    num_output: 256
    bias_term: false
    kernel_size: 1
    weight_filler {
      type: "msra"
    }
  }
}
layer {
  name: "conv2_2/x3/bn"
  type: "BatchNorm"
  bottom: "conv2_2/x3"
  top: "conv2_2/x3"
  param {
    lr_mult: 0
    decay_mult: 0
  }
  param {
    lr_mult: 0
    decay_mult: 0
  }
  param {
    lr_mult: 0
    decay_mult: 0
  }
  batch_norm_param {
    eps: 0.0001
  }
}
layer {
  name: "conv2_2/x3/scale"
  type: "Scale"
  bottom: "conv2_2/x3"
  top: "conv2_2/x3"
  scale_param {
    bias_term: true
  }
}
layer {
  name: "pool2_2/gap"
  type: "Pooling"
  bottom: "conv2_2/x3"
  top: "pool2_2/gap"
  pooling_param {
    pool: AVE
    global_pooling: true
  }
}
layer {
  name: "fc2_2/sqz"
  type: "InnerProduct"
  bottom: "pool2_2/gap"
  top: "fc2_2/sqz"
  param {
    lr_mult: 1
    decay_mult: 1
  }
  param {
    lr_mult: 2
    decay_mult: 0
  }
  inner_product_param {
    num_output: 16
    weight_filler {
      type: "msra"
    }
    bias_filler {
      type: "constant"
      value: 0
    }
  }
}
layer {
  name: "relu2_2/sqz"
  type: "ReLU"
  bottom: "fc2_2/sqz"
  top: "fc2_2/sqz"
}
layer {
  name: "fc2_2/exc"
  type: "InnerProduct"
  bottom: "fc2_2/sqz"
  top: "fc2_2/exc"
  param {
    lr_mult: 1
    decay_mult: 1
  }
  param {
    lr_mult: 2
    decay_mult: 0
  }
  inner_product_param {
    num_output: 256
    weight_filler {
      type: "msra"
    }
    bias_filler {
      type: "constant"
      value: 0
    }
  }
}
layer {
  name: "sigm2_2/gate"
  type: "Sigmoid"
  bottom: "fc2_2/exc"
  top: "fc2_2/exc"
}
layer {
  name: "scale2_2"
  type: "Scale"
  bottom: "conv2_2/x3"
  bottom: "fc2_2/exc"
  top: "scale2_2"
  scale_param {
    axis: 0
    bias_term: false
  }
}
layer {
  name: "block_2_2"
  type: "Eltwise"
  bottom: "block_2_1"
  bottom: "scale2_2"
  top: "block_2_2"
}
layer {
  name: "relu2_2"
  type: "ReLU"
  bottom: "block_2_2"
  top: "block_2_2"
}
layer {
  name: "conv2_3/x1"
  type: "Convolution"
  bottom: "block_2_2"
  top: "conv2_3/x1"
  param {
    lr_mult: 1
    decay_mult: 1
  }
  convolution_param {
    num_output: 64
    bias_term: false
    kernel_size: 1
    weight_filler {
      type: "msra"
    }
  }
}
layer {
  name: "conv2_3/x1/bn"
  type: "BatchNorm"
  bottom: "conv2_3/x1"
  top: "conv2_3/x1"
  param {
    lr_mult: 0
    decay_mult: 0
  }
  param {
    lr_mult: 0
    decay_mult: 0
  }
  param {
    lr_mult: 0
    decay_mult: 0
  }
  batch_norm_param {
    eps: 0.0001
  }
}
layer {
  name: "conv2_3/x1/scale"
  type: "Scale"
  bottom: "conv2_3/x1"
  top: "conv2_3/x1"
  scale_param {
    bias_term: true
  }
}
layer {
  name: "relu2_3/x1"
  type: "ReLU"
  bottom: "conv2_3/x1"
  top: "conv2_3/x1"
}
layer {
  name: "conv2_3/x2"
  type: "Convolution"
  bottom: "conv2_3/x1"
  top: "conv2_3/x2"
  param {
    lr_mult: 1
    decay_mult: 1
  }
  convolution_param {
    num_output: 64
    bias_term: false
    pad: 1
    kernel_size: 3
    weight_filler {
      type: "msra"
    }
  }
}
layer {
  name: "conv2_3/x2/bn"
  type: "BatchNorm"
  bottom: "conv2_3/x2"
  top: "conv2_3/x2"
  param {
    lr_mult: 0
    decay_mult: 0
  }
  param {
    lr_mult: 0
    decay_mult: 0
  }
  param {
    lr_mult: 0
    decay_mult: 0
  }
  batch_norm_param {
    eps: 0.0001
  }
}
layer {
  name: "conv2_3/x2/scale"
  type: "Scale"
  bottom: "conv2_3/x2"
  top: "conv2_3/x2"
  scale_param {
    bias_term: true
  }
}
layer {
  name: "relu2_3/x2"
  type: "ReLU"
  bottom: "conv2_3/x2"
  top: "conv2_3/x2"
}
layer {
  name: "conv2_3/x3"
  type: "Convolution"
  bottom: "conv2_3/x2"
  top: "conv2_3/x3"
  param {
    lr_mult: 1
    decay_mult: 1
  }
  convolution_param {
    num_output: 256
    bias_term: false
    kernel_size: 1
    weight_filler {
      type: "msra"
    }
  }
}
layer {
  name: "conv2_3/x3/bn"
  type: "BatchNorm"
  bottom: "conv2_3/x3"
  top: "conv2_3/x3"
  param {
    lr_mult: 0
    decay_mult: 0
  }
  param {
    lr_mult: 0
    decay_mult: 0
  }
  param {
    lr_mult: 0
    decay_mult: 0
  }
  batch_norm_param {
    eps: 0.0001
  }
}
layer {
  name: "conv2_3/x3/scale"
  type: "Scale"
  bottom: "conv2_3/x3"
  top: "conv2_3/x3"
  scale_param {
    bias_term: true
  }
}
layer {
  name: "pool2_3/gap"
  type: "Pooling"
  bottom: "conv2_3/x3"
  top: "pool2_3/gap"
  pooling_param {
    pool: AVE
    global_pooling: true
  }
}
layer {
  name: "fc2_3/sqz"
  type: "InnerProduct"
  bottom: "pool2_3/gap"
  top: "fc2_3/sqz"
  param {
    lr_mult: 1
    decay_mult: 1
  }
  param {
    lr_mult: 2
    decay_mult: 0
  }
  inner_product_param {
    num_output: 16
    weight_filler {
      type: "msra"
    }
    bias_filler {
      type: "constant"
      value: 0
    }
  }
}
layer {
  name: "relu2_3/sqz"
  type: "ReLU"
  bottom: "fc2_3/sqz"
  top: "fc2_3/sqz"
}
layer {
  name: "fc2_3/exc"
  type: "InnerProduct"
  bottom: "fc2_3/sqz"
  top: "fc2_3/exc"
  param {
    lr_mult: 1
    decay_mult: 1
  }
  param {
    lr_mult: 2
    decay_mult: 0
  }
  inner_product_param {
    num_output: 256
    weight_filler {
      type: "msra"
    }
    bias_filler {
      type: "constant"
      value: 0
    }
  }
}
layer {
  name: "sigm2_3/gate"
  type: "Sigmoid"
  bottom: "fc2_3/exc"
  top: "fc2_3/exc"
}
layer {
  name: "scale2_3"
  type: "Scale"
  bottom: "conv2_3/x3"
  bottom: "fc2_3/exc"
  top: "scale2_3"
  scale_param {
    axis: 0
    bias_term: false
  }
}
layer {
  name: "block_2_3"
  type: "Eltwise"
  bottom: "block_2_2"
  bottom: "scale2_3"
  top: "block_2_3"
}
layer {
  name: "relu2_3"
  type: "ReLU"
  bottom: "block_2_3"
  top: "block_2_3"
}
layer {
  name: "conv3_1/prj"
  type: "Convolution"
  bottom: "block_2_3"
  top: "conv3_1/prj"
  param {
    lr_mult: 1
    decay_mult: 1
  }
  convolution_param {
    num_output: 512
    bias_term: false
    kernel_size: 1
    stride: 2
    weight_filler {
      type: "msra"
    }
  }
}
layer {
  name: "conv3_1/prj/bn"
  type: "BatchNorm"
  bottom: "conv3_1/prj"
  top: "conv3_1/prj"
  param {
    lr_mult: 0
    decay_mult: 0
  }
  param {
    lr_mult: 0
    decay_mult: 0
  }
  param {
    lr_mult: 0
    decay_mult: 0
  }
  batch_norm_param {
    eps: 0.0001
  }
}
layer {
  name: "conv3_1/prj/scale"
  type: "Scale"
  bottom: "conv3_1/prj"
  top: "conv3_1/prj"
  scale_param {
    bias_term: true
  }
}
layer {
  name: "conv3_1/x1"
  type: "Convolution"
  bottom: "block_2_3"
  top: "conv3_1/x1"
  param {
    lr_mult: 1
    decay_mult: 1
  }
  convolution_param {
    num_output: 128
    bias_term: false
    kernel_size: 1
    weight_filler {
      type: "msra"
    }
  }
}
layer {
  name: "conv3_1/x1/bn"
  type: "BatchNorm"
  bottom: "conv3_1/x1"
  top: "conv3_1/x1"
  param {
    lr_mult: 0
    decay_mult: 0
  }
  param {
    lr_mult: 0
    decay_mult: 0
  }
  param {
    lr_mult: 0
    decay_mult: 0
  }
  batch_norm_param {
    eps: 0.0001
  }
}
layer {
  name: "conv3_1/x1/scale"
  type: "Scale"
  bottom: "conv3_1/x1"
  top: "conv3_1/x1"
  scale_param {
    bias_term: true
  }
}
layer {
  name: "relu3_1/x1"
  type: "ReLU"
  bottom: "conv3_1/x1"
  top: "conv3_1/x1"
}
layer {
  name: "conv3_1/x2"
  type: "Convolution"
  bottom: "conv3_1/x1"
  top: "conv3_1/x2"
  param {
    lr_mult: 1
    decay_mult: 1
  }
  convolution_param {
    num_output: 128
    bias_term: false
    pad: 1
    kernel_size: 3
    stride: 2
    weight_filler {
      type: "msra"
    }
  }
}
layer {
  name: "conv3_1/x2/bn"
  type: "BatchNorm"
  bottom: "conv3_1/x2"
  top: "conv3_1/x2"
  param {
    lr_mult: 0
    decay_mult: 0
  }
  param {
    lr_mult: 0
    decay_mult: 0
  }
  param {
    lr_mult: 0
    decay_mult: 0
  }
  batch_norm_param {
    eps: 0.0001
  }
}
layer {
  name: "conv3_1/x2/scale"
  type: "Scale"
  bottom: "conv3_1/x2"
  top: "conv3_1/x2"
  scale_param {
    bias_term: true
  }
}
layer {
  name: "relu3_1/x2"
  type: "ReLU"
  bottom: "conv3_1/x2"
  top: "conv3_1/x2"
}
layer {
  name: "conv3_1/x3"
  type: "Convolution"
  bottom: "conv3_1/x2"
  top: "conv3_1/x3"
  param {
    lr_mult: 1
    decay_mult: 1
  }
  convolution_param {
    num_output: 512
    bias_term: false
    kernel_size: 1
    weight_filler {
      type: "msra"
    }
  }
}
layer {
  name: "conv3_1/x3/bn"
  type: "BatchNorm"
  bottom: "conv3_1/x3"
  top: "conv3_1/x3"
  param {
    lr_mult: 0
    decay_mult: 0
  }
  param {
    lr_mult: 0
    decay_mult: 0
  }
  param {
    lr_mult: 0
    decay_mult: 0
  }
  batch_norm_param {
    eps: 0.0001
  }
}
layer {
  name: "conv3_1/x3/scale"
  type: "Scale"
  bottom: "conv3_1/x3"
  top: "conv3_1/x3"
  scale_param {
    bias_term: true
  }
}
layer {
  name: "pool3_1/gap"
  type: "Pooling"
  bottom: "conv3_1/x3"
  top: "pool3_1/gap"
  pooling_param {
    pool: AVE
    global_pooling: true
  }
}
layer {
  name: "fc3_1/sqz"
  type: "InnerProduct"
  bottom: "pool3_1/gap"
  top: "fc3_1/sqz"
  param {
    lr_mult: 1
    decay_mult: 1
  }
  param {
    lr_mult: 2
    decay_mult: 0
  }
  inner_product_param {
    num_output: 32
    weight_filler {
      type: "msra"
    }
    bias_filler {
      type: "constant"
      value: 0
    }
  }
}
layer {
  name: "relu3_1/sqz"
  type: "ReLU"
  bottom: "fc3_1/sqz"
  top: "fc3_1/sqz"
}
layer {
  name: "fc3_1/exc"
  type: "InnerProduct"
  bottom: "fc3_1/sqz"
  top: "fc3_1/exc"
  param {
    lr_mult: 1
    decay_mult: 1
  }
  param {
    lr_mult: 2
    decay_mult: 0
  }
  inner_product_param {
    num_output: 512
    weight_filler {
      type: "msra"
    }
    bias_filler {
      type: "constant"
      value: 0
    }
  }
}
layer {
  name: "sigm3_1/gate"
  type: "Sigmoid"
  bottom: "fc3_1/exc"
  top: "fc3_1/exc"
}
layer {
  name: "scale3_1"
  type: "Scale"
  bottom: "conv3_1/x3"
  bottom: "fc3_1/exc"
  top: "scale3_1"
  scale_param {
    axis: 0
    bias_term: false
  }
}
layer {
  name: "block_3_1"
  type: "Eltwise"
  bottom: "conv3_1/prj"
  bottom: "scale3_1"
  top: "block_3_1"
}
layer {
  name: "relu3_1"
  type: "ReLU"
  bottom: "block_3_1"
  top: "block_3_1"
}
layer {
  name: "conv3_2/x1"
  type: "Convolution"
  bottom: "block_3_1"
  top: "conv3_2/x1"
  param {
    lr_mult: 1
    decay_mult: 1
  }
  convolution_param {
    num_output: 128
    bias_term: false
    kernel_size: 1
    weight_filler {
      type: "msra"
    }
  }
}
layer {
  name: "conv3_2/x1/bn"
  type: "BatchNorm"
  bottom: "conv3_2/x1"
  top: "conv3_2/x1"
  param {
    lr_mult: 0
    decay_mult: 0
  }
  param {
    lr_mult: 0
    decay_mult: 0
  }
  param {
    lr_mult: 0
    decay_mult: 0
  }
  batch_norm_param {
    eps: 0.0001
  }
}
layer {
  name: "conv3_2/x1/scale"
  type: "Scale"
  bottom: "conv3_2/x1"
  top: "conv3_2/x1"
  scale_param {
    bias_term: true
  }
}
layer {
  name: "relu3_2/x1"
  type: "ReLU"
  bottom: "conv3_2/x1"
  top: "conv3_2/x1"
}
layer {
  name: "conv3_2/x2"
  type: "Convolution"
  bottom: "conv3_2/x1"
  top: "conv3_2/x2"
  param {
    lr_mult: 1
    decay_mult: 1
  }
  convolution_param {
    num_output: 128
    bias_term: false
    pad: 1
    kernel_size: 3
    weight_filler {
      type: "msra"
    }
  }
}
layer {
  name: "conv3_2/x2/bn"
  type: "BatchNorm"
  bottom: "conv3_2/x2"
  top: "conv3_2/x2"
  param {
    lr_mult: 0
    decay_mult: 0
  }
  param {
    lr_mult: 0
    decay_mult: 0
  }
  param {
    lr_mult: 0
    decay_mult: 0
  }
  batch_norm_param {
    eps: 0.0001
  }
}
layer {
  name: "conv3_2/x2/scale"
  type: "Scale"
  bottom: "conv3_2/x2"
  top: "conv3_2/x2"
  scale_param {
    bias_term: true
  }
}
layer {
  name: "relu3_2/x2"
  type: "ReLU"
  bottom: "conv3_2/x2"
  top: "conv3_2/x2"
}
layer {
  name: "conv3_2/x3"
  type: "Convolution"
  bottom: "conv3_2/x2"
  top: "conv3_2/x3"
  param {
    lr_mult: 1
    decay_mult: 1
  }
  convolution_param {
    num_output: 512
    bias_term: false
    kernel_size: 1
    weight_filler {
      type: "msra"
    }
  }
}
layer {
  name: "conv3_2/x3/bn"
  type: "BatchNorm"
  bottom: "conv3_2/x3"
  top: "conv3_2/x3"
  param {
    lr_mult: 0
    decay_mult: 0
  }
  param {
    lr_mult: 0
    decay_mult: 0
  }
  param {
    lr_mult: 0
    decay_mult: 0
  }
  batch_norm_param {
    eps: 0.0001
  }
}
layer {
  name: "conv3_2/x3/scale"
  type: "Scale"
  bottom: "conv3_2/x3"
  top: "conv3_2/x3"
  scale_param {
    bias_term: true
  }
}
layer {
  name: "pool3_2/gap"
  type: "Pooling"
  bottom: "conv3_2/x3"
  top: "pool3_2/gap"
  pooling_param {
    pool: AVE
    global_pooling: true
  }
}
layer {
  name: "fc3_2/sqz"
  type: "InnerProduct"
  bottom: "pool3_2/gap"
  top: "fc3_2/sqz"
  param {
    lr_mult: 1
    decay_mult: 1
  }
  param {
    lr_mult: 2
    decay_mult: 0
  }
  inner_product_param {
    num_output: 32
    weight_filler {
      type: "msra"
    }
    bias_filler {
      type: "constant"
      value: 0
    }
  }
}
layer {
  name: "relu3_2/sqz"
  type: "ReLU"
  bottom: "fc3_2/sqz"
  top: "fc3_2/sqz"
}
layer {
  name: "fc3_2/exc"
  type: "InnerProduct"
  bottom: "fc3_2/sqz"
  top: "fc3_2/exc"
  param {
    lr_mult: 1
    decay_mult: 1
  }
  param {
    lr_mult: 2
    decay_mult: 0
  }
  inner_product_param {
    num_output: 512
    weight_filler {
      type: "msra"
    }
    bias_filler {
      type: "constant"
      value: 0
    }
  }
}
layer {
  name: "sigm3_2/gate"
  type: "Sigmoid"
  bottom: "fc3_2/exc"
  top: "fc3_2/exc"
}
layer {
  name: "scale3_2"
  type: "Scale"
  bottom: "conv3_2/x3"
  bottom: "fc3_2/exc"
  top: "scale3_2"
  scale_param {
    axis: 0
    bias_term: false
  }
}
layer {
  name: "block_3_2"
  type: "Eltwise"
  bottom: "block_3_1"
  bottom: "scale3_2"
  top: "block_3_2"
}
layer {
  name: "relu3_2"
  type: "ReLU"
  bottom: "block_3_2"
  top: "block_3_2"
}
layer {
  name: "conv3_3/x1"
  type: "Convolution"
  bottom: "block_3_2"
  top: "conv3_3/x1"
  param {
    lr_mult: 1
    decay_mult: 1
  }
  convolution_param {
    num_output: 128
    bias_term: false
    kernel_size: 1
    weight_filler {
      type: "msra"
    }
  }
}
layer {
  name: "conv3_3/x1/bn"
  type: "BatchNorm"
  bottom: "conv3_3/x1"
  top: "conv3_3/x1"
  param {
    lr_mult: 0
    decay_mult: 0
  }
  param {
    lr_mult: 0
    decay_mult: 0
  }
  param {
    lr_mult: 0
    decay_mult: 0
  }
  batch_norm_param {
    eps: 0.0001
  }
}
layer {
  name: "conv3_3/x1/scale"
  type: "Scale"
  bottom: "conv3_3/x1"
  top: "conv3_3/x1"
  scale_param {
    bias_term: true
  }
}
layer {
  name: "relu3_3/x1"
  type: "ReLU"
  bottom: "conv3_3/x1"
  top: "conv3_3/x1"
}
layer {
  name: "conv3_3/x2"
  type: "Convolution"
  bottom: "conv3_3/x1"
  top: "conv3_3/x2"
  param {
    lr_mult: 1
    decay_mult: 1
  }
  convolution_param {
    num_output: 128
    bias_term: false
    pad: 1
    kernel_size: 3
    weight_filler {
      type: "msra"
    }
  }
}
layer {
  name: "conv3_3/x2/bn"
  type: "BatchNorm"
  bottom: "conv3_3/x2"
  top: "conv3_3/x2"
  param {
    lr_mult: 0
    decay_mult: 0
  }
  param {
    lr_mult: 0
    decay_mult: 0
  }
  param {
    lr_mult: 0
    decay_mult: 0
  }
  batch_norm_param {
    eps: 0.0001
  }
}
layer {
  name: "conv3_3/x2/scale"
  type: "Scale"
  bottom: "conv3_3/x2"
  top: "conv3_3/x2"
  scale_param {
    bias_term: true
  }
}
layer {
  name: "relu3_3/x2"
  type: "ReLU"
  bottom: "conv3_3/x2"
  top: "conv3_3/x2"
}
layer {
  name: "conv3_3/x3"
  type: "Convolution"
  bottom: "conv3_3/x2"
  top: "conv3_3/x3"
  param {
    lr_mult: 1
    decay_mult: 1
  }
  convolution_param {
    num_output: 512
    bias_term: false
    kernel_size: 1
    weight_filler {
      type: "msra"
    }
  }
}
layer {
  name: "conv3_3/x3/bn"
  type: "BatchNorm"
  bottom: "conv3_3/x3"
  top: "conv3_3/x3"
  param {
    lr_mult: 0
    decay_mult: 0
  }
  param {
    lr_mult: 0
    decay_mult: 0
  }
  param {
    lr_mult: 0
    decay_mult: 0
  }
  batch_norm_param {
    eps: 0.0001
  }
}
layer {
  name: "conv3_3/x3/scale"
  type: "Scale"
  bottom: "conv3_3/x3"
  top: "conv3_3/x3"
  scale_param {
    bias_term: true
  }
}
layer {
  name: "pool3_3/gap"
  type: "Pooling"
  bottom: "conv3_3/x3"
  top: "pool3_3/gap"
  pooling_param {
    pool: AVE
    global_pooling: true
  }
}
layer {
  name: "fc3_3/sqz"
  type: "InnerProduct"
  bottom: "pool3_3/gap"
  top: "fc3_3/sqz"
  param {
    lr_mult: 1
    decay_mult: 1
  }
  param {
    lr_mult: 2
    decay_mult: 0
  }
  inner_product_param {
    num_output: 32
    weight_filler {
      type: "msra"
    }
    bias_filler {
      type: "constant"
      value: 0
    }
  }
}
layer {
  name: "relu3_3/sqz"
  type: "ReLU"
  bottom: "fc3_3/sqz"
  top: "fc3_3/sqz"
}
layer {
  name: "fc3_3/exc"
  type: "InnerProduct"
  bottom: "fc3_3/sqz"
  top: "fc3_3/exc"
  param {
    lr_mult: 1
    decay_mult: 1
  }
  param {
    lr_mult: 2
    decay_mult: 0
  }
  inner_product_param {
    num_output: 512
    weight_filler {
      type: "msra"
    }
    bias_filler {
      type: "constant"
      value: 0
    }
  }
}
layer {
  name: "sigm3_3/gate"
  type: "Sigmoid"
  bottom: "fc3_3/exc"
  top: "fc3_3/exc"
}
layer {
  name: "scale3_3"
  type: "Scale"
  bottom: "conv3_3/x3"
  bottom: "fc3_3/exc"
  top: "scale3_3"
  scale_param {
    axis: 0
    bias_term: false
  }
}
layer {
  name: "block_3_3"
  type: "Eltwise"
  bottom: "block_3_2"
  bottom: "scale3_3"
  top: "block_3_3"
}
layer {
  name: "relu3_3"
  type: "ReLU"
  bottom: "block_3_3"
  top: "block_3_3"
}
layer {
  name: "conv3_4/x1"
  type: "Convolution"
  bottom: "block_3_3"
  top: "conv3_4/x1"
  param {
    lr_mult: 1
    decay_mult: 1
  }
  convolution_param {
    num_output: 128
    bias_term: false
    kernel_size: 1
    weight_filler {
      type: "msra"
    }
  }
}
layer {
  name: "conv3_4/x1/bn"
  type: "BatchNorm"
  bottom: "conv3_4/x1"
  top: "conv3_4/x1"
  param {
    lr_mult: 0
    decay_mult: 0
  }
  param {
    lr_mult: 0
    decay_mult: 0
  }
  param {
    lr_mult: 0
    decay_mult: 0
  }
  batch_norm_param {
    eps: 0.0001
  }
}
layer {
  name: "conv3_4/x1/scale"
  type: "Scale"
  bottom: "conv3_4/x1"
  top: "conv3_4/x1"
  scale_param {
    bias_term: true
  }
}
layer {
  name: "relu3_4/x1"
  type: "ReLU"
  bottom: "conv3_4/x1"
  top: "conv3_4/x1"
}
layer {
  name: "conv3_4/x2"
  type: "Convolution"
  bottom: "conv3_4/x1"
  top: "conv3_4/x2"
  param {
    lr_mult: 1
    decay_mult: 1
  }
  convolution_param {
    num_output: 128
    bias_term: false
    pad: 1
    kernel_size: 3
    weight_filler {
      type: "msra"
    }
  }
}
layer {
  name: "conv3_4/x2/bn"
  type: "BatchNorm"
  bottom: "conv3_4/x2"
  top: "conv3_4/x2"
  param {
    lr_mult: 0
    decay_mult: 0
  }
  param {
    lr_mult: 0
    decay_mult: 0
  }
  param {
    lr_mult: 0
    decay_mult: 0
  }
  batch_norm_param {
    eps: 0.0001
  }
}
layer {
  name: "conv3_4/x2/scale"
  type: "Scale"
  bottom: "conv3_4/x2"
  top: "conv3_4/x2"
  scale_param {
    bias_term: true
  }
}
layer {
  name: "relu3_4/x2"
  type: "ReLU"
  bottom: "conv3_4/x2"
  top: "conv3_4/x2"
}
layer {
  name: "conv3_4/x3"
  type: "Convolution"
  bottom: "conv3_4/x2"
  top: "conv3_4/x3"
  param {
    lr_mult: 1
    decay_mult: 1
  }
  convolution_param {
    num_output: 512
    bias_term: false
    kernel_size: 1
    weight_filler {
      type: "msra"
    }
  }
}
layer {
  name: "conv3_4/x3/bn"
  type: "BatchNorm"
  bottom: "conv3_4/x3"
  top: "conv3_4/x3"
  param {
    lr_mult: 0
    decay_mult: 0
  }
  param {
    lr_mult: 0
    decay_mult: 0
  }
  param {
    lr_mult: 0
    decay_mult: 0
  }
  batch_norm_param {
    eps: 0.0001
  }
}
layer {
  name: "conv3_4/x3/scale"
  type: "Scale"
  bottom: "conv3_4/x3"
  top: "conv3_4/x3"
  scale_param {
    bias_term: true
  }
}
layer {
  name: "pool3_4/gap"
  type: "Pooling"
  bottom: "conv3_4/x3"
  top: "pool3_4/gap"
  pooling_param {
    pool: AVE
    global_pooling: true
  }
}
layer {
  name: "fc3_4/sqz"
  type: "InnerProduct"
  bottom: "pool3_4/gap"
  top: "fc3_4/sqz"
  param {
    lr_mult: 1
    decay_mult: 1
  }
  param {
    lr_mult: 2
    decay_mult: 0
  }
  inner_product_param {
    num_output: 32
    weight_filler {
      type: "msra"
    }
    bias_filler {
      type: "constant"
      value: 0
    }
  }
}
layer {
  name: "relu3_4/sqz"
  type: "ReLU"
  bottom: "fc3_4/sqz"
  top: "fc3_4/sqz"
}
layer {
  name: "fc3_4/exc"
  type: "InnerProduct"
  bottom: "fc3_4/sqz"
  top: "fc3_4/exc"
  param {
    lr_mult: 1
    decay_mult: 1
  }
  param {
    lr_mult: 2
    decay_mult: 0
  }
  inner_product_param {
    num_output: 512
    weight_filler {
      type: "msra"
    }
    bias_filler {
      type: "constant"
      value: 0
    }
  }
}
layer {
  name: "sigm3_4/gate"
  type: "Sigmoid"
  bottom: "fc3_4/exc"
  top: "fc3_4/exc"
}
layer {
  name: "scale3_4"
  type: "Scale"
  bottom: "conv3_4/x3"
  bottom: "fc3_4/exc"
  top: "scale3_4"
  scale_param {
    axis: 0
    bias_term: false
  }
}
layer {
  name: "block_3_4"
  type: "Eltwise"
  bottom: "block_3_3"
  bottom: "scale3_4"
  top: "block_3_4"
}
layer {
  name: "relu3_4"
  type: "ReLU"
  bottom: "block_3_4"
  top: "block_3_4"
}
layer {
  name: "conv4_1/prj"
  type: "Convolution"
  bottom: "block_3_4"
  top: "conv4_1/prj"
  param {
    lr_mult: 1
    decay_mult: 1
  }
  convolution_param {
    num_output: 1024
    bias_term: false
    kernel_size: 1
    stride: 2
    weight_filler {
      type: "msra"
    }
  }
}
layer {
  name: "conv4_1/prj/bn"
  type: "BatchNorm"
  bottom: "conv4_1/prj"
  top: "conv4_1/prj"
  param {
    lr_mult: 0
    decay_mult: 0
  }
  param {
    lr_mult: 0
    decay_mult: 0
  }
  param {
    lr_mult: 0
    decay_mult: 0
  }
  batch_norm_param {
    eps: 0.0001
  }
}
layer {
  name: "conv4_1/prj/scale"
  type: "Scale"
  bottom: "conv4_1/prj"
  top: "conv4_1/prj"
  scale_param {
    bias_term: true
  }
}
layer {
  name: "conv4_1/x1"
  type: "Convolution"
  bottom: "block_3_4"
  top: "conv4_1/x1"
  param {
    lr_mult: 1
    decay_mult: 1
  }
  convolution_param {
    num_output: 256
    bias_term: false
    kernel_size: 1
    weight_filler {
      type: "msra"
    }
  }
}
layer {
  name: "conv4_1/x1/bn"
  type: "BatchNorm"
  bottom: "conv4_1/x1"
  top: "conv4_1/x1"
  param {
    lr_mult: 0
    decay_mult: 0
  }
  param {
    lr_mult: 0
    decay_mult: 0
  }
  param {
    lr_mult: 0
    decay_mult: 0
  }
  batch_norm_param {
    eps: 0.0001
  }
}
layer {
  name: "conv4_1/x1/scale"
  type: "Scale"
  bottom: "conv4_1/x1"
  top: 
I1202 03:02:21.198632  6391 layer_factory.hpp:77] Creating layer data
I1202 03:02:21.198683  6391 net.cpp:84] Creating Layer data
I1202 03:02:21.198698  6391 net.cpp:380] data -> data
I1202 03:02:21.198730  6391 net.cpp:380] data -> label
I1202 03:02:21.199260  6391 image_data_layer.cpp:38] Opening file /home/wuxiaodong/data/ai_challenge/ai_challenger_scene_train_20170904_/train.txt
I1202 03:02:21.241420  6391 image_data_layer.cpp:53] Shuffling data
I1202 03:02:21.249718  6391 image_data_layer.cpp:63] A total of 53879 images.
I1202 03:02:21.257067  6391 image_data_layer.cpp:90] output data size: 15,3,224,224
I1202 03:02:21.285692  6391 net.cpp:122] Setting up data
I1202 03:02:21.285751  6391 net.cpp:129] Top shape: 15 3 224 224 (2257920)
I1202 03:02:21.285759  6391 net.cpp:129] Top shape: 15 (15)
I1202 03:02:21.285765  6391 net.cpp:137] Memory required for data: 9031740
I1202 03:02:21.285778  6391 layer_factory.hpp:77] Creating layer conv1
I1202 03:02:21.285815  6391 net.cpp:84] Creating Layer conv1
I1202 03:02:21.285825  6391 net.cpp:406] conv1 <- data
I1202 03:02:21.285851  6391 net.cpp:380] conv1 -> conv1
I1202 03:02:21.709012  6391 net.cpp:122] Setting up conv1
I1202 03:02:21.709087  6391 net.cpp:129] Top shape: 15 64 112 112 (12042240)
I1202 03:02:21.709098  6391 net.cpp:137] Memory required for data: 57200700
I1202 03:02:21.709166  6391 layer_factory.hpp:77] Creating layer conv1/bn
I1202 03:02:21.709272  6391 net.cpp:84] Creating Layer conv1/bn
I1202 03:02:21.709286  6391 net.cpp:406] conv1/bn <- conv1
I1202 03:02:21.709302  6391 net.cpp:367] conv1/bn -> conv1 (in-place)
I1202 03:02:21.709725  6391 net.cpp:122] Setting up conv1/bn
I1202 03:02:21.709741  6391 net.cpp:129] Top shape: 15 64 112 112 (12042240)
I1202 03:02:21.709749  6391 net.cpp:137] Memory required for data: 105369660
I1202 03:02:21.709770  6391 layer_factory.hpp:77] Creating layer conv1/scale
I1202 03:02:21.709807  6391 net.cpp:84] Creating Layer conv1/scale
I1202 03:02:21.709815  6391 net.cpp:406] conv1/scale <- conv1
I1202 03:02:21.709827  6391 net.cpp:367] conv1/scale -> conv1 (in-place)
I1202 03:02:21.709906  6391 layer_factory.hpp:77] Creating layer conv1/scale
I1202 03:02:21.710145  6391 net.cpp:122] Setting up conv1/scale
I1202 03:02:21.710160  6391 net.cpp:129] Top shape: 15 64 112 112 (12042240)
I1202 03:02:21.710167  6391 net.cpp:137] Memory required for data: 153538620
I1202 03:02:21.710183  6391 layer_factory.hpp:77] Creating layer relu1
I1202 03:02:21.710220  6391 net.cpp:84] Creating Layer relu1
I1202 03:02:21.710229  6391 net.cpp:406] relu1 <- conv1
I1202 03:02:21.710239  6391 net.cpp:367] relu1 -> conv1 (in-place)
I1202 03:02:21.710574  6391 net.cpp:122] Setting up relu1
I1202 03:02:21.710593  6391 net.cpp:129] Top shape: 15 64 112 112 (12042240)
I1202 03:02:21.710602  6391 net.cpp:137] Memory required for data: 201707580
I1202 03:02:21.710610  6391 layer_factory.hpp:77] Creating layer pool1
I1202 03:02:21.710623  6391 net.cpp:84] Creating Layer pool1
I1202 03:02:21.710633  6391 net.cpp:406] pool1 <- conv1
I1202 03:02:21.710644  6391 net.cpp:380] pool1 -> pool1
I1202 03:02:21.710731  6391 net.cpp:122] Setting up pool1
I1202 03:02:21.710744  6391 net.cpp:129] Top shape: 15 64 56 56 (3010560)
I1202 03:02:21.710752  6391 net.cpp:137] Memory required for data: 213749820
I1202 03:02:21.710760  6391 layer_factory.hpp:77] Creating layer pool1_pool1_0_split
I1202 03:02:21.710781  6391 net.cpp:84] Creating Layer pool1_pool1_0_split
I1202 03:02:21.710790  6391 net.cpp:406] pool1_pool1_0_split <- pool1
I1202 03:02:21.710804  6391 net.cpp:380] pool1_pool1_0_split -> pool1_pool1_0_split_0
I1202 03:02:21.710819  6391 net.cpp:380] pool1_pool1_0_split -> pool1_pool1_0_split_1
I1202 03:02:21.710880  6391 net.cpp:122] Setting up pool1_pool1_0_split
I1202 03:02:21.710893  6391 net.cpp:129] Top shape: 15 64 56 56 (3010560)
I1202 03:02:21.710903  6391 net.cpp:129] Top shape: 15 64 56 56 (3010560)
I1202 03:02:21.710911  6391 net.cpp:137] Memory required for data: 237834300
I1202 03:02:21.710917  6391 layer_factory.hpp:77] Creating layer conv2_1/prj
I1202 03:02:21.710961  6391 net.cpp:84] Creating Layer conv2_1/prj
I1202 03:02:21.710973  6391 net.cpp:406] conv2_1/prj <- pool1_pool1_0_split_0
I1202 03:02:21.710984  6391 net.cpp:380] conv2_1/prj -> conv2_1/prj
I1202 03:02:21.713752  6391 net.cpp:122] Setting up conv2_1/prj
I1202 03:02:21.713781  6391 net.cpp:129] Top shape: 15 256 56 56 (12042240)
I1202 03:02:21.713791  6391 net.cpp:137] Memory required for data: 286003260
I1202 03:02:21.713804  6391 layer_factory.hpp:77] Creating layer conv2_1/prj/bn
I1202 03:02:21.713820  6391 net.cpp:84] Creating Layer conv2_1/prj/bn
I1202 03:02:21.713829  6391 net.cpp:406] conv2_1/prj/bn <- conv2_1/prj
I1202 03:02:21.713841  6391 net.cpp:367] conv2_1/prj/bn -> conv2_1/prj (in-place)
I1202 03:02:21.715831  6391 net.cpp:122] Setting up conv2_1/prj/bn
I1202 03:02:21.715857  6391 net.cpp:129] Top shape: 15 256 56 56 (12042240)
I1202 03:02:21.715865  6391 net.cpp:137] Memory required for data: 334172220
I1202 03:02:21.715893  6391 layer_factory.hpp:77] Creating layer conv2_1/prj/scale
I1202 03:02:21.715908  6391 net.cpp:84] Creating Layer conv2_1/prj/scale
I1202 03:02:21.715915  6391 net.cpp:406] conv2_1/prj/scale <- conv2_1/prj
I1202 03:02:21.715927  6391 net.cpp:367] conv2_1/prj/scale -> conv2_1/prj (in-place)
I1202 03:02:21.716001  6391 layer_factory.hpp:77] Creating layer conv2_1/prj/scale
I1202 03:02:21.716205  6391 net.cpp:122] Setting up conv2_1/prj/scale
I1202 03:02:21.716238  6391 net.cpp:129] Top shape: 15 256 56 56 (12042240)
I1202 03:02:21.716246  6391 net.cpp:137] Memory required for data: 382341180
I1202 03:02:21.716264  6391 layer_factory.hpp:77] Creating layer conv2_1/x1
I1202 03:02:21.716279  6391 net.cpp:84] Creating Layer conv2_1/x1
I1202 03:02:21.716286  6391 net.cpp:406] conv2_1/x1 <- pool1_pool1_0_split_1
I1202 03:02:21.716300  6391 net.cpp:380] conv2_1/x1 -> conv2_1/x1
I1202 03:02:21.718744  6391 net.cpp:122] Setting up conv2_1/x1
I1202 03:02:21.718771  6391 net.cpp:129] Top shape: 15 64 56 56 (3010560)
I1202 03:02:21.718780  6391 net.cpp:137] Memory required for data: 394383420
I1202 03:02:21.718791  6391 layer_factory.hpp:77] Creating layer conv2_1/x1/bn
I1202 03:02:21.718807  6391 net.cpp:84] Creating Layer conv2_1/x1/bn
I1202 03:02:21.718816  6391 net.cpp:406] conv2_1/x1/bn <- conv2_1/x1
I1202 03:02:21.718827  6391 net.cpp:367] conv2_1/x1/bn -> conv2_1/x1 (in-place)
I1202 03:02:21.719174  6391 net.cpp:122] Setting up conv2_1/x1/bn
I1202 03:02:21.719189  6391 net.cpp:129] Top shape: 15 64 56 56 (3010560)
I1202 03:02:21.719197  6391 net.cpp:137] Memory required for data: 406425660
I1202 03:02:21.719215  6391 layer_factory.hpp:77] Creating layer conv2_1/x1/scale
I1202 03:02:21.719228  6391 net.cpp:84] Creating Layer conv2_1/x1/scale
I1202 03:02:21.719236  6391 net.cpp:406] conv2_1/x1/scale <- conv2_1/x1
I1202 03:02:21.719246  6391 net.cpp:367] conv2_1/x1/scale -> conv2_1/x1 (in-place)
I1202 03:02:21.719313  6391 layer_factory.hpp:77] Creating layer conv2_1/x1/scale
I1202 03:02:21.719517  6391 net.cpp:122] Setting up conv2_1/x1/scale
I1202 03:02:21.719532  6391 net.cpp:129] Top shape: 15 64 56 56 (3010560)
I1202 03:02:21.719539  6391 net.cpp:137] Memory required for data: 418467900
I1202 03:02:21.719558  6391 layer_factory.hpp:77] Creating layer relu2_1/x1
I1202 03:02:21.719568  6391 net.cpp:84] Creating Layer relu2_1/x1
I1202 03:02:21.719578  6391 net.cpp:406] relu2_1/x1 <- conv2_1/x1
I1202 03:02:21.719588  6391 net.cpp:367] relu2_1/x1 -> conv2_1/x1 (in-place)
I1202 03:02:21.720075  6391 net.cpp:122] Setting up relu2_1/x1
I1202 03:02:21.720134  6391 net.cpp:129] Top shape: 15 64 56 56 (3010560)
I1202 03:02:21.720142  6391 net.cpp:137] Memory required for data: 430510140
I1202 03:02:21.720150  6391 layer_factory.hpp:77] Creating layer conv2_1/x2
I1202 03:02:21.720172  6391 net.cpp:84] Creating Layer conv2_1/x2
I1202 03:02:21.720180  6391 net.cpp:406] conv2_1/x2 <- conv2_1/x1
I1202 03:02:21.720206  6391 net.cpp:380] conv2_1/x2 -> conv2_1/x2
I1202 03:02:21.730893  6391 net.cpp:122] Setting up conv2_1/x2
I1202 03:02:21.730936  6391 net.cpp:129] Top shape: 15 64 56 56 (3010560)
I1202 03:02:21.730947  6391 net.cpp:137] Memory required for data: 442552380
I1202 03:02:21.730965  6391 layer_factory.hpp:77] Creating layer conv2_1/x2/bn
I1202 03:02:21.730986  6391 net.cpp:84] Creating Layer conv2_1/x2/bn
I1202 03:02:21.730996  6391 net.cpp:406] conv2_1/x2/bn <- conv2_1/x2
I1202 03:02:21.731014  6391 net.cpp:367] conv2_1/x2/bn -> conv2_1/x2 (in-place)
I1202 03:02:21.731427  6391 net.cpp:122] Setting up conv2_1/x2/bn
I1202 03:02:21.731446  6391 net.cpp:129] Top shape: 15 64 56 56 (3010560)
I1202 03:02:21.731456  6391 net.cpp:137] Memory required for data: 454594620
I1202 03:02:21.731493  6391 layer_factory.hpp:77] Creating layer conv2_1/x2/scale
I1202 03:02:21.731523  6391 net.cpp:84] Creating Layer conv2_1/x2/scale
I1202 03:02:21.731533  6391 net.cpp:406] conv2_1/x2/scale <- conv2_1/x2
I1202 03:02:21.731547  6391 net.cpp:367] conv2_1/x2/scale -> conv2_1/x2 (in-place)
I1202 03:02:21.731638  6391 layer_factory.hpp:77] Creating layer conv2_1/x2/scale
I1202 03:02:21.731928  6391 net.cpp:122] Setting up conv2_1/x2/scale
I1202 03:02:21.731950  6391 net.cpp:129] Top shape: 15 64 56 56 (3010560)
I1202 03:02:21.731959  6391 net.cpp:137] Memory required for data: 466636860
I1202 03:02:21.731976  6391 layer_factory.hpp:77] Creating layer relu2_1/x2
I1202 03:02:21.731992  6391 net.cpp:84] Creating Layer relu2_1/x2
I1202 03:02:21.732017  6391 net.cpp:406] relu2_1/x2 <- conv2_1/x2
I1202 03:02:21.732064  6391 net.cpp:367] relu2_1/x2 -> conv2_1/x2 (in-place)
I1202 03:02:21.733582  6391 net.cpp:122] Setting up relu2_1/x2
I1202 03:02:21.733616  6391 net.cpp:129] Top shape: 15 64 56 56 (3010560)
I1202 03:02:21.733626  6391 net.cpp:137] Memory required for data: 478679100
I1202 03:02:21.733636  6391 layer_factory.hpp:77] Creating layer conv2_1/x3
I1202 03:02:21.733657  6391 net.cpp:84] Creating Layer conv2_1/x3
I1202 03:02:21.733670  6391 net.cpp:406] conv2_1/x3 <- conv2_1/x2
I1202 03:02:21.733705  6391 net.cpp:380] conv2_1/x3 -> conv2_1/x3
I1202 03:02:21.735569  6391 net.cpp:122] Setting up conv2_1/x3
I1202 03:02:21.735597  6391 net.cpp:129] Top shape: 15 256 56 56 (12042240)
I1202 03:02:21.735610  6391 net.cpp:137] Memory required for data: 526848060
I1202 03:02:21.735623  6391 layer_factory.hpp:77] Creating layer conv2_1/x3/bn
I1202 03:02:21.735641  6391 net.cpp:84] Creating Layer conv2_1/x3/bn
I1202 03:02:21.735651  6391 net.cpp:406] conv2_1/x3/bn <- conv2_1/x3
I1202 03:02:21.735668  6391 net.cpp:367] conv2_1/x3/bn -> conv2_1/x3 (in-place)
I1202 03:02:21.736070  6391 net.cpp:122] Setting up conv2_1/x3/bn
I1202 03:02:21.736090  6391 net.cpp:129] Top shape: 15 256 56 56 (12042240)
I1202 03:02:21.736100  6391 net.cpp:137] Memory required for data: 575017020
I1202 03:02:21.736150  6391 layer_factory.hpp:77] Creating layer conv2_1/x3/scale
I1202 03:02:21.736179  6391 net.cpp:84] Creating Layer conv2_1/x3/scale
I1202 03:02:21.736191  6391 net.cpp:406] conv2_1/x3/scale <- conv2_1/x3
I1202 03:02:21.736203  6391 net.cpp:367] conv2_1/x3/scale -> conv2_1/x3 (in-place)
I1202 03:02:21.736284  6391 layer_factory.hpp:77] Creating layer conv2_1/x3/scale
I1202 03:02:21.736496  6391 net.cpp:122] Setting up conv2_1/x3/scale
I1202 03:02:21.736515  6391 net.cpp:129] Top shape: 15 256 56 56 (12042240)
I1202 03:02:21.736523  6391 net.cpp:137] Memory required for data: 623185980
I1202 03:02:21.736538  6391 layer_factory.hpp:77] Creating layer conv2_1/x3_conv2_1/x3/scale_0_split
I1202 03:02:21.736552  6391 net.cpp:84] Creating Layer conv2_1/x3_conv2_1/x3/scale_0_split
I1202 03:02:21.736562  6391 net.cpp:406] conv2_1/x3_conv2_1/x3/scale_0_split <- conv2_1/x3
I1202 03:02:21.736574  6391 net.cpp:380] conv2_1/x3_conv2_1/x3/scale_0_split -> conv2_1/x3_conv2_1/x3/scale_0_split_0
I1202 03:02:21.736591  6391 net.cpp:380] conv2_1/x3_conv2_1/x3/scale_0_split -> conv2_1/x3_conv2_1/x3/scale_0_split_1
I1202 03:02:21.736660  6391 net.cpp:122] Setting up conv2_1/x3_conv2_1/x3/scale_0_split
I1202 03:02:21.736675  6391 net.cpp:129] Top shape: 15 256 56 56 (12042240)
I1202 03:02:21.736685  6391 net.cpp:129] Top shape: 15 256 56 56 (12042240)
I1202 03:02:21.736694  6391 net.cpp:137] Memory required for data: 719523900
I1202 03:02:21.736702  6391 layer_factory.hpp:77] Creating layer pool2_1/gap
I1202 03:02:21.736716  6391 net.cpp:84] Creating Layer pool2_1/gap
I1202 03:02:21.736726  6391 net.cpp:406] pool2_1/gap <- conv2_1/x3_conv2_1/x3/scale_0_split_0
I1202 03:02:21.736742  6391 net.cpp:380] pool2_1/gap -> pool2_1/gap
I1202 03:02:21.738183  6391 net.cpp:122] Setting up pool2_1/gap
I1202 03:02:21.738214  6391 net.cpp:129] Top shape: 15 256 1 1 (3840)
I1202 03:02:21.738224  6391 net.cpp:137] Memory required for data: 719539260
I1202 03:02:21.738234  6391 layer_factory.hpp:77] Creating layer fc2_1/sqz
I1202 03:02:21.738268  6391 net.cpp:84] Creating Layer fc2_1/sqz
I1202 03:02:21.738279  6391 net.cpp:406] fc2_1/sqz <- pool2_1/gap
I1202 03:02:21.738294  6391 net.cpp:380] fc2_1/sqz -> fc2_1/sqz
I1202 03:02:21.738672  6391 net.cpp:122] Setting up fc2_1/sqz
I1202 03:02:21.738692  6391 net.cpp:129] Top shape: 15 16 (240)
I1202 03:02:21.738699  6391 net.cpp:137] Memory required for data: 719540220
I1202 03:02:21.738715  6391 layer_factory.hpp:77] Creating layer relu2_1/sqz
I1202 03:02:21.738730  6391 net.cpp:84] Creating Layer relu2_1/sqz
I1202 03:02:21.738739  6391 net.cpp:406] relu2_1/sqz <- fc2_1/sqz
I1202 03:02:21.738768  6391 net.cpp:367] relu2_1/sqz -> fc2_1/sqz (in-place)
I1202 03:02:21.739114  6391 net.cpp:122] Setting up relu2_1/sqz
I1202 03:02:21.739152  6391 net.cpp:129] Top shape: 15 16 (240)
I1202 03:02:21.739161  6391 net.cpp:137] Memory required for data: 719541180
I1202 03:02:21.739171  6391 layer_factory.hpp:77] Creating layer fc2_1/exc
I1202 03:02:21.739187  6391 net.cpp:84] Creating Layer fc2_1/exc
I1202 03:02:21.739198  6391 net.cpp:406] fc2_1/exc <- fc2_1/sqz
I1202 03:02:21.739213  6391 net.cpp:380] fc2_1/exc -> fc2_1/exc
I1202 03:02:21.739507  6391 net.cpp:122] Setting up fc2_1/exc
I1202 03:02:21.739524  6391 net.cpp:129] Top shape: 15 256 (3840)
I1202 03:02:21.739534  6391 net.cpp:137] Memory required for data: 719556540
I1202 03:02:21.739558  6391 layer_factory.hpp:77] Creating layer sigm2_1/gate
I1202 03:02:21.739573  6391 net.cpp:84] Creating Layer sigm2_1/gate
I1202 03:02:21.739581  6391 net.cpp:406] sigm2_1/gate <- fc2_1/exc
I1202 03:02:21.739595  6391 net.cpp:367] sigm2_1/gate -> fc2_1/exc (in-place)
I1202 03:02:21.739953  6391 net.cpp:122] Setting up sigm2_1/gate
I1202 03:02:21.739974  6391 net.cpp:129] Top shape: 15 256 (3840)
I1202 03:02:21.739982  6391 net.cpp:137] Memory required for data: 719571900
I1202 03:02:21.739994  6391 layer_factory.hpp:77] Creating layer scale2_1
I1202 03:02:21.740022  6391 net.cpp:84] Creating Layer scale2_1
I1202 03:02:21.740033  6391 net.cpp:406] scale2_1 <- conv2_1/x3_conv2_1/x3/scale_0_split_1
I1202 03:02:21.740046  6391 net.cpp:406] scale2_1 <- fc2_1/exc
I1202 03:02:21.740061  6391 net.cpp:380] scale2_1 -> scale2_1
I1202 03:02:21.740205  6391 net.cpp:122] Setting up scale2_1
I1202 03:02:21.740222  6391 net.cpp:129] Top shape: 15 256 56 56 (12042240)
I1202 03:02:21.740231  6391 net.cpp:137] Memory required for data: 767740860
I1202 03:02:21.740242  6391 layer_factory.hpp:77] Creating layer block_2_1
I1202 03:02:21.740254  6391 net.cpp:84] Creating Layer block_2_1
I1202 03:02:21.740263  6391 net.cpp:406] block_2_1 <- conv2_1/prj
I1202 03:02:21.740288  6391 net.cpp:406] block_2_1 <- scale2_1
I1202 03:02:21.740303  6391 net.cpp:380] block_2_1 -> block_2_1
I1202 03:02:21.740360  6391 net.cpp:122] Setting up block_2_1
I1202 03:02:21.740377  6391 net.cpp:129] Top shape: 15 256 56 56 (12042240)
I1202 03:02:21.740386  6391 net.cpp:137] Memory required for data: 815909820
I1202 03:02:21.740396  6391 layer_factory.hpp:77] Creating layer relu2_1
I1202 03:02:21.740409  6391 net.cpp:84] Creating Layer relu2_1
I1202 03:02:21.740418  6391 net.cpp:406] relu2_1 <- block_2_1
I1202 03:02:21.740432  6391 net.cpp:367] relu2_1 -> block_2_1 (in-place)
I1202 03:02:21.741829  6391 net.cpp:122] Setting up relu2_1
I1202 03:02:21.741858  6391 net.cpp:129] Top shape: 15 256 56 56 (12042240)
I1202 03:02:21.741868  6391 net.cpp:137] Memory required for data: 864078780
I1202 03:02:21.741876  6391 layer_factory.hpp:77] Creating layer block_2_1_relu2_1_0_split
I1202 03:02:21.741892  6391 net.cpp:84] Creating Layer block_2_1_relu2_1_0_split
I1202 03:02:21.741901  6391 net.cpp:406] block_2_1_relu2_1_0_split <- block_2_1
I1202 03:02:21.741916  6391 net.cpp:380] block_2_1_relu2_1_0_split -> block_2_1_relu2_1_0_split_0
I1202 03:02:21.741935  6391 net.cpp:380] block_2_1_relu2_1_0_split -> block_2_1_relu2_1_0_split_1
I1202 03:02:21.742017  6391 net.cpp:122] Setting up block_2_1_relu2_1_0_split
I1202 03:02:21.742031  6391 net.cpp:129] Top shape: 15 256 56 56 (12042240)
I1202 03:02:21.742043  6391 net.cpp:129] Top shape: 15 256 56 56 (12042240)
I1202 03:02:21.742050  6391 net.cpp:137] Memory required for data: 960416700
I1202 03:02:21.742084  6391 layer_factory.hpp:77] Creating layer conv2_2/x1
I1202 03:02:21.742107  6391 net.cpp:84] Creating Layer conv2_2/x1
I1202 03:02:21.742117  6391 net.cpp:406] conv2_2/x1 <- block_2_1_relu2_1_0_split_0
I1202 03:02:21.742133  6391 net.cpp:380] conv2_2/x1 -> conv2_2/x1
I1202 03:02:21.743947  6391 net.cpp:122] Setting up conv2_2/x1
I1202 03:02:21.743974  6391 net.cpp:129] Top shape: 15 64 56 56 (3010560)
I1202 03:02:21.743984  6391 net.cpp:137] Memory required for data: 972458940
I1202 03:02:21.743998  6391 layer_factory.hpp:77] Creating layer conv2_2/x1/bn
I1202 03:02:21.744035  6391 net.cpp:84] Creating Layer conv2_2/x1/bn
I1202 03:02:21.744063  6391 net.cpp:406] conv2_2/x1/bn <- conv2_2/x1
I1202 03:02:21.744091  6391 net.cpp:367] conv2_2/x1/bn -> conv2_2/x1 (in-place)
I1202 03:02:21.744479  6391 net.cpp:122] Setting up conv2_2/x1/bn
I1202 03:02:21.744499  6391 net.cpp:129] Top shape: 15 64 56 56 (3010560)
I1202 03:02:21.744508  6391 net.cpp:137] Memory required for data: 984501180
I1202 03:02:21.744525  6391 layer_factory.hpp:77] Creating layer conv2_2/x1/scale
I1202 03:02:21.744539  6391 net.cpp:84] Creating Layer conv2_2/x1/scale
I1202 03:02:21.744550  6391 net.cpp:406] conv2_2/x1/scale <- conv2_2/x1
I1202 03:02:21.744565  6391 net.cpp:367] conv2_2/x1/scale -> conv2_2/x1 (in-place)
I1202 03:02:21.744638  6391 layer_factory.hpp:77] Creating layer conv2_2/x1/scale
I1202 03:02:21.744870  6391 net.cpp:122] Setting up conv2_2/x1/scale
I1202 03:02:21.744889  6391 net.cpp:129] Top shape: 15 64 56 56 (3010560)
I1202 03:02:21.744897  6391 net.cpp:137] Memory required for data: 996543420
I1202 03:02:21.744910  6391 layer_factory.hpp:77] Creating layer relu2_2/x1
I1202 03:02:21.744922  6391 net.cpp:84] Creating Layer relu2_2/x1
I1202 03:02:21.744933  6391 net.cpp:406] relu2_2/x1 <- conv2_2/x1
I1202 03:02:21.744947  6391 net.cpp:367] relu2_2/x1 -> conv2_2/x1 (in-place)
I1202 03:02:21.746366  6391 net.cpp:122] Setting up relu2_2/x1
I1202 03:02:21.746398  6391 net.cpp:129] Top shape: 15 64 56 56 (3010560)
I1202 03:02:21.746409  6391 net.cpp:137] Memory required for data: 1008585660
I1202 03:02:21.746431  6391 layer_factory.hpp:77] Creating layer conv2_2/x2
I1202 03:02:21.746453  6391 net.cpp:84] Creating Layer conv2_2/x2
I1202 03:02:21.746462  6391 net.cpp:406] conv2_2/x2 <- conv2_2/x1
I1202 03:02:21.746481  6391 net.cpp:380] conv2_2/x2 -> conv2_2/x2
I1202 03:02:21.751428  6391 net.cpp:122] Setting up conv2_2/x2
I1202 03:02:21.751459  6391 net.cpp:129] Top shape: 15 64 56 56 (3010560)
I1202 03:02:21.751468  6391 net.cpp:137] Memory required for data: 1020627900
I1202 03:02:21.751482  6391 layer_factory.hpp:77] Creating layer conv2_2/x2/bn
I1202 03:02:21.751499  6391 net.cpp:84] Creating Layer conv2_2/x2/bn
I1202 03:02:21.751508  6391 net.cpp:406] conv2_2/x2/bn <- conv2_2/x2
I1202 03:02:21.751534  6391 net.cpp:367] conv2_2/x2/bn -> conv2_2/x2 (in-place)
I1202 03:02:21.751925  6391 net.cpp:122] Setting up conv2_2/x2/bn
I1202 03:02:21.751942  6391 net.cpp:129] Top shape: 15 64 56 56 (3010560)
I1202 03:02:21.751951  6391 net.cpp:137] Memory required for data: 1032670140
I1202 03:02:21.751966  6391 layer_factory.hpp:77] Creating layer conv2_2/x2/scale
I1202 03:02:21.751986  6391 net.cpp:84] Creating Layer conv2_2/x2/scale
I1202 03:02:21.751996  6391 net.cpp:406] conv2_2/x2/scale <- conv2_2/x2
I1202 03:02:21.752007  6391 net.cpp:367] conv2_2/x2/scale -> conv2_2/x2 (in-place)
I1202 03:02:21.752079  6391 layer_factory.hpp:77] Creating layer conv2_2/x2/scale
I1202 03:02:21.752313  6391 net.cpp:122] Setting up conv2_2/x2/scale
I1202 03:02:21.752329  6391 net.cpp:129] Top shape: 15 64 56 56 (3010560)
I1202 03:02:21.752337  6391 net.cpp:137] Memory required for data: 1044712380
I1202 03:02:21.752351  6391 layer_factory.hpp:77] Creating layer relu2_2/x2
I1202 03:02:21.752375  6391 net.cpp:84] Creating Layer relu2_2/x2
I1202 03:02:21.752384  6391 net.cpp:406] relu2_2/x2 <- conv2_2/x2
I1202 03:02:21.752395  6391 net.cpp:367] relu2_2/x2 -> conv2_2/x2 (in-place)
I1202 03:02:21.752717  6391 net.cpp:122] Setting up relu2_2/x2
I1202 03:02:21.752737  6391 net.cpp:129] Top shape: 15 64 56 56 (3010560)
I1202 03:02:21.752745  6391 net.cpp:137] Memory required for data: 1056754620
I1202 03:02:21.752754  6391 layer_factory.hpp:77] Creating layer conv2_2/x3
I1202 03:02:21.752775  6391 net.cpp:84] Creating Layer conv2_2/x3
I1202 03:02:21.752785  6391 net.cpp:406] conv2_2/x3 <- conv2_2/x2
I1202 03:02:21.752799  6391 net.cpp:380] conv2_2/x3 -> conv2_2/x3
I1202 03:02:21.755496  6391 net.cpp:122] Setting up conv2_2/x3
I1202 03:02:21.755524  6391 net.cpp:129] Top shape: 15 256 56 56 (12042240)
I1202 03:02:21.755534  6391 net.cpp:137] Memory required for data: 1104923580
I1202 03:02:21.755570  6391 layer_factory.hpp:77] Creating layer conv2_2/x3/bn
I1202 03:02:21.755589  6391 net.cpp:84] Creating Layer conv2_2/x3/bn
I1202 03:02:21.755599  6391 net.cpp:406] conv2_2/x3/bn <- conv2_2/x3
I1202 03:02:21.755625  6391 net.cpp:367] conv2_2/x3/bn -> conv2_2/x3 (in-place)
I1202 03:02:21.756014  6391 net.cpp:122] Setting up conv2_2/x3/bn
I1202 03:02:21.756033  6391 net.cpp:129] Top shape: 15 256 56 56 (12042240)
I1202 03:02:21.756042  6391 net.cpp:137] Memory required for data: 1153092540
I1202 03:02:21.756058  6391 layer_factory.hpp:77] Creating layer conv2_2/x3/scale
I1202 03:02:21.756073  6391 net.cpp:84] Creating Layer conv2_2/x3/scale
I1202 03:02:21.756083  6391 net.cpp:406] conv2_2/x3/scale <- conv2_2/x3
I1202 03:02:21.756094  6391 net.cpp:367] conv2_2/x3/scale -> conv2_2/x3 (in-place)
I1202 03:02:21.756168  6391 layer_factory.hpp:77] Creating layer conv2_2/x3/scale
I1202 03:02:21.756381  6391 net.cpp:122] Setting up conv2_2/x3/scale
I1202 03:02:21.756398  6391 net.cpp:129] Top shape: 15 256 56 56 (12042240)
I1202 03:02:21.756407  6391 net.cpp:137] Memory required for data: 1201261500
I1202 03:02:21.756429  6391 layer_factory.hpp:77] Creating layer conv2_2/x3_conv2_2/x3/scale_0_split
I1202 03:02:21.756445  6391 net.cpp:84] Creating Layer conv2_2/x3_conv2_2/x3/scale_0_split
I1202 03:02:21.756454  6391 net.cpp:406] conv2_2/x3_conv2_2/x3/scale_0_split <- conv2_2/x3
I1202 03:02:21.756466  6391 net.cpp:380] conv2_2/x3_conv2_2/x3/scale_0_split -> conv2_2/x3_conv2_2/x3/scale_0_split_0
I1202 03:02:21.756482  6391 net.cpp:380] conv2_2/x3_conv2_2/x3/scale_0_split -> conv2_2/x3_conv2_2/x3/scale_0_split_1
I1202 03:02:21.756553  6391 net.cpp:122] Setting up conv2_2/x3_conv2_2/x3/scale_0_split
I1202 03:02:21.756567  6391 net.cpp:129] Top shape: 15 256 56 56 (12042240)
I1202 03:02:21.756577  6391 net.cpp:129] Top shape: 15 256 56 56 (12042240)
I1202 03:02:21.756587  6391 net.cpp:137] Memory required for data: 1297599420
I1202 03:02:21.756594  6391 layer_factory.hpp:77] Creating layer pool2_2/gap
I1202 03:02:21.756606  6391 net.cpp:84] Creating Layer pool2_2/gap
I1202 03:02:21.756615  6391 net.cpp:406] pool2_2/gap <- conv2_2/x3_conv2_2/x3/scale_0_split_0
I1202 03:02:21.756629  6391 net.cpp:380] pool2_2/gap -> pool2_2/gap
I1202 03:02:21.756994  6391 net.cpp:122] Setting up pool2_2/gap
I1202 03:02:21.757014  6391 net.cpp:129] Top shape: 15 256 1 1 (3840)
I1202 03:02:21.757021  6391 net.cpp:137] Memory required for data: 1297614780
I1202 03:02:21.757030  6391 layer_factory.hpp:77] Creating layer fc2_2/sqz
I1202 03:02:21.757047  6391 net.cpp:84] Creating Layer fc2_2/sqz
I1202 03:02:21.757057  6391 net.cpp:406] fc2_2/sqz <- pool2_2/gap
I1202 03:02:21.757072  6391 net.cpp:380] fc2_2/sqz -> fc2_2/sqz
I1202 03:02:21.757367  6391 net.cpp:122] Setting up fc2_2/sqz
I1202 03:02:21.757385  6391 net.cpp:129] Top shape: 15 16 (240)
I1202 03:02:21.757391  6391 net.cpp:137] Memory required for data: 1297615740
I1202 03:02:21.757405  6391 layer_factory.hpp:77] Creating layer relu2_2/sqz
I1202 03:02:21.757417  6391 net.cpp:84] Creating Layer relu2_2/sqz
I1202 03:02:21.757426  6391 net.cpp:406] relu2_2/sqz <- fc2_2/sqz
I1202 03:02:21.757437  6391 net.cpp:367] relu2_2/sqz -> fc2_2/sqz (in-place)
I1202 03:02:21.757751  6391 net.cpp:122] Setting up relu2_2/sqz
I1202 03:02:21.757771  6391 net.cpp:129] Top shape: 15 16 (240)
I1202 03:02:21.757779  6391 net.cpp:137] Memory required for data: 1297616700
I1202 03:02:21.757797  6391 layer_factory.hpp:77] Creating layer fc2_2/exc
I1202 03:02:21.757812  6391 net.cpp:84] Creating Layer fc2_2/exc
I1202 03:02:21.757822  6391 net.cpp:406] fc2_2/exc <- fc2_2/sqz
I1202 03:02:21.757848  6391 net.cpp:380] fc2_2/exc -> fc2_2/exc
I1202 03:02:21.758127  6391 net.cpp:122] Setting up fc2_2/exc
I1202 03:02:21.758143  6391 net.cpp:129] Top shape: 15 256 (3840)
I1202 03:02:21.758152  6391 net.cpp:137] Memory required for data: 1297632060
I1202 03:02:21.758164  6391 layer_factory.hpp:77] Creating layer sigm2_2/gate
I1202 03:02:21.758178  6391 net.cpp:84] Creating Layer sigm2_2/gate
I1202 03:02:21.758195  6391 net.cpp:406] sigm2_2/gate <- fc2_2/exc
I1202 03:02:21.758224  6391 net.cpp:367] sigm2_2/gate -> fc2_2/exc (in-place)
I1202 03:02:21.759543  6391 net.cpp:122] Setting up sigm2_2/gate
I1202 03:02:21.759570  6391 net.cpp:129] Top shape: 15 256 (3840)
I1202 03:02:21.759578  6391 net.cpp:137] Memory required for data: 1297647420
I1202 03:02:21.759588  6391 layer_factory.hpp:77] Creating layer scale2_2
I1202 03:02:21.759608  6391 net.cpp:84] Creating Layer scale2_2
I1202 03:02:21.759618  6391 net.cpp:406] scale2_2 <- conv2_2/x3_conv2_2/x3/scale_0_split_1
I1202 03:02:21.759629  6391 net.cpp:406] scale2_2 <- fc2_2/exc
I1202 03:02:21.759644  6391 net.cpp:380] scale2_2 -> scale2_2
I1202 03:02:21.759773  6391 net.cpp:122] Setting up scale2_2
I1202 03:02:21.759791  6391 net.cpp:129] Top shape: 15 256 56 56 (12042240)
I1202 03:02:21.759825  6391 net.cpp:137] Memory required for data: 1345816380
I1202 03:02:21.759835  6391 layer_factory.hpp:77] Creating layer block_2_2
I1202 03:02:21.759846  6391 net.cpp:84] Creating Layer block_2_2
I1202 03:02:21.759855  6391 net.cpp:406] block_2_2 <- block_2_1_relu2_1_0_split_1
I1202 03:02:21.759877  6391 net.cpp:406] block_2_2 <- scale2_2
I1202 03:02:21.759891  6391 net.cpp:380] block_2_2 -> block_2_2
I1202 03:02:21.759938  6391 net.cpp:122] Setting up block_2_2
I1202 03:02:21.759953  6391 net.cpp:129] Top shape: 15 256 56 56 (12042240)
I1202 03:02:21.759959  6391 net.cpp:137] Memory required for data: 1393985340
I1202 03:02:21.759979  6391 layer_factory.hpp:77] Creating layer relu2_2
I1202 03:02:21.759990  6391 net.cpp:84] Creating Layer relu2_2
I1202 03:02:21.759999  6391 net.cpp:406] relu2_2 <- block_2_2
I1202 03:02:21.760018  6391 net.cpp:367] relu2_2 -> block_2_2 (in-place)
I1202 03:02:21.760331  6391 net.cpp:122] Setting up relu2_2
I1202 03:02:21.760350  6391 net.cpp:129] Top shape: 15 256 56 56 (12042240)
I1202 03:02:21.760357  6391 net.cpp:137] Memory required for data: 1442154300
I1202 03:02:21.760365  6391 layer_factory.hpp:77] Creating layer block_2_2_relu2_2_0_split
I1202 03:02:21.760380  6391 net.cpp:84] Creating Layer block_2_2_relu2_2_0_split
I1202 03:02:21.760388  6391 net.cpp:406] block_2_2_relu2_2_0_split <- block_2_2
I1202 03:02:21.760401  6391 net.cpp:380] block_2_2_relu2_2_0_split -> block_2_2_relu2_2_0_split_0
I1202 03:02:21.760414  6391 net.cpp:380] block_2_2_relu2_2_0_split -> block_2_2_relu2_2_0_split_1
I1202 03:02:21.760485  6391 net.cpp:122] Setting up block_2_2_relu2_2_0_split
I1202 03:02:21.760499  6391 net.cpp:129] Top shape: 15 256 56 56 (12042240)
I1202 03:02:21.760509  6391 net.cpp:129] Top shape: 15 256 56 56 (12042240)
I1202 03:02:21.760515  6391 net.cpp:137] Memory required for data: 1538492220
I1202 03:02:21.760524  6391 layer_factory.hpp:77] Creating layer conv2_3/x1
I1202 03:02:21.760541  6391 net.cpp:84] Creating Layer conv2_3/x1
I1202 03:02:21.760550  6391 net.cpp:406] conv2_3/x1 <- block_2_2_relu2_2_0_split_0
I1202 03:02:21.760565  6391 net.cpp:380] conv2_3/x1 -> conv2_3/x1
I1202 03:02:21.763085  6391 net.cpp:122] Setting up conv2_3/x1
I1202 03:02:21.763111  6391 net.cpp:129] Top shape: 15 64 56 56 (3010560)
I1202 03:02:21.763120  6391 net.cpp:137] Memory required for data: 1550534460
I1202 03:02:21.763133  6391 layer_factory.hpp:77] Creating layer conv2_3/x1/bn
I1202 03:02:21.763164  6391 net.cpp:84] Creating Layer conv2_3/x1/bn
I1202 03:02:21.763173  6391 net.cpp:406] conv2_3/x1/bn <- conv2_3/x1
I1202 03:02:21.763187  6391 net.cpp:367] conv2_3/x1/bn -> conv2_3/x1 (in-place)
I1202 03:02:21.763528  6391 net.cpp:122] Setting up conv2_3/x1/bn
I1202 03:02:21.763545  6391 net.cpp:129] Top shape: 15 64 56 56 (3010560)
I1202 03:02:21.763553  6391 net.cpp:137] Memory required for data: 1562576700
I1202 03:02:21.763568  6391 layer_factory.hpp:77] Creating layer conv2_3/x1/scale
I1202 03:02:21.763583  6391 net.cpp:84] Creating Layer conv2_3/x1/scale
I1202 03:02:21.763592  6391 net.cpp:406] conv2_3/x1/scale <- conv2_3/x1
I1202 03:02:21.763614  6391 net.cpp:367] conv2_3/x1/scale -> conv2_3/x1 (in-place)
I1202 03:02:21.763695  6391 layer_factory.hpp:77] Creating layer conv2_3/x1/scale
I1202 03:02:21.763945  6391 net.cpp:122] Setting up conv2_3/x1/scale
I1202 03:02:21.763964  6391 net.cpp:129] Top shape: 15 64 56 56 (3010560)
I1202 03:02:21.763972  6391 net.cpp:137] Memory required for data: 1574618940
I1202 03:02:21.763984  6391 layer_factory.hpp:77] Creating layer relu2_3/x1
I1202 03:02:21.763998  6391 net.cpp:84] Creating Layer relu2_3/x1
I1202 03:02:21.764008  6391 net.cpp:406] relu2_3/x1 <- conv2_3/x1
I1202 03:02:21.764019  6391 net.cpp:367] relu2_3/x1 -> conv2_3/x1 (in-place)
I1202 03:02:21.764344  6391 net.cpp:122] Setting up relu2_3/x1
I1202 03:02:21.764364  6391 net.cpp:129] Top shape: 15 64 56 56 (3010560)
I1202 03:02:21.764372  6391 net.cpp:137] Memory required for data: 1586661180
I1202 03:02:21.764380  6391 layer_factory.hpp:77] Creating layer conv2_3/x2
I1202 03:02:21.764397  6391 net.cpp:84] Creating Layer conv2_3/x2
I1202 03:02:21.764406  6391 net.cpp:406] conv2_3/x2 <- conv2_3/x1
I1202 03:02:21.764434  6391 net.cpp:380] conv2_3/x2 -> conv2_3/x2
I1202 03:02:21.767407  6391 net.cpp:122] Setting up conv2_3/x2
I1202 03:02:21.767436  6391 net.cpp:129] Top shape: 15 64 56 56 (3010560)
I1202 03:02:21.767443  6391 net.cpp:137] Memory required for data: 1598703420
I1202 03:02:21.767467  6391 layer_factory.hpp:77] Creating layer conv2_3/x2/bn
I1202 03:02:21.767484  6391 net.cpp:84] Creating Layer conv2_3/x2/bn
I1202 03:02:21.767493  6391 net.cpp:406] conv2_3/x2/bn <- conv2_3/x2
I1202 03:02:21.767506  6391 net.cpp:367] conv2_3/x2/bn -> conv2_3/x2 (in-place)
I1202 03:02:21.767879  6391 net.cpp:122] Setting up conv2_3/x2/bn
I1202 03:02:21.767895  6391 net.cpp:129] Top shape: 15 64 56 56 (3010560)
I1202 03:02:21.767904  6391 net.cpp:137] Memory required for data: 1610745660
I1202 03:02:21.767931  6391 layer_factory.hpp:77] Creating layer conv2_3/x2/scale
I1202 03:02:21.767951  6391 net.cpp:84] Creating Layer conv2_3/x2/scale
I1202 03:02:21.767958  6391 net.cpp:406] conv2_3/x2/scale <- conv2_3/x2
I1202 03:02:21.767980  6391 net.cpp:367] conv2_3/x2/scale -> conv2_3/x2 (in-place)
I1202 03:02:21.768056  6391 layer_factory.hpp:77] Creating layer conv2_3/x2/scale
I1202 03:02:21.768275  6391 net.cpp:122] Setting up conv2_3/x2/scale
I1202 03:02:21.768290  6391 net.cpp:129] Top shape: 15 64 56 56 (3010560)
I1202 03:02:21.768297  6391 net.cpp:137] Memory required for data: 1622787900
I1202 03:02:21.768309  6391 layer_factory.hpp:77] Creating layer relu2_3/x2
I1202 03:02:21.768321  6391 net.cpp:84] Creating Layer relu2_3/x2
I1202 03:02:21.768329  6391 net.cpp:406] relu2_3/x2 <- conv2_3/x2
I1202 03:02:21.768339  6391 net.cpp:367] relu2_3/x2 -> conv2_3/x2 (in-place)
I1202 03:02:21.770159  6391 net.cpp:122] Setting up relu2_3/x2
I1202 03:02:21.770187  6391 net.cpp:129] Top shape: 15 64 56 56 (3010560)
I1202 03:02:21.770196  6391 net.cpp:137] Memory required for data: 1634830140
I1202 03:02:21.770205  6391 layer_factory.hpp:77] Creating layer conv2_3/x3
I1202 03:02:21.770220  6391 net.cpp:84] Creating Layer conv2_3/x3
I1202 03:02:21.770231  6391 net.cpp:406] conv2_3/x3 <- conv2_3/x2
I1202 03:02:21.770256  6391 net.cpp:380] conv2_3/x3 -> conv2_3/x3
I1202 03:02:21.772809  6391 net.cpp:122] Setting up conv2_3/x3
I1202 03:02:21.772835  6391 net.cpp:129] Top shape: 15 256 56 56 (12042240)
I1202 03:02:21.772845  6391 net.cpp:137] Memory required for data: 1682999100
I1202 03:02:21.772867  6391 layer_factory.hpp:77] Creating layer conv2_3/x3/bn
I1202 03:02:21.772883  6391 net.cpp:84] Creating Layer conv2_3/x3/bn
I1202 03:02:21.772891  6391 net.cpp:406] conv2_3/x3/bn <- conv2_3/x3
I1202 03:02:21.772903  6391 net.cpp:367] conv2_3/x3/bn -> conv2_3/x3 (in-place)
I1202 03:02:21.773222  6391 net.cpp:122] Setting up conv2_3/x3/bn
I1202 03:02:21.773236  6391 net.cpp:129] Top shape: 15 256 56 56 (12042240)
I1202 03:02:21.773244  6391 net.cpp:137] Memory required for data: 1731168060
I1202 03:02:21.773258  6391 layer_factory.hpp:77] Creating layer conv2_3/x3/scale
I1202 03:02:21.773270  6391 net.cpp:84] Creating Layer conv2_3/x3/scale
I1202 03:02:21.773291  6391 net.cpp:406] conv2_3/x3/scale <- conv2_3/x3
I1202 03:02:21.773324  6391 net.cpp:367] conv2_3/x3/scale -> conv2_3/x3 (in-place)
I1202 03:02:21.773393  6391 layer_factory.hpp:77] Creating layer conv2_3/x3/scale
I1202 03:02:21.773586  6391 net.cpp:122] Setting up conv2_3/x3/scale
I1202 03:02:21.773600  6391 net.cpp:129] Top shape: 15 256 56 56 (12042240)
I1202 03:02:21.773607  6391 net.cpp:137] Memory required for data: 1779337020
I1202 03:02:21.773620  6391 layer_factory.hpp:77] Creating layer conv2_3/x3_conv2_3/x3/scale_0_split
I1202 03:02:21.773633  6391 net.cpp:84] Creating Layer conv2_3/x3_conv2_3/x3/scale_0_split
I1202 03:02:21.773641  6391 net.cpp:406] conv2_3/x3_conv2_3/x3/scale_0_split <- conv2_3/x3
I1202 03:02:21.773651  6391 net.cpp:380] conv2_3/x3_conv2_3/x3/scale_0_split -> conv2_3/x3_conv2_3/x3/scale_0_split_0
I1202 03:02:21.773666  6391 net.cpp:380] conv2_3/x3_conv2_3/x3/scale_0_split -> conv2_3/x3_conv2_3/x3/scale_0_split_1
I1202 03:02:21.773737  6391 net.cpp:122] Setting up conv2_3/x3_conv2_3/x3/scale_0_split
I1202 03:02:21.773751  6391 net.cpp:129] Top shape: 15 256 56 56 (12042240)
I1202 03:02:21.773758  6391 net.cpp:129] Top shape: 15 256 56 56 (12042240)
I1202 03:02:21.773766  6391 net.cpp:137] Memory required for data: 1875674940
I1202 03:02:21.773773  6391 layer_factory.hpp:77] Creating layer pool2_3/gap
I1202 03:02:21.773797  6391 net.cpp:84] Creating Layer pool2_3/gap
I1202 03:02:21.773807  6391 net.cpp:406] pool2_3/gap <- conv2_3/x3_conv2_3/x3/scale_0_split_0
I1202 03:02:21.773819  6391 net.cpp:380] pool2_3/gap -> pool2_3/gap
I1202 03:02:21.774145  6391 net.cpp:122] Setting up pool2_3/gap
I1202 03:02:21.774164  6391 net.cpp:129] Top shape: 15 256 1 1 (3840)
I1202 03:02:21.774171  6391 net.cpp:137] Memory required for data: 1875690300
I1202 03:02:21.774191  6391 layer_factory.hpp:77] Creating layer fc2_3/sqz
I1202 03:02:21.774206  6391 net.cpp:84] Creating Layer fc2_3/sqz
I1202 03:02:21.774215  6391 net.cpp:406] fc2_3/sqz <- pool2_3/gap
I1202 03:02:21.774226  6391 net.cpp:380] fc2_3/sqz -> fc2_3/sqz
I1202 03:02:21.774492  6391 net.cpp:122] Setting up fc2_3/sqz
I1202 03:02:21.774505  6391 net.cpp:129] Top shape: 15 16 (240)
I1202 03:02:21.774513  6391 net.cpp:137] Memory required for data: 1875691260
I1202 03:02:21.774523  6391 layer_factory.hpp:77] Creating layer relu2_3/sqz
I1202 03:02:21.774535  6391 net.cpp:84] Creating Layer relu2_3/sqz
I1202 03:02:21.774543  6391 net.cpp:406] relu2_3/sqz <- fc2_3/sqz
I1202 03:02:21.774554  6391 net.cpp:367] relu2_3/sqz -> fc2_3/sqz (in-place)
I1202 03:02:21.776600  6391 net.cpp:122] Setting up relu2_3/sqz
I1202 03:02:21.776625  6391 net.cpp:129] Top shape: 15 16 (240)
I1202 03:02:21.776633  6391 net.cpp:137] Memory required for data: 1875692220
I1202 03:02:21.776640  6391 layer_factory.hpp:77] Creating layer fc2_3/exc
I1202 03:02:21.776656  6391 net.cpp:84] Creating Layer fc2_3/exc
I1202 03:02:21.776666  6391 net.cpp:406] fc2_3/exc <- fc2_3/sqz
I1202 03:02:21.776684  6391 net.cpp:380] fc2_3/exc -> fc2_3/exc
I1202 03:02:21.776947  6391 net.cpp:122] Setting up fc2_3/exc
I1202 03:02:21.776962  6391 net.cpp:129] Top shape: 15 256 (3840)
I1202 03:02:21.776970  6391 net.cpp:137] Memory required for data: 1875707580
I1202 03:02:21.776983  6391 layer_factory.hpp:77] Creating layer sigm2_3/gate
I1202 03:02:21.777005  6391 net.cpp:84] Creating Layer sigm2_3/gate
I1202 03:02:21.777014  6391 net.cpp:406] sigm2_3/gate <- fc2_3/exc
I1202 03:02:21.777026  6391 net.cpp:367] sigm2_3/gate -> fc2_3/exc (in-place)
I1202 03:02:21.777324  6391 net.cpp:122] Setting up sigm2_3/gate
I1202 03:02:21.777341  6391 net.cpp:129] Top shape: 15 256 (3840)
I1202 03:02:21.777348  6391 net.cpp:137] Memory required for data: 1875722940
I1202 03:02:21.777357  6391 layer_factory.hpp:77] Creating layer scale2_3
I1202 03:02:21.777371  6391 net.cpp:84] Creating Layer scale2_3
I1202 03:02:21.777379  6391 net.cpp:406] scale2_3 <- conv2_3/x3_conv2_3/x3/scale_0_split_1
I1202 03:02:21.777389  6391 net.cpp:406] scale2_3 <- fc2_3/exc
I1202 03:02:21.777400  6391 net.cpp:380] scale2_3 -> scale2_3
I1202 03:02:21.777521  6391 net.cpp:122] Setting up scale2_3
I1202 03:02:21.777551  6391 net.cpp:129] Top shape: 15 256 56 56 (12042240)
I1202 03:02:21.777559  6391 net.cpp:137] Memory required for data: 1923891900
I1202 03:02:21.777566  6391 layer_factory.hpp:77] Creating layer block_2_3
I1202 03:02:21.777576  6391 net.cpp:84] Creating Layer block_2_3
I1202 03:02:21.777587  6391 net.cpp:406] block_2_3 <- block_2_2_relu2_2_0_split_1
I1202 03:02:21.777597  6391 net.cpp:406] block_2_3 <- scale2_3
I1202 03:02:21.777608  6391 net.cpp:380] block_2_3 -> block_2_3
I1202 03:02:21.777650  6391 net.cpp:122] Setting up block_2_3
I1202 03:02:21.777663  6391 net.cpp:129] Top shape: 15 256 56 56 (12042240)
I1202 03:02:21.777670  6391 net.cpp:137] Memory required for data: 1972060860
I1202 03:02:21.777678  6391 layer_factory.hpp:77] Creating layer relu2_3
I1202 03:02:21.777688  6391 net.cpp:84] Creating Layer relu2_3
I1202 03:02:21.777695  6391 net.cpp:406] relu2_3 <- block_2_3
I1202 03:02:21.777707  6391 net.cpp:367] relu2_3 -> block_2_3 (in-place)
I1202 03:02:21.777994  6391 net.cpp:122] Setting up relu2_3
I1202 03:02:21.778012  6391 net.cpp:129] Top shape: 15 256 56 56 (12042240)
I1202 03:02:21.778018  6391 net.cpp:137] Memory required for data: 2020229820
I1202 03:02:21.778035  6391 layer_factory.hpp:77] Creating layer block_2_3_relu2_3_0_split
I1202 03:02:21.778048  6391 net.cpp:84] Creating Layer block_2_3_relu2_3_0_split
I1202 03:02:21.778056  6391 net.cpp:406] block_2_3_relu2_3_0_split <- block_2_3
I1202 03:02:21.778069  6391 net.cpp:380] block_2_3_relu2_3_0_split -> block_2_3_relu2_3_0_split_0
I1202 03:02:21.778082  6391 net.cpp:380] block_2_3_relu2_3_0_split -> block_2_3_relu2_3_0_split_1
I1202 03:02:21.778152  6391 net.cpp:122] Setting up block_2_3_relu2_3_0_split
I1202 03:02:21.778165  6391 net.cpp:129] Top shape: 15 256 56 56 (12042240)
I1202 03:02:21.778174  6391 net.cpp:129] Top shape: 15 256 56 56 (12042240)
I1202 03:02:21.778180  6391 net.cpp:137] Memory required for data: 2116567740
I1202 03:02:21.778188  6391 layer_factory.hpp:77] Creating layer conv3_1/prj
I1202 03:02:21.778208  6391 net.cpp:84] Creating Layer conv3_1/prj
I1202 03:02:21.778215  6391 net.cpp:406] conv3_1/prj <- block_2_3_relu2_3_0_split_0
I1202 03:02:21.778228  6391 net.cpp:380] conv3_1/prj -> conv3_1/prj
I1202 03:02:21.786115  6391 net.cpp:122] Setting up conv3_1/prj
I1202 03:02:21.786149  6391 net.cpp:129] Top shape: 15 512 28 28 (6021120)
I1202 03:02:21.786157  6391 net.cpp:137] Memory required for data: 2140652220
I1202 03:02:21.786170  6391 layer_factory.hpp:77] Creating layer conv3_1/prj/bn
I1202 03:02:21.786187  6391 net.cpp:84] Creating Layer conv3_1/prj/bn
I1202 03:02:21.786196  6391 net.cpp:406] conv3_1/prj/bn <- conv3_1/prj
I1202 03:02:21.786211  6391 net.cpp:367] conv3_1/prj/bn -> conv3_1/prj (in-place)
I1202 03:02:21.788211  6391 net.cpp:122] Setting up conv3_1/prj/bn
I1202 03:02:21.788244  6391 net.cpp:129] Top shape: 15 512 28 28 (6021120)
I1202 03:02:21.788252  6391 net.cpp:137] Memory required for data: 2164736700
I1202 03:02:21.788270  6391 layer_factory.hpp:77] Creating layer conv3_1/prj/scale
I1202 03:02:21.788288  6391 net.cpp:84] Creating Layer conv3_1/prj/scale
I1202 03:02:21.788300  6391 net.cpp:406] conv3_1/prj/scale <- conv3_1/prj
I1202 03:02:21.788311  6391 net.cpp:367] conv3_1/prj/scale -> conv3_1/prj (in-place)
I1202 03:02:21.788411  6391 layer_factory.hpp:77] Creating layer conv3_1/prj/scale
I1202 03:02:21.788635  6391 net.cpp:122] Setting up conv3_1/prj/scale
I1202 03:02:21.788652  6391 net.cpp:129] Top shape: 15 512 28 28 (6021120)
I1202 03:02:21.788661  6391 net.cpp:137] Memory required for data: 2188821180
I1202 03:02:21.788672  6391 layer_factory.hpp:77] Creating layer conv3_1/x1
I1202 03:02:21.788696  6391 net.cpp:84] Creating Layer conv3_1/x1
I1202 03:02:21.788707  6391 net.cpp:406] conv3_1/x1 <- block_2_3_relu2_3_0_split_1
I1202 03:02:21.788720  6391 net.cpp:380] conv3_1/x1 -> conv3_1/x1
I1202 03:02:21.792342  6391 net.cpp:122] Setting up conv3_1/x1
I1202 03:02:21.792374  6391 net.cpp:129] Top shape: 15 128 56 56 (6021120)
I1202 03:02:21.792394  6391 net.cpp:137] Memory required for data: 2212905660
I1202 03:02:21.792429  6391 layer_factory.hpp:77] Creating layer conv3_1/x1/bn
I1202 03:02:21.792451  6391 net.cpp:84] Creating Layer conv3_1/x1/bn
I1202 03:02:21.792461  6391 net.cpp:406] conv3_1/x1/bn <- conv3_1/x1
I1202 03:02:21.792475  6391 net.cpp:367] conv3_1/x1/bn -> conv3_1/x1 (in-place)
I1202 03:02:21.792922  6391 net.cpp:122] Setting up conv3_1/x1/bn
I1202 03:02:21.792937  6391 net.cpp:129] Top shape: 15 128 56 56 (6021120)
I1202 03:02:21.792945  6391 net.cpp:137] Memory required for data: 2236990140
I1202 03:02:21.792963  6391 layer_factory.hpp:77] Creating layer conv3_1/x1/scale
I1202 03:02:21.792979  6391 net.cpp:84] Creating Layer conv3_1/x1/scale
I1202 03:02:21.792987  6391 net.cpp:406] conv3_1/x1/scale <- conv3_1/x1
I1202 03:02:21.792999  6391 net.cpp:367] conv3_1/x1/scale -> conv3_1/x1 (in-place)
I1202 03:02:21.793082  6391 layer_factory.hpp:77] Creating layer conv3_1/x1/scale
I1202 03:02:21.793325  6391 net.cpp:122] Setting up conv3_1/x1/scale
I1202 03:02:21.793341  6391 net.cpp:129] Top shape: 15 128 56 56 (6021120)
I1202 03:02:21.793349  6391 net.cpp:137] Memory required for data: 2261074620
I1202 03:02:21.793366  6391 layer_factory.hpp:77] Creating layer relu3_1/x1
I1202 03:02:21.793380  6391 net.cpp:84] Creating Layer relu3_1/x1
I1202 03:02:21.793388  6391 net.cpp:406] relu3_1/x1 <- conv3_1/x1
I1202 03:02:21.793400  6391 net.cpp:367] relu3_1/x1 -> conv3_1/x1 (in-place)
I1202 03:02:21.793819  6391 net.cpp:122] Setting up relu3_1/x1
I1202 03:02:21.793840  6391 net.cpp:129] Top shape: 15 128 56 56 (6021120)
I1202 03:02:21.793848  6391 net.cpp:137] Memory required for data: 2285159100
I1202 03:02:21.793856  6391 layer_factory.hpp:77] Creating layer conv3_1/x2
I1202 03:02:21.793879  6391 net.cpp:84] Creating Layer conv3_1/x2
I1202 03:02:21.793887  6391 net.cpp:406] conv3_1/x2 <- conv3_1/x1
I1202 03:02:21.793900  6391 net.cpp:380] conv3_1/x2 -> conv3_1/x2
I1202 03:02:21.800508  6391 net.cpp:122] Setting up conv3_1/x2
I1202 03:02:21.800539  6391 net.cpp:129] Top shape: 15 128 28 28 (1505280)
I1202 03:02:21.800549  6391 net.cpp:137] Memory required for data: 2291180220
I1202 03:02:21.800560  6391 layer_factory.hpp:77] Creating layer conv3_1/x2/bn
I1202 03:02:21.800576  6391 net.cpp:84] Creating Layer conv3_1/x2/bn
I1202 03:02:21.800586  6391 net.cpp:406] conv3_1/x2/bn <- conv3_1/x2
I1202 03:02:21.800602  6391 net.cpp:367] conv3_1/x2/bn -> conv3_1/x2 (in-place)
I1202 03:02:21.800995  6391 net.cpp:122] Setting up conv3_1/x2/bn
I1202 03:02:21.801012  6391 net.cpp:129] Top shape: 15 128 28 28 (1505280)
I1202 03:02:21.801019  6391 net.cpp:137] Memory required for data: 2297201340
I1202 03:02:21.801034  6391 layer_factory.hpp:77] Creating layer conv3_1/x2/scale
I1202 03:02:21.801046  6391 net.cpp:84] Creating Layer conv3_1/x2/scale
I1202 03:02:21.801054  6391 net.cpp:406] conv3_1/x2/scale <- conv3_1/x2
I1202 03:02:21.801066  6391 net.cpp:367] conv3_1/x2/scale -> conv3_1/x2 (in-place)
I1202 03:02:21.801142  6391 layer_factory.hpp:77] Creating layer conv3_1/x2/scale
I1202 03:02:21.801359  6391 net.cpp:122] Setting up conv3_1/x2/scale
I1202 03:02:21.801373  6391 net.cpp:129] Top shape: 15 128 28 28 (1505280)
I1202 03:02:21.801381  6391 net.cpp:137] Memory required for data: 2303222460
I1202 03:02:21.801395  6391 layer_factory.hpp:77] Creating layer relu3_1/x2
I1202 03:02:21.801409  6391 net.cpp:84] Creating Layer relu3_1/x2
I1202 03:02:21.801415  6391 net.cpp:406] relu3_1/x2 <- conv3_1/x2
I1202 03:02:21.801426  6391 net.cpp:367] relu3_1/x2 -> conv3_1/x2 (in-place)
I1202 03:02:21.801841  6391 net.cpp:122] Setting up relu3_1/x2
I1202 03:02:21.801859  6391 net.cpp:129] Top shape: 15 128 28 28 (1505280)
I1202 03:02:21.801867  6391 net.cpp:137] Memory required for data: 2309243580
I1202 03:02:21.801875  6391 layer_factory.hpp:77] Creating layer conv3_1/x3
I1202 03:02:21.801897  6391 net.cpp:84] Creating Layer conv3_1/x3
I1202 03:02:21.801905  6391 net.cpp:406] conv3_1/x3 <- conv3_1/x2
I1202 03:02:21.801918  6391 net.cpp:380] conv3_1/x3 -> conv3_1/x3
I1202 03:02:21.806993  6391 net.cpp:122] Setting up conv3_1/x3
I1202 03:02:21.807049  6391 net.cpp:129] Top shape: 15 512 28 28 (6021120)
I1202 03:02:21.807060  6391 net.cpp:137] Memory required for data: 2333328060
I1202 03:02:21.807071  6391 layer_factory.hpp:77] Creating layer conv3_1/x3/bn
I1202 03:02:21.807088  6391 net.cpp:84] Creating Layer conv3_1/x3/bn
I1202 03:02:21.807097  6391 net.cpp:406] conv3_1/x3/bn <- conv3_1/x3
I1202 03:02:21.807111  6391 net.cpp:367] conv3_1/x3/bn -> conv3_1/x3 (in-place)
I1202 03:02:21.807518  6391 net.cpp:122] Setting up conv3_1/x3/bn
I1202 03:02:21.807535  6391 net.cpp:129] Top shape: 15 512 28 28 (6021120)
I1202 03:02:21.807543  6391 net.cpp:137] Memory required for data: 2357412540
I1202 03:02:21.807557  6391 layer_factory.hpp:77] Creating layer conv3_1/x3/scale
I1202 03:02:21.807570  6391 net.cpp:84] Creating Layer conv3_1/x3/scale
I1202 03:02:21.807579  6391 net.cpp:406] conv3_1/x3/scale <- conv3_1/x3
I1202 03:02:21.807590  6391 net.cpp:367] conv3_1/x3/scale -> conv3_1/x3 (in-place)
I1202 03:02:21.807672  6391 layer_factory.hpp:77] Creating layer conv3_1/x3/scale
I1202 03:02:21.807911  6391 net.cpp:122] Setting up conv3_1/x3/scale
I1202 03:02:21.807929  6391 net.cpp:129] Top shape: 15 512 28 28 (6021120)
I1202 03:02:21.807935  6391 net.cpp:137] Memory required for data: 2381497020
I1202 03:02:21.807950  6391 layer_factory.hpp:77] Creating layer conv3_1/x3_conv3_1/x3/scale_0_split
I1202 03:02:21.807965  6391 net.cpp:84] Creating Layer conv3_1/x3_conv3_1/x3/scale_0_split
I1202 03:02:21.807973  6391 net.cpp:406] conv3_1/x3_conv3_1/x3/scale_0_split <- conv3_1/x3
I1202 03:02:21.807987  6391 net.cpp:380] conv3_1/x3_conv3_1/x3/scale_0_split -> conv3_1/x3_conv3_1/x3/scale_0_split_0
I1202 03:02:21.808003  6391 net.cpp:380] conv3_1/x3_conv3_1/x3/scale_0_split -> conv3_1/x3_conv3_1/x3/scale_0_split_1
I1202 03:02:21.808078  6391 net.cpp:122] Setting up conv3_1/x3_conv3_1/x3/scale_0_split
I1202 03:02:21.808091  6391 net.cpp:129] Top shape: 15 512 28 28 (6021120)
I1202 03:02:21.808100  6391 net.cpp:129] Top shape: 15 512 28 28 (6021120)
I1202 03:02:21.808107  6391 net.cpp:137] Memory required for data: 2429665980
I1202 03:02:21.808115  6391 layer_factory.hpp:77] Creating layer pool3_1/gap
I1202 03:02:21.808132  6391 net.cpp:84] Creating Layer pool3_1/gap
I1202 03:02:21.808140  6391 net.cpp:406] pool3_1/gap <- conv3_1/x3_conv3_1/x3/scale_0_split_0
I1202 03:02:21.808154  6391 net.cpp:380] pool3_1/gap -> pool3_1/gap
I1202 03:02:21.810447  6391 net.cpp:122] Setting up pool3_1/gap
I1202 03:02:21.810483  6391 net.cpp:129] Top shape: 15 512 1 1 (7680)
I1202 03:02:21.810492  6391 net.cpp:137] Memory required for data: 2429696700
I1202 03:02:21.810499  6391 layer_factory.hpp:77] Creating layer fc3_1/sqz
I1202 03:02:21.810515  6391 net.cpp:84] Creating Layer fc3_1/sqz
I1202 03:02:21.810526  6391 net.cpp:406] fc3_1/sqz <- pool3_1/gap
I1202 03:02:21.810544  6391 net.cpp:380] fc3_1/sqz -> fc3_1/sqz
I1202 03:02:21.811141  6391 net.cpp:122] Setting up fc3_1/sqz
I1202 03:02:21.811156  6391 net.cpp:129] Top shape: 15 32 (480)
I1202 03:02:21.811162  6391 net.cpp:137] Memory required for data: 2429698620
I1202 03:02:21.811174  6391 layer_factory.hpp:77] Creating layer relu3_1/sqz
I1202 03:02:21.811197  6391 net.cpp:84] Creating Layer relu3_1/sqz
I1202 03:02:21.811205  6391 net.cpp:406] relu3_1/sqz <- fc3_1/sqz
I1202 03:02:21.811216  6391 net.cpp:367] relu3_1/sqz -> fc3_1/sqz (in-place)
I1202 03:02:21.811527  6391 net.cpp:122] Setting up relu3_1/sqz
I1202 03:02:21.811542  6391 net.cpp:129] Top shape: 15 32 (480)
I1202 03:02:21.811548  6391 net.cpp:137] Memory required for data: 2429700540
I1202 03:02:21.811556  6391 layer_factory.hpp:77] Creating layer fc3_1/exc
I1202 03:02:21.811569  6391 net.cpp:84] Creating Layer fc3_1/exc
I1202 03:02:21.811576  6391 net.cpp:406] fc3_1/exc <- fc3_1/sqz
I1202 03:02:21.811589  6391 net.cpp:380] fc3_1/exc -> fc3_1/exc
I1202 03:02:21.812194  6391 net.cpp:122] Setting up fc3_1/exc
I1202 03:02:21.812211  6391 net.cpp:129] Top shape: 15 512 (7680)
I1202 03:02:21.812217  6391 net.cpp:137] Memory required for data: 2429731260
I1202 03:02:21.812258  6391 layer_factory.hpp:77] Creating layer sigm3_1/gate
I1202 03:02:21.812270  6391 net.cpp:84] Creating Layer sigm3_1/gate
I1202 03:02:21.812278  6391 net.cpp:406] sigm3_1/gate <- fc3_1/exc
I1202 03:02:21.812286  6391 net.cpp:367] sigm3_1/gate -> fc3_1/exc (in-place)
I1202 03:02:21.812664  6391 net.cpp:122] Setting up sigm3_1/gate
I1202 03:02:21.812685  6391 net.cpp:129] Top shape: 15 512 (7680)
I1202 03:02:21.812692  6391 net.cpp:137] Memory required for data: 2429761980
I1202 03:02:21.812700  6391 layer_factory.hpp:77] Creating layer scale3_1
I1202 03:02:21.812713  6391 net.cpp:84] Creating Layer scale3_1
I1202 03:02:21.812724  6391 net.cpp:406] scale3_1 <- conv3_1/x3_conv3_1/x3/scale_0_split_1
I1202 03:02:21.812736  6391 net.cpp:406] scale3_1 <- fc3_1/exc
I1202 03:02:21.812750  6391 net.cpp:380] scale3_1 -> scale3_1
I1202 03:02:21.812892  6391 net.cpp:122] Setting up scale3_1
I1202 03:02:21.812911  6391 net.cpp:129] Top shape: 15 512 28 28 (6021120)
I1202 03:02:21.812919  6391 net.cpp:137] Memory required for data: 2453846460
I1202 03:02:21.812939  6391 layer_factory.hpp:77] Creating layer block_3_1
I1202 03:02:21.812952  6391 net.cpp:84] Creating Layer block_3_1
I1202 03:02:21.812961  6391 net.cpp:406] block_3_1 <- conv3_1/prj
I1202 03:02:21.812973  6391 net.cpp:406] block_3_1 <- scale3_1
I1202 03:02:21.812984  6391 net.cpp:380] block_3_1 -> block_3_1
I1202 03:02:21.813037  6391 net.cpp:122] Setting up block_3_1
I1202 03:02:21.813052  6391 net.cpp:129] Top shape: 15 512 28 28 (6021120)
I1202 03:02:21.813060  6391 net.cpp:137] Memory required for data: 2477930940
I1202 03:02:21.813067  6391 layer_factory.hpp:77] Creating layer relu3_1
I1202 03:02:21.813081  6391 net.cpp:84] Creating Layer relu3_1
I1202 03:02:21.813091  6391 net.cpp:406] relu3_1 <- block_3_1
I1202 03:02:21.813102  6391 net.cpp:367] relu3_1 -> block_3_1 (in-place)
I1202 03:02:21.813462  6391 net.cpp:122] Setting up relu3_1
I1202 03:02:21.813484  6391 net.cpp:129] Top shape: 15 512 28 28 (6021120)
I1202 03:02:21.813493  6391 net.cpp:137] Memory required for data: 2502015420
I1202 03:02:21.813501  6391 layer_factory.hpp:77] Creating layer block_3_1_relu3_1_0_split
I1202 03:02:21.813513  6391 net.cpp:84] Creating Layer block_3_1_relu3_1_0_split
I1202 03:02:21.813522  6391 net.cpp:406] block_3_1_relu3_1_0_split <- block_3_1
I1202 03:02:21.813535  6391 net.cpp:380] block_3_1_relu3_1_0_split -> block_3_1_relu3_1_0_split_0
I1202 03:02:21.813552  6391 net.cpp:380] block_3_1_relu3_1_0_split -> block_3_1_relu3_1_0_split_1
I1202 03:02:21.813639  6391 net.cpp:122] Setting up block_3_1_relu3_1_0_split
I1202 03:02:21.813653  6391 net.cpp:129] Top shape: 15 512 28 28 (6021120)
I1202 03:02:21.813664  6391 net.cpp:129] Top shape: 15 512 28 28 (6021120)
I1202 03:02:21.813673  6391 net.cpp:137] Memory required for data: 2550184380
I1202 03:02:21.813679  6391 layer_factory.hpp:77] Creating layer conv3_2/x1
I1202 03:02:21.813697  6391 net.cpp:84] Creating Layer conv3_2/x1
I1202 03:02:21.813709  6391 net.cpp:406] conv3_2/x1 <- block_3_1_relu3_1_0_split_0
I1202 03:02:21.813724  6391 net.cpp:380] conv3_2/x1 -> conv3_2/x1
I1202 03:02:21.818236  6391 net.cpp:122] Setting up conv3_2/x1
I1202 03:02:21.818269  6391 net.cpp:129] Top shape: 15 128 28 28 (1505280)
I1202 03:02:21.818279  6391 net.cpp:137] Memory required for data: 2556205500
I1202 03:02:21.818302  6391 layer_factory.hpp:77] Creating layer conv3_2/x1/bn
I1202 03:02:21.818321  6391 net.cpp:84] Creating Layer conv3_2/x1/bn
I1202 03:02:21.818331  6391 net.cpp:406] conv3_2/x1/bn <- conv3_2/x1
I1202 03:02:21.818344  6391 net.cpp:367] conv3_2/x1/bn -> conv3_2/x1 (in-place)
I1202 03:02:21.818773  6391 net.cpp:122] Setting up conv3_2/x1/bn
I1202 03:02:21.818789  6391 net.cpp:129] Top shape: 15 128 28 28 (1505280)
I1202 03:02:21.818797  6391 net.cpp:137] Memory required for data: 2562226620
I1202 03:02:21.818814  6391 layer_factory.hpp:77] Creating layer conv3_2/x1/scale
I1202 03:02:21.818830  6391 net.cpp:84] Creating Layer conv3_2/x1/scale
I1202 03:02:21.818850  6391 net.cpp:406] conv3_2/x1/scale <- conv3_2/x1
I1202 03:02:21.818881  6391 net.cpp:367] conv3_2/x1/scale -> conv3_2/x1 (in-place)
I1202 03:02:21.818971  6391 layer_factory.hpp:77] Creating layer conv3_2/x1/scale
I1202 03:02:21.819214  6391 net.cpp:122] Setting up conv3_2/x1/scale
I1202 03:02:21.819231  6391 net.cpp:129] Top shape: 15 128 28 28 (1505280)
I1202 03:02:21.819238  6391 net.cpp:137] Memory required for data: 2568247740
I1202 03:02:21.819252  6391 layer_factory.hpp:77] Creating layer relu3_2/x1
I1202 03:02:21.819263  6391 net.cpp:84] Creating Layer relu3_2/x1
I1202 03:02:21.819272  6391 net.cpp:406] relu3_2/x1 <- conv3_2/x1
I1202 03:02:21.819285  6391 net.cpp:367] relu3_2/x1 -> conv3_2/x1 (in-place)
I1202 03:02:21.820854  6391 net.cpp:122] Setting up relu3_2/x1
I1202 03:02:21.820883  6391 net.cpp:129] Top shape: 15 128 28 28 (1505280)
I1202 03:02:21.820893  6391 net.cpp:137] Memory required for data: 2574268860
I1202 03:02:21.820900  6391 layer_factory.hpp:77] Creating layer conv3_2/x2
I1202 03:02:21.820925  6391 net.cpp:84] Creating Layer conv3_2/x2
I1202 03:02:21.820935  6391 net.cpp:406] conv3_2/x2 <- conv3_2/x1
I1202 03:02:21.820951  6391 net.cpp:380] conv3_2/x2 -> conv3_2/x2
I1202 03:02:21.827247  6391 net.cpp:122] Setting up conv3_2/x2
I1202 03:02:21.827277  6391 net.cpp:129] Top shape: 15 128 28 28 (1505280)
I1202 03:02:21.827286  6391 net.cpp:137] Memory required for data: 2580289980
I1202 03:02:21.827308  6391 layer_factory.hpp:77] Creating layer conv3_2/x2/bn
I1202 03:02:21.827325  6391 net.cpp:84] Creating Layer conv3_2/x2/bn
I1202 03:02:21.827335  6391 net.cpp:406] conv3_2/x2/bn <- conv3_2/x2
I1202 03:02:21.827347  6391 net.cpp:367] conv3_2/x2/bn -> conv3_2/x2 (in-place)
I1202 03:02:21.827756  6391 net.cpp:122] Setting up conv3_2/x2/bn
I1202 03:02:21.827771  6391 net.cpp:129] Top shape: 15 128 28 28 (1505280)
I1202 03:02:21.827780  6391 net.cpp:137] Memory required for data: 2586311100
I1202 03:02:21.827816  6391 layer_factory.hpp:77] Creating layer conv3_2/x2/scale
I1202 03:02:21.827831  6391 net.cpp:84] Creating Layer conv3_2/x2/scale
I1202 03:02:21.827838  6391 net.cpp:406] conv3_2/x2/scale <- conv3_2/x2
I1202 03:02:21.827850  6391 net.cpp:367] conv3_2/x2/scale -> conv3_2/x2 (in-place)
I1202 03:02:21.827929  6391 layer_factory.hpp:77] Creating layer conv3_2/x2/scale
I1202 03:02:21.828161  6391 net.cpp:122] Setting up conv3_2/x2/scale
I1202 03:02:21.828176  6391 net.cpp:129] Top shape: 15 128 28 28 (1505280)
I1202 03:02:21.828186  6391 net.cpp:137] Memory required for data: 2592332220
I1202 03:02:21.828197  6391 layer_factory.hpp:77] Creating layer relu3_2/x2
I1202 03:02:21.828207  6391 net.cpp:84] Creating Layer relu3_2/x2
I1202 03:02:21.828214  6391 net.cpp:406] relu3_2/x2 <- conv3_2/x2
I1202 03:02:21.828228  6391 net.cpp:367] relu3_2/x2 -> conv3_2/x2 (in-place)
I1202 03:02:21.830541  6391 net.cpp:122] Setting up relu3_2/x2
I1202 03:02:21.830575  6391 net.cpp:129] Top shape: 15 128 28 28 (1505280)
I1202 03:02:21.830585  6391 net.cpp:137] Memory required for data: 2598353340
I1202 03:02:21.830595  6391 layer_factory.hpp:77] Creating layer conv3_2/x3
I1202 03:02:21.830626  6391 net.cpp:84] Creating Layer conv3_2/x3
I1202 03:02:21.830636  6391 net.cpp:406] conv3_2/x3 <- conv3_2/x2
I1202 03:02:21.830652  6391 net.cpp:380] conv3_2/x3 -> conv3_2/x3
I1202 03:02:21.834849  6391 net.cpp:122] Setting up conv3_2/x3
I1202 03:02:21.834879  6391 net.cpp:129] Top shape: 15 512 28 28 (6021120)
I1202 03:02:21.834888  6391 net.cpp:137] Memory required for data: 2622437820
I1202 03:02:21.834900  6391 layer_factory.hpp:77] Creating layer conv3_2/x3/bn
I1202 03:02:21.834920  6391 net.cpp:84] Creating Layer conv3_2/x3/bn
I1202 03:02:21.834929  6391 net.cpp:406] conv3_2/x3/bn <- conv3_2/x3
I1202 03:02:21.834941  6391 net.cpp:367] conv3_2/x3/bn -> conv3_2/x3 (in-place)
I1202 03:02:21.835332  6391 net.cpp:122] Setting up conv3_2/x3/bn
I1202 03:02:21.835350  6391 net.cpp:129] Top shape: 15 512 28 28 (6021120)
I1202 03:02:21.835356  6391 net.cpp:137] Memory required for data: 2646522300
I1202 03:02:21.835381  6391 layer_factory.hpp:77] Creating layer conv3_2/x3/scale
I1202 03:02:21.835414  6391 net.cpp:84] Creating Layer conv3_2/x3/scale
I1202 03:02:21.835425  6391 net.cpp:406] conv3_2/x3/scale <- conv3_2/x3
I1202 03:02:21.835435  6391 net.cpp:367] conv3_2/x3/scale -> conv3_2/x3 (in-place)
I1202 03:02:21.835520  6391 layer_factory.hpp:77] Creating layer conv3_2/x3/scale
I1202 03:02:21.835738  6391 net.cpp:122] Setting up conv3_2/x3/scale
I1202 03:02:21.835754  6391 net.cpp:129] Top shape: 15 512 28 28 (6021120)
I1202 03:02:21.835762  6391 net.cpp:137] Memory required for data: 2670606780
I1202 03:02:21.835773  6391 layer_factory.hpp:77] Creating layer conv3_2/x3_conv3_2/x3/scale_0_split
I1202 03:02:21.835784  6391 net.cpp:84] Creating Layer conv3_2/x3_conv3_2/x3/scale_0_split
I1202 03:02:21.835817  6391 net.cpp:406] conv3_2/x3_conv3_2/x3/scale_0_split <- conv3_2/x3
I1202 03:02:21.835844  6391 net.cpp:380] conv3_2/x3_conv3_2/x3/scale_0_split -> conv3_2/x3_conv3_2/x3/scale_0_split_0
I1202 03:02:21.835860  6391 net.cpp:380] conv3_2/x3_conv3_2/x3/scale_0_split -> conv3_2/x3_conv3_2/x3/scale_0_split_1
I1202 03:02:21.835935  6391 net.cpp:122] Setting up conv3_2/x3_conv3_2/x3/scale_0_split
I1202 03:02:21.835949  6391 net.cpp:129] Top shape: 15 512 28 28 (6021120)
I1202 03:02:21.835958  6391 net.cpp:129] Top shape: 15 512 28 28 (6021120)
I1202 03:02:21.835965  6391 net.cpp:137] Memory required for data: 2718775740
I1202 03:02:21.835983  6391 layer_factory.hpp:77] Creating layer pool3_2/gap
I1202 03:02:21.835996  6391 net.cpp:84] Creating Layer pool3_2/gap
I1202 03:02:21.836015  6391 net.cpp:406] pool3_2/gap <- conv3_2/x3_conv3_2/x3/scale_0_split_0
I1202 03:02:21.836026  6391 net.cpp:380] pool3_2/gap -> pool3_2/gap
I1202 03:02:21.836421  6391 net.cpp:122] Setting up pool3_2/gap
I1202 03:02:21.836444  6391 net.cpp:129] Top shape: 15 512 1 1 (7680)
I1202 03:02:21.836452  6391 net.cpp:137] Memory required for data: 2718806460
I1202 03:02:21.836458  6391 layer_factory.hpp:77] Creating layer fc3_2/sqz
I1202 03:02:21.836473  6391 net.cpp:84] Creating Layer fc3_2/sqz
I1202 03:02:21.836483  6391 net.cpp:406] fc3_2/sqz <- pool3_2/gap
I1202 03:02:21.836499  6391 net.cpp:380] fc3_2/sqz -> fc3_2/sqz
I1202 03:02:21.837075  6391 net.cpp:122] Setting up fc3_2/sqz
I1202 03:02:21.837090  6391 net.cpp:129] Top shape: 15 32 (480)
I1202 03:02:21.837098  6391 net.cpp:137] Memory required for data: 2718808380
I1202 03:02:21.837110  6391 layer_factory.hpp:77] Creating layer relu3_2/sqz
I1202 03:02:21.837121  6391 net.cpp:84] Creating Layer relu3_2/sqz
I1202 03:02:21.837128  6391 net.cpp:406] relu3_2/sqz <- fc3_2/sqz
I1202 03:02:21.837142  6391 net.cpp:367] relu3_2/sqz -> fc3_2/sqz (in-place)
I1202 03:02:21.837461  6391 net.cpp:122] Setting up relu3_2/sqz
I1202 03:02:21.837476  6391 net.cpp:129] Top shape: 15 32 (480)
I1202 03:02:21.837482  6391 net.cpp:137] Memory required for data: 2718810300
I1202 03:02:21.837491  6391 layer_factory.hpp:77] Creating layer fc3_2/exc
I1202 03:02:21.837504  6391 net.cpp:84] Creating Layer fc3_2/exc
I1202 03:02:21.837512  6391 net.cpp:406] fc3_2/exc <- fc3_2/sqz
I1202 03:02:21.837523  6391 net.cpp:380] fc3_2/exc -> fc3_2/exc
I1202 03:02:21.838099  6391 net.cpp:122] Setting up fc3_2/exc
I1202 03:02:21.838111  6391 net.cpp:129] Top shape: 15 512 (7680)
I1202 03:02:21.838117  6391 net.cpp:137] Memory required for data: 2718841020
I1202 03:02:21.838138  6391 layer_factory.hpp:77] Creating layer sigm3_2/gate
I1202 03:02:21.838150  6391 net.cpp:84] Creating Layer sigm3_2/gate
I1202 03:02:21.838157  6391 net.cpp:406] sigm3_2/gate <- fc3_2/exc
I1202 03:02:21.838168  6391 net.cpp:367] sigm3_2/gate -> fc3_2/exc (in-place)
I1202 03:02:21.838486  6391 net.cpp:122] Setting up sigm3_2/gate
I1202 03:02:21.838502  6391 net.cpp:129] Top shape: 15 512 (7680)
I1202 03:02:21.838510  6391 net.cpp:137] Memory required for data: 2718871740
I1202 03:02:21.838515  6391 layer_factory.hpp:77] Creating layer scale3_2
I1202 03:02:21.838528  6391 net.cpp:84] Creating Layer scale3_2
I1202 03:02:21.838538  6391 net.cpp:406] scale3_2 <- conv3_2/x3_conv3_2/x3/scale_0_split_1
I1202 03:02:21.838554  6391 net.cpp:406] scale3_2 <- fc3_2/exc
I1202 03:02:21.838587  6391 net.cpp:380] scale3_2 -> scale3_2
I1202 03:02:21.838737  6391 net.cpp:122] Setting up scale3_2
I1202 03:02:21.838752  6391 net.cpp:129] Top shape: 15 512 28 28 (6021120)
I1202 03:02:21.838758  6391 net.cpp:137] Memory required for data: 2742956220
I1202 03:02:21.838765  6391 layer_factory.hpp:77] Creating layer block_3_2
I1202 03:02:21.838774  6391 net.cpp:84] Creating Layer block_3_2
I1202 03:02:21.838784  6391 net.cpp:406] block_3_2 <- block_3_1_relu3_1_0_split_1
I1202 03:02:21.838793  6391 net.cpp:406] block_3_2 <- scale3_2
I1202 03:02:21.838806  6391 net.cpp:380] block_3_2 -> block_3_2
I1202 03:02:21.838850  6391 net.cpp:122] Setting up block_3_2
I1202 03:02:21.838866  6391 net.cpp:129] Top shape: 15 512 28 28 (6021120)
I1202 03:02:21.838873  6391 net.cpp:137] Memory required for data: 2767040700
I1202 03:02:21.838879  6391 layer_factory.hpp:77] Creating layer relu3_2
I1202 03:02:21.838896  6391 net.cpp:84] Creating Layer relu3_2
I1202 03:02:21.838906  6391 net.cpp:406] relu3_2 <- block_3_2
I1202 03:02:21.838915  6391 net.cpp:367] relu3_2 -> block_3_2 (in-place)
I1202 03:02:21.840298  6391 net.cpp:122] Setting up relu3_2
I1202 03:02:21.840329  6391 net.cpp:129] Top shape: 15 512 28 28 (6021120)
I1202 03:02:21.840338  6391 net.cpp:137] Memory required for data: 2791125180
I1202 03:02:21.840346  6391 layer_factory.hpp:77] Creating layer block_3_2_relu3_2_0_split
I1202 03:02:21.840358  6391 net.cpp:84] Creating Layer block_3_2_relu3_2_0_split
I1202 03:02:21.840365  6391 net.cpp:406] block_3_2_relu3_2_0_split <- block_3_2
I1202 03:02:21.840381  6391 net.cpp:380] block_3_2_relu3_2_0_split -> block_3_2_relu3_2_0_split_0
I1202 03:02:21.840395  6391 net.cpp:380] block_3_2_relu3_2_0_split -> block_3_2_relu3_2_0_split_1
I1202 03:02:21.840474  6391 net.cpp:122] Setting up block_3_2_relu3_2_0_split
I1202 03:02:21.840489  6391 net.cpp:129] Top shape: 15 512 28 28 (6021120)
I1202 03:02:21.840499  6391 net.cpp:129] Top shape: 15 512 28 28 (6021120)
I1202 03:02:21.840505  6391 net.cpp:137] Memory required for data: 2839294140
I1202 03:02:21.840512  6391 layer_factory.hpp:77] Creating layer conv3_3/x1
I1202 03:02:21.840528  6391 net.cpp:84] Creating Layer conv3_3/x1
I1202 03:02:21.840536  6391 net.cpp:406] conv3_3/x1 <- block_3_2_relu3_2_0_split_0
I1202 03:02:21.840550  6391 net.cpp:380] conv3_3/x1 -> conv3_3/x1
I1202 03:02:21.844403  6391 net.cpp:122] Setting up conv3_3/x1
I1202 03:02:21.844429  6391 net.cpp:129] Top shape: 15 128 28 28 (1505280)
I1202 03:02:21.844439  6391 net.cpp:137] Memory required for data: 2845315260
I1202 03:02:21.844476  6391 layer_factory.hpp:77] Creating layer conv3_3/x1/bn
I1202 03:02:21.844493  6391 net.cpp:84] Creating Layer conv3_3/x1/bn
I1202 03:02:21.844501  6391 net.cpp:406] conv3_3/x1/bn <- conv3_3/x1
I1202 03:02:21.844513  6391 net.cpp:367] conv3_3/x1/bn -> conv3_3/x1 (in-place)
I1202 03:02:21.844887  6391 net.cpp:122] Setting up conv3_3/x1/bn
I1202 03:02:21.844904  6391 net.cpp:129] Top shape: 15 128 28 28 (1505280)
I1202 03:02:21.844911  6391 net.cpp:137] Memory required for data: 2851336380
I1202 03:02:21.844926  6391 layer_factory.hpp:77] Creating layer conv3_3/x1/scale
I1202 03:02:21.844947  6391 net.cpp:84] Creating Layer conv3_3/x1/scale
I1202 03:02:21.844955  6391 net.cpp:406] conv3_3/x1/scale <- conv3_3/x1
I1202 03:02:21.844965  6391 net.cpp:367] conv3_3/x1/scale -> conv3_3/x1 (in-place)
I1202 03:02:21.845041  6391 layer_factory.hpp:77] Creating layer conv3_3/x1/scale
I1202 03:02:21.845249  6391 net.cpp:122] Setting up conv3_3/x1/scale
I1202 03:02:21.845263  6391 net.cpp:129] Top shape: 15 128 28 28 (1505280)
I1202 03:02:21.845269  6391 net.cpp:137] Memory required for data: 2857357500
I1202 03:02:21.845281  6391 layer_factory.hpp:77] Creating layer relu3_3/x1
I1202 03:02:21.845291  6391 net.cpp:84] Creating Layer relu3_3/x1
I1202 03:02:21.845299  6391 net.cpp:406] relu3_3/x1 <- conv3_3/x1
I1202 03:02:21.845312  6391 net.cpp:367] relu3_3/x1 -> conv3_3/x1 (in-place)
I1202 03:02:21.845652  6391 net.cpp:122] Setting up relu3_3/x1
I1202 03:02:21.845685  6391 net.cpp:129] Top shape: 15 128 28 28 (1505280)
I1202 03:02:21.845692  6391 net.cpp:137] Memory required for data: 2863378620
I1202 03:02:21.845700  6391 layer_factory.hpp:77] Creating layer conv3_3/x2
I1202 03:02:21.845721  6391 net.cpp:84] Creating Layer conv3_3/x2
I1202 03:02:21.845728  6391 net.cpp:406] conv3_3/x2 <- conv3_3/x1
I1202 03:02:21.845748  6391 net.cpp:380] conv3_3/x2 -> conv3_3/x2
I1202 03:02:21.853657  6391 net.cpp:122] Setting up conv3_3/x2
I1202 03:02:21.853683  6391 net.cpp:129] Top shape: 15 128 28 28 (1505280)
I1202 03:02:21.853691  6391 net.cpp:137] Memory required for data: 2869399740
I1202 03:02:21.853701  6391 layer_factory.hpp:77] Creating layer conv3_3/x2/bn
I1202 03:02:21.853715  6391 net.cpp:84] Creating Layer conv3_3/x2/bn
I1202 03:02:21.853724  6391 net.cpp:406] conv3_3/x2/bn <- conv3_3/x2
I1202 03:02:21.853736  6391 net.cpp:367] conv3_3/x2/bn -> conv3_3/x2 (in-place)
I1202 03:02:21.854104  6391 net.cpp:122] Setting up conv3_3/x2/bn
I1202 03:02:21.854118  6391 net.cpp:129] Top shape: 15 128 28 28 (1505280)
I1202 03:02:21.854125  6391 net.cpp:137] Memory required for data: 2875420860
I1202 03:02:21.854148  6391 layer_factory.hpp:77] Creating layer conv3_3/x2/scale
I1202 03:02:21.854161  6391 net.cpp:84] Creating Layer conv3_3/x2/scale
I1202 03:02:21.854167  6391 net.cpp:406] conv3_3/x2/scale <- conv3_3/x2
I1202 03:02:21.854177  6391 net.cpp:367] conv3_3/x2/scale -> conv3_3/x2 (in-place)
I1202 03:02:21.854248  6391 layer_factory.hpp:77] Creating layer conv3_3/x2/scale
I1202 03:02:21.854444  6391 net.cpp:122] Setting up conv3_3/x2/scale
I1202 03:02:21.854456  6391 net.cpp:129] Top shape: 15 128 28 28 (1505280)
I1202 03:02:21.854463  6391 net.cpp:137] Memory required for data: 2881441980
I1202 03:02:21.854475  6391 layer_factory.hpp:77] Creating layer relu3_3/x2
I1202 03:02:21.854487  6391 net.cpp:84] Creating Layer relu3_3/x2
I1202 03:02:21.854495  6391 net.cpp:406] relu3_3/x2 <- conv3_3/x2
I1202 03:02:21.854504  6391 net.cpp:367] relu3_3/x2 -> conv3_3/x2 (in-place)
I1202 03:02:21.854822  6391 net.cpp:122] Setting up relu3_3/x2
I1202 03:02:21.854837  6391 net.cpp:129] Top shape: 15 128 28 28 (1505280)
I1202 03:02:21.854843  6391 net.cpp:137] Memory required for data: 2887463100
I1202 03:02:21.854851  6391 layer_factory.hpp:77] Creating layer conv3_3/x3
I1202 03:02:21.854868  6391 net.cpp:84] Creating Layer conv3_3/x3
I1202 03:02:21.854876  6391 net.cpp:406] conv3_3/x3 <- conv3_3/x2
I1202 03:02:21.854898  6391 net.cpp:380] conv3_3/x3 -> conv3_3/x3
I1202 03:02:21.858564  6391 net.cpp:122] Setting up conv3_3/x3
I1202 03:02:21.858592  6391 net.cpp:129] Top shape: 15 512 28 28 (6021120)
I1202 03:02:21.858600  6391 net.cpp:137] Memory required for data: 2911547580
I1202 03:02:21.858610  6391 layer_factory.hpp:77] Creating layer conv3_3/x3/bn
I1202 03:02:21.858623  6391 net.cpp:84] Creating Layer conv3_3/x3/bn
I1202 03:02:21.858630  6391 net.cpp:406] conv3_3/x3/bn <- conv3_3/x3
I1202 03:02:21.858642  6391 net.cpp:367] conv3_3/x3/bn -> conv3_3/x3 (in-place)
I1202 03:02:21.858995  6391 net.cpp:122] Setting up conv3_3/x3/bn
I1202 03:02:21.859009  6391 net.cpp:129] Top shape: 15 512 28 28 (6021120)
I1202 03:02:21.859015  6391 net.cpp:137] Memory required for data: 2935632060
I1202 03:02:21.859036  6391 layer_factory.hpp:77] Creating layer conv3_3/x3/scale
I1202 03:02:21.859076  6391 net.cpp:84] Creating Layer conv3_3/x3/scale
I1202 03:02:21.859086  6391 net.cpp:406] conv3_3/x3/scale <- conv3_3/x3
I1202 03:02:21.859096  6391 net.cpp:367] conv3_3/x3/scale -> conv3_3/x3 (in-place)
I1202 03:02:21.859172  6391 layer_factory.hpp:77] Creating layer conv3_3/x3/scale
I1202 03:02:21.859364  6391 net.cpp:122] Setting up conv3_3/x3/scale
I1202 03:02:21.859378  6391 net.cpp:129] Top shape: 15 512 28 28 (6021120)
I1202 03:02:21.859385  6391 net.cpp:137] Memory required for data: 2959716540
I1202 03:02:21.859395  6391 layer_factory.hpp:77] Creating layer conv3_3/x3_conv3_3/x3/scale_0_split
I1202 03:02:21.859405  6391 net.cpp:84] Creating Layer conv3_3/x3_conv3_3/x3/scale_0_split
I1202 03:02:21.859434  6391 net.cpp:406] conv3_3/x3_conv3_3/x3/scale_0_split <- conv3_3/x3
I1202 03:02:21.859446  6391 net.cpp:380] conv3_3/x3_conv3_3/x3/scale_0_split -> conv3_3/x3_conv3_3/x3/scale_0_split_0
I1202 03:02:21.859462  6391 net.cpp:380] conv3_3/x3_conv3_3/x3/scale_0_split -> conv3_3/x3_conv3_3/x3/scale_0_split_1
I1202 03:02:21.859527  6391 net.cpp:122] Setting up conv3_3/x3_conv3_3/x3/scale_0_split
I1202 03:02:21.859539  6391 net.cpp:129] Top shape: 15 512 28 28 (6021120)
I1202 03:02:21.859547  6391 net.cpp:129] Top shape: 15 512 28 28 (6021120)
I1202 03:02:21.859553  6391 net.cpp:137] Memory required for data: 3007885500
I1202 03:02:21.859560  6391 layer_factory.hpp:77] Creating layer pool3_3/gap
I1202 03:02:21.859572  6391 net.cpp:84] Creating Layer pool3_3/gap
I1202 03:02:21.859580  6391 net.cpp:406] pool3_3/gap <- conv3_3/x3_conv3_3/x3/scale_0_split_0
I1202 03:02:21.859589  6391 net.cpp:380] pool3_3/gap -> pool3_3/gap
I1202 03:02:21.859963  6391 net.cpp:122] Setting up pool3_3/gap
I1202 03:02:21.859983  6391 net.cpp:129] Top shape: 15 512 1 1 (7680)
I1202 03:02:21.859989  6391 net.cpp:137] Memory required for data: 3007916220
I1202 03:02:21.859997  6391 layer_factory.hpp:77] Creating layer fc3_3/sqz
I1202 03:02:21.860008  6391 net.cpp:84] Creating Layer fc3_3/sqz
I1202 03:02:21.860016  6391 net.cpp:406] fc3_3/sqz <- pool3_3/gap
I1202 03:02:21.860031  6391 net.cpp:380] fc3_3/sqz -> fc3_3/sqz
I1202 03:02:21.860555  6391 net.cpp:122] Setting up fc3_3/sqz
I1202 03:02:21.860568  6391 net.cpp:129] Top shape: 15 32 (480)
I1202 03:02:21.860574  6391 net.cpp:137] Memory required for data: 3007918140
I1202 03:02:21.860591  6391 layer_factory.hpp:77] Creating layer relu3_3/sqz
I1202 03:02:21.860604  6391 net.cpp:84] Creating Layer relu3_3/sqz
I1202 03:02:21.860610  6391 net.cpp:406] relu3_3/sqz <- fc3_3/sqz
I1202 03:02:21.860620  6391 net.cpp:367] relu3_3/sqz -> fc3_3/sqz (in-place)
I1202 03:02:21.860903  6391 net.cpp:122] Setting up relu3_3/sqz
I1202 03:02:21.860916  6391 net.cpp:129] Top shape: 15 32 (480)
I1202 03:02:21.860922  6391 net.cpp:137] Memory required for data: 3007920060
I1202 03:02:21.860929  6391 layer_factory.hpp:77] Creating layer fc3_3/exc
I1202 03:02:21.860941  6391 net.cpp:84] Creating Layer fc3_3/exc
I1202 03:02:21.860949  6391 net.cpp:406] fc3_3/exc <- fc3_3/sqz
I1202 03:02:21.860960  6391 net.cpp:380] fc3_3/exc -> fc3_3/exc
I1202 03:02:21.861464  6391 net.cpp:122] Setting up fc3_3/exc
I1202 03:02:21.861479  6391 net.cpp:129] Top shape: 15 512 (7680)
I1202 03:02:21.861485  6391 net.cpp:137] Memory required for data: 3007950780
I1202 03:02:21.861495  6391 layer_factory.hpp:77] Creating layer sigm3_3/gate
I1202 03:02:21.861503  6391 net.cpp:84] Creating Layer sigm3_3/gate
I1202 03:02:21.861510  6391 net.cpp:406] sigm3_3/gate <- fc3_3/exc
I1202 03:02:21.861518  6391 net.cpp:367] sigm3_3/gate -> fc3_3/exc (in-place)
I1202 03:02:21.862704  6391 net.cpp:122] Setting up sigm3_3/gate
I1202 03:02:21.862726  6391 net.cpp:129] Top shape: 15 512 (7680)
I1202 03:02:21.862732  6391 net.cpp:137] Memory required for data: 3007981500
I1202 03:02:21.862738  6391 layer_factory.hpp:77] Creating layer scale3_3
I1202 03:02:21.862763  6391 net.cpp:84] Creating Layer scale3_3
I1202 03:02:21.862773  6391 net.cpp:406] scale3_3 <- conv3_3/x3_conv3_3/x3/scale_0_split_1
I1202 03:02:21.862782  6391 net.cpp:406] scale3_3 <- fc3_3/exc
I1202 03:02:21.862794  6391 net.cpp:380] scale3_3 -> scale3_3
I1202 03:02:21.862912  6391 net.cpp:122] Setting up scale3_3
I1202 03:02:21.862924  6391 net.cpp:129] Top shape: 15 512 28 28 (6021120)
I1202 03:02:21.862931  6391 net.cpp:137] Memory required for data: 3032065980
I1202 03:02:21.862936  6391 layer_factory.hpp:77] Creating layer block_3_3
I1202 03:02:21.862949  6391 net.cpp:84] Creating Layer block_3_3
I1202 03:02:21.862958  6391 net.cpp:406] block_3_3 <- block_3_2_relu3_2_0_split_1
I1202 03:02:21.862967  6391 net.cpp:406] block_3_3 <- scale3_3
I1202 03:02:21.862974  6391 net.cpp:380] block_3_3 -> block_3_3
I1202 03:02:21.863015  6391 net.cpp:122] Setting up block_3_3
I1202 03:02:21.863034  6391 net.cpp:129] Top shape: 15 512 28 28 (6021120)
I1202 03:02:21.863054  6391 net.cpp:137] Memory required for data: 3056150460
I1202 03:02:21.863060  6391 layer_factory.hpp:77] Creating layer relu3_3
I1202 03:02:21.863070  6391 net.cpp:84] Creating Layer relu3_3
I1202 03:02:21.863076  6391 net.cpp:406] relu3_3 <- block_3_3
I1202 03:02:21.863087  6391 net.cpp:367] relu3_3 -> block_3_3 (in-place)
I1202 03:02:21.863364  6391 net.cpp:122] Setting up relu3_3
I1202 03:02:21.863379  6391 net.cpp:129] Top shape: 15 512 28 28 (6021120)
I1202 03:02:21.863385  6391 net.cpp:137] Memory required for data: 3080234940
I1202 03:02:21.863391  6391 layer_factory.hpp:77] Creating layer block_3_3_relu3_3_0_split
I1202 03:02:21.863402  6391 net.cpp:84] Creating Layer block_3_3_relu3_3_0_split
I1202 03:02:21.863409  6391 net.cpp:406] block_3_3_relu3_3_0_split <- block_3_3
I1202 03:02:21.863420  6391 net.cpp:380] block_3_3_relu3_3_0_split -> block_3_3_relu3_3_0_split_0
I1202 03:02:21.863433  6391 net.cpp:380] block_3_3_relu3_3_0_split -> block_3_3_relu3_3_0_split_1
I1202 03:02:21.863500  6391 net.cpp:122] Setting up block_3_3_relu3_3_0_split
I1202 03:02:21.863512  6391 net.cpp:129] Top shape: 15 512 28 28 (6021120)
I1202 03:02:21.863520  6391 net.cpp:129] Top shape: 15 512 28 28 (6021120)
I1202 03:02:21.863525  6391 net.cpp:137] Memory required for data: 3128403900
I1202 03:02:21.863538  6391 layer_factory.hpp:77] Creating layer conv3_4/x1
I1202 03:02:21.863554  6391 net.cpp:84] Creating Layer conv3_4/x1
I1202 03:02:21.863561  6391 net.cpp:406] conv3_4/x1 <- block_3_3_relu3_3_0_split_0
I1202 03:02:21.863574  6391 net.cpp:380] conv3_4/x1 -> conv3_4/x1
I1202 03:02:21.869773  6391 net.cpp:122] Setting up conv3_4/x1
I1202 03:02:21.869810  6391 net.cpp:129] Top shape: 15 128 28 28 (1505280)
I1202 03:02:21.869822  6391 net.cpp:137] Memory required for data: 3134425020
I1202 03:02:21.869837  6391 layer_factory.hpp:77] Creating layer conv3_4/x1/bn
I1202 03:02:21.869854  6391 net.cpp:84] Creating Layer conv3_4/x1/bn
I1202 03:02:21.869865  6391 net.cpp:406] conv3_4/x1/bn <- conv3_4/x1
I1202 03:02:21.869880  6391 net.cpp:367] conv3_4/x1/bn -> conv3_4/x1 (in-place)
I1202 03:02:21.870329  6391 net.cpp:122] Setting up conv3_4/x1/bn
I1202 03:02:21.870345  6391 net.cpp:129] Top shape: 15 128 28 28 (1505280)
I1202 03:02:21.870353  6391 net.cpp:137] Memory required for data: 3140446140
I1202 03:02:21.870373  6391 layer_factory.hpp:77] Creating layer conv3_4/x1/scale
I1202 03:02:21.870388  6391 net.cpp:84] Creating Layer conv3_4/x1/scale
I1202 03:02:21.870398  6391 net.cpp:406] conv3_4/x1/scale <- conv3_4/x1
I1202 03:02:21.870409  6391 net.cpp:367] conv3_4/x1/scale -> conv3_4/x1 (in-place)
I1202 03:02:21.870499  6391 layer_factory.hpp:77] Creating layer conv3_4/x1/scale
I1202 03:02:21.870750  6391 net.cpp:122] Setting up conv3_4/x1/scale
I1202 03:02:21.870766  6391 net.cpp:129] Top shape: 15 128 28 28 (1505280)
I1202 03:02:21.870774  6391 net.cpp:137] Memory required for data: 3146467260
I1202 03:02:21.870788  6391 layer_factory.hpp:77] Creating layer relu3_4/x1
I1202 03:02:21.870800  6391 net.cpp:84] Creating Layer relu3_4/x1
I1202 03:02:21.870808  6391 net.cpp:406] relu3_4/x1 <- conv3_4/x1
I1202 03:02:21.870822  6391 net.cpp:367] relu3_4/x1 -> conv3_4/x1 (in-place)
I1202 03:02:21.871217  6391 net.cpp:122] Setting up relu3_4/x1
I1202 03:02:21.871237  6391 net.cpp:129] Top shape: 15 128 28 28 (1505280)
I1202 03:02:21.871245  6391 net.cpp:137] Memory required for data: 3152488380
I1202 03:02:21.871255  6391 layer_factory.hpp:77] Creating layer conv3_4/x2
I1202 03:02:21.871278  6391 net.cpp:84] Creating Layer conv3_4/x2
I1202 03:02:21.871286  6391 net.cpp:406] conv3_4/x2 <- conv3_4/x1
I1202 03:02:21.871301  6391 net.cpp:380] conv3_4/x2 -> conv3_4/x2
I1202 03:02:21.883208  6391 net.cpp:122] Setting up conv3_4/x2
I1202 03:02:21.883247  6391 net.cpp:129] Top shape: 15 128 28 28 (1505280)
I1202 03:02:21.883255  6391 net.cpp:137] Memory required for data: 3158509500
I1202 03:02:21.883302  6391 layer_factory.hpp:77] Creating layer conv3_4/x2/bn
I1202 03:02:21.883328  6391 net.cpp:84] Creating Layer conv3_4/x2/bn
I1202 03:02:21.883363  6391 net.cpp:406] conv3_4/x2/bn <- conv3_4/x2
I1202 03:02:21.883378  6391 net.cpp:367] conv3_4/x2/bn -> conv3_4/x2 (in-place)
I1202 03:02:21.883791  6391 net.cpp:122] Setting up conv3_4/x2/bn
I1202 03:02:21.883823  6391 net.cpp:129] Top shape: 15 128 28 28 (1505280)
I1202 03:02:21.883829  6391 net.cpp:137] Memory required for data: 3164530620
I1202 03:02:21.883842  6391 layer_factory.hpp:77] Creating layer conv3_4/x2/scale
I1202 03:02:21.883853  6391 net.cpp:84] Creating Layer conv3_4/x2/scale
I1202 03:02:21.883860  6391 net.cpp:406] conv3_4/x2/scale <- conv3_4/x2
I1202 03:02:21.883870  6391 net.cpp:367] conv3_4/x2/scale -> conv3_4/x2 (in-place)
I1202 03:02:21.883968  6391 layer_factory.hpp:77] Creating layer conv3_4/x2/scale
I1202 03:02:21.884156  6391 net.cpp:122] Setting up conv3_4/x2/scale
I1202 03:02:21.884167  6391 net.cpp:129] Top shape: 15 128 28 28 (1505280)
I1202 03:02:21.884173  6391 net.cpp:137] Memory required for data: 3170551740
I1202 03:02:21.884184  6391 layer_factory.hpp:77] Creating layer relu3_4/x2
I1202 03:02:21.884196  6391 net.cpp:84] Creating Layer relu3_4/x2
I1202 03:02:21.884202  6391 net.cpp:406] relu3_4/x2 <- conv3_4/x2
I1202 03:02:21.884209  6391 net.cpp:367] relu3_4/x2 -> conv3_4/x2 (in-place)
I1202 03:02:21.884502  6391 net.cpp:122] Setting up relu3_4/x2
I1202 03:02:21.884517  6391 net.cpp:129] Top shape: 15 128 28 28 (1505280)
I1202 03:02:21.884523  6391 net.cpp:137] Memory required for data: 3176572860
I1202 03:02:21.884539  6391 layer_factory.hpp:77] Creating layer conv3_4/x3
I1202 03:02:21.884553  6391 net.cpp:84] Creating Layer conv3_4/x3
I1202 03:02:21.884559  6391 net.cpp:406] conv3_4/x3 <- conv3_4/x2
I1202 03:02:21.884572  6391 net.cpp:380] conv3_4/x3 -> conv3_4/x3
I1202 03:02:21.892540  6391 net.cpp:122] Setting up conv3_4/x3
I1202 03:02:21.892585  6391 net.cpp:129] Top shape: 15 512 28 28 (6021120)
I1202 03:02:21.892593  6391 net.cpp:137] Memory required for data: 3200657340
I1202 03:02:21.892607  6391 layer_factory.hpp:77] Creating layer conv3_4/x3/bn
I1202 03:02:21.892623  6391 net.cpp:84] Creating Layer conv3_4/x3/bn
I1202 03:02:21.892635  6391 net.cpp:406] conv3_4/x3/bn <- conv3_4/x3
I1202 03:02:21.892652  6391 net.cpp:367] conv3_4/x3/bn -> conv3_4/x3 (in-place)
I1202 03:02:21.893116  6391 net.cpp:122] Setting up conv3_4/x3/bn
I1202 03:02:21.893133  6391 net.cpp:129] Top shape: 15 512 28 28 (6021120)
I1202 03:02:21.893143  6391 net.cpp:137] Memory required for data: 3224741820
I1202 03:02:21.893159  6391 layer_factory.hpp:77] Creating layer conv3_4/x3/scale
I1202 03:02:21.893172  6391 net.cpp:84] Creating Layer conv3_4/x3/scale
I1202 03:02:21.893182  6391 net.cpp:406] conv3_4/x3/scale <- conv3_4/x3
I1202 03:02:21.893194  6391 net.cpp:367] conv3_4/x3/scale -> conv3_4/x3 (in-place)
I1202 03:02:21.893290  6391 layer_factory.hpp:77] Creating layer conv3_4/x3/scale
I1202 03:02:21.893537  6391 net.cpp:122] Setting up conv3_4/x3/scale
I1202 03:02:21.893553  6391 net.cpp:129] Top shape: 15 512 28 28 (6021120)
I1202 03:02:21.893563  6391 net.cpp:137] Memory required for data: 3248826300
I1202 03:02:21.893579  6391 layer_factory.hpp:77] Creating layer conv3_4/x3_conv3_4/x3/scale_0_split
I1202 03:02:21.893594  6391 net.cpp:84] Creating Layer conv3_4/x3_conv3_4/x3/scale_0_split
I1202 03:02:21.893601  6391 net.cpp:406] conv3_4/x3_conv3_4/x3/scale_0_split <- conv3_4/x3
I1202 03:02:21.893618  6391 net.cpp:380] conv3_4/x3_conv3_4/x3/scale_0_split -> conv3_4/x3_conv3_4/x3/scale_0_split_0
I1202 03:02:21.893635  6391 net.cpp:380] conv3_4/x3_conv3_4/x3/scale_0_split -> conv3_4/x3_conv3_4/x3/scale_0_split_1
I1202 03:02:21.893717  6391 net.cpp:122] Setting up conv3_4/x3_conv3_4/x3/scale_0_split
I1202 03:02:21.893730  6391 net.cpp:129] Top shape: 15 512 28 28 (6021120)
I1202 03:02:21.893741  6391 net.cpp:129] Top shape: 15 512 28 28 (6021120)
I1202 03:02:21.893749  6391 net.cpp:137] Memory required for data: 3296995260
I1202 03:02:21.893756  6391 layer_factory.hpp:77] Creating layer pool3_4/gap
I1202 03:02:21.893779  6391 net.cpp:84] Creating Layer pool3_4/gap
I1202 03:02:21.893811  6391 net.cpp:406] pool3_4/gap <- conv3_4/x3_conv3_4/x3/scale_0_split_0
I1202 03:02:21.893847  6391 net.cpp:380] pool3_4/gap -> pool3_4/gap
I1202 03:02:21.894299  6391 net.cpp:122] Setting up pool3_4/gap
I1202 03:02:21.894318  6391 net.cpp:129] Top shape: 15 512 1 1 (7680)
I1202 03:02:21.894328  6391 net.cpp:137] Memory required for data: 3297025980
I1202 03:02:21.894335  6391 layer_factory.hpp:77] Creating layer fc3_4/sqz
I1202 03:02:21.894351  6391 net.cpp:84] Creating Layer fc3_4/sqz
I1202 03:02:21.894361  6391 net.cpp:406] fc3_4/sqz <- pool3_4/gap
I1202 03:02:21.894400  6391 net.cpp:380] fc3_4/sqz -> fc3_4/sqz
I1202 03:02:21.895268  6391 net.cpp:122] Setting up fc3_4/sqz
I1202 03:02:21.895288  6391 net.cpp:129] Top shape: 15 32 (480)
I1202 03:02:21.895297  6391 net.cpp:137] Memory required for data: 3297027900
I1202 03:02:21.895311  6391 layer_factory.hpp:77] Creating layer relu3_4/sqz
I1202 03:02:21.895323  6391 net.cpp:84] Creating Layer relu3_4/sqz
I1202 03:02:21.895331  6391 net.cpp:406] relu3_4/sqz <- fc3_4/sqz
I1202 03:02:21.895344  6391 net.cpp:367] relu3_4/sqz -> fc3_4/sqz (in-place)
I1202 03:02:21.896941  6391 net.cpp:122] Setting up relu3_4/sqz
I1202 03:02:21.896970  6391 net.cpp:129] Top shape: 15 32 (480)
I1202 03:02:21.896978  6391 net.cpp:137] Memory required for data: 3297029820
I1202 03:02:21.896989  6391 layer_factory.hpp:77] Creating layer fc3_4/exc
I1202 03:02:21.897009  6391 net.cpp:84] Creating Layer fc3_4/exc
I1202 03:02:21.897019  6391 net.cpp:406] fc3_4/exc <- fc3_4/sqz
I1202 03:02:21.897035  6391 net.cpp:380] fc3_4/exc -> fc3_4/exc
I1202 03:02:21.897722  6391 net.cpp:122] Setting up fc3_4/exc
I1202 03:02:21.897742  6391 net.cpp:129] Top shape: 15 512 (7680)
I1202 03:02:21.897749  6391 net.cpp:137] Memory required for data: 3297060540
I1202 03:02:21.897763  6391 layer_factory.hpp:77] Creating layer sigm3_4/gate
I1202 03:02:21.897774  6391 net.cpp:84] Creating Layer sigm3_4/gate
I1202 03:02:21.897784  6391 net.cpp:406] sigm3_4/gate <- fc3_4/exc
I1202 03:02:21.897795  6391 net.cpp:367] sigm3_4/gate -> fc3_4/exc (in-place)
I1202 03:02:21.898171  6391 net.cpp:122] Setting up sigm3_4/gate
I1202 03:02:21.898195  6391 net.cpp:129] Top shape: 15 512 (7680)
I1202 03:02:21.898205  6391 net.cpp:137] Memory required for data: 3297091260
I1202 03:02:21.898213  6391 layer_factory.hpp:77] Creating layer scale3_4
I1202 03:02:21.898226  6391 net.cpp:84] Creating Layer scale3_4
I1202 03:02:21.898236  6391 net.cpp:406] scale3_4 <- conv3_4/x3_conv3_4/x3/scale_0_split_1
I1202 03:02:21.898247  6391 net.cpp:406] scale3_4 <- fc3_4/exc
I1202 03:02:21.898281  6391 net.cpp:380] scale3_4 -> scale3_4
I1202 03:02:21.898438  6391 net.cpp:122] Setting up scale3_4
I1202 03:02:21.898457  6391 net.cpp:129] Top shape: 15 512 28 28 (6021120)
I1202 03:02:21.898466  6391 net.cpp:137] Memory required for data: 3321175740
I1202 03:02:21.898473  6391 layer_factory.hpp:77] Creating layer block_3_4
I1202 03:02:21.898488  6391 net.cpp:84] Creating Layer block_3_4
I1202 03:02:21.898515  6391 net.cpp:406] block_3_4 <- block_3_3_relu3_3_0_split_1
I1202 03:02:21.898530  6391 net.cpp:406] block_3_4 <- scale3_4
I1202 03:02:21.898540  6391 net.cpp:380] block_3_4 -> block_3_4
I1202 03:02:21.898597  6391 net.cpp:122] Setting up block_3_4
I1202 03:02:21.898610  6391 net.cpp:129] Top shape: 15 512 28 28 (6021120)
I1202 03:02:21.898620  6391 net.cpp:137] Memory required for data: 3345260220
I1202 03:02:21.898627  6391 layer_factory.hpp:77] Creating layer relu3_4
I1202 03:02:21.898641  6391 net.cpp:84] Creating Layer relu3_4
I1202 03:02:21.898650  6391 net.cpp:406] relu3_4 <- block_3_4
I1202 03:02:21.898663  6391 net.cpp:367] relu3_4 -> block_3_4 (in-place)
I1202 03:02:21.899049  6391 net.cpp:122] Setting up relu3_4
I1202 03:02:21.899066  6391 net.cpp:129] Top shape: 15 512 28 28 (6021120)
I1202 03:02:21.899075  6391 net.cpp:137] Memory required for data: 3369344700
I1202 03:02:21.899083  6391 layer_factory.hpp:77] Creating layer block_3_4_relu3_4_0_split
I1202 03:02:21.899107  6391 net.cpp:84] Creating Layer block_3_4_relu3_4_0_split
I1202 03:02:21.899134  6391 net.cpp:406] block_3_4_relu3_4_0_split <- block_3_4
I1202 03:02:21.899148  6391 net.cpp:380] block_3_4_relu3_4_0_split -> block_3_4_relu3_4_0_split_0
I1202 03:02:21.899166  6391 net.cpp:380] block_3_4_relu3_4_0_split -> block_3_4_relu3_4_0_split_1
I1202 03:02:21.899262  6391 net.cpp:122] Setting up block_3_4_relu3_4_0_split
I1202 03:02:21.899276  6391 net.cpp:129] Top shape: 15 512 28 28 (6021120)
I1202 03:02:21.899287  6391 net.cpp:129] Top shape: 15 512 28 28 (6021120)
I1202 03:02:21.899296  6391 net.cpp:137] Memory required for data: 3417513660
I1202 03:02:21.899309  6391 layer_factory.hpp:77] Creating layer conv4_1/prj
I1202 03:02:21.899330  6391 net.cpp:84] Creating Layer conv4_1/prj
I1202 03:02:21.899340  6391 net.cpp:406] conv4_1/prj <- block_3_4_relu3_4_0_split_0
I1202 03:02:21.899358  6391 net.cpp:380] conv4_1/prj -> conv4_1/prj
I1202 03:02:21.916481  6391 net.cpp:122] Setting up conv4_1/prj
I1202 03:02:21.916510  6391 net.cpp:129] Top shape: 15 1024 14 14 (3010560)
I1202 03:02:21.916519  6391 net.cpp:137] Memory required for data: 3429555900
I1202 03:02:21.916533  6391 layer_factory.hpp:77] Creating layer conv4_1/prj/bn
I1202 03:02:21.916548  6391 net.cpp:84] Creating Layer conv4_1/prj/bn
I1202 03:02:21.916555  6391 net.cpp:406] conv4_1/prj/bn <- conv4_1/prj
I1202 03:02:21.916566  6391 net.cpp:367] conv4_1/prj/bn -> conv4_1/prj (in-place)
I1202 03:02:21.917052  6391 net.cpp:122] Setting up conv4_1/prj/bn
I1202 03:02:21.917069  6391 net.cpp:129] Top shape: 15 1024 14 14 (3010560)
I1202 03:02:21.917076  6391 net.cpp:137] Memory required for data: 3441598140
I1202 03:02:21.917089  6391 layer_factory.hpp:77] Creating layer conv4_1/prj/scale
I1202 03:02:21.917102  6391 net.cpp:84] Creating Layer conv4_1/prj/scale
I1202 03:02:21.917110  6391 net.cpp:406] conv4_1/prj/scale <- conv4_1/prj
I1202 03:02:21.917126  6391 net.cpp:367] conv4_1/prj/scale -> conv4_1/prj (in-place)
I1202 03:02:21.917199  6391 layer_factory.hpp:77] Creating layer conv4_1/prj/scale
I1202 03:02:21.917420  6391 net.cpp:122] Setting up conv4_1/prj/scale
I1202 03:02:21.917433  6391 net.cpp:129] Top shape: 15 1024 14 14 (3010560)
I1202 03:02:21.917440  6391 net.cpp:137] Memory required for data: 3453640380
I1202 03:02:21.917453  6391 layer_factory.hpp:77] Creating layer conv4_1/x1
I1202 03:02:21.917470  6391 net.cpp:84] Creating Layer conv4_1/x1
I1202 03:02:21.917479  6391 net.cpp:406] conv4_1/x1 <- block_3_4_relu3_4_0_split_1
I1202 03:02:21.917493  6391 net.cpp:380] conv4_1/x1 -> conv4_1/x1
I1202 03:02:21.922869  6391 net.cpp:122] Setting up conv4_1/x1
I1202 03:02:21.922899  6391 net.cpp:129] Top shape: 15 256 28 28 (3010560)
I1202 03:02:21.922906  6391 net.cpp:137] Memory required for data: 3465682620
I1202 03:02:21.922917  6391 layer_factory.hpp:77] Creating layer conv4_1/x1/bn
I1202 03:02:21.922930  6391 net.cpp:84] Creating Layer conv4_1/x1/bn
I1202 03:02:21.922940  6391 net.cpp:406] conv4_1/x1/bn <- conv4_1/x1
I1202 03:02:21.922952  6391 net.cpp:367] conv4_1/x1/bn -> conv4_1/x1 (in-place)
I1202 03:02:21.923336  6391 net.cpp:122] Setting up conv4_1/x1/bn
I1202 03:02:21.923349  6391 net.cpp:129] Top shape: 15 256 28 28 (3010560)
I1202 03:02:21.923357  6391 net.cpp:137] Memory required for data: 3477724860
I1202 03:02:21.923434  6391 layer_factory.hpp:77] Creating layer conv4_1/x1/scale
I1202 03:02:21.923483  6391 net.cpp:84] Creating Layer conv4_1/x1/scale
I1202 03:02:21.923499  6391 net.cpp:406] conv4_1/x1/scale <- conv4_1/x1
I1202 03:02:21.923518  6391 net.cpp:367] conv4_1/x1/scale -> conv4_1/x1 (in-place)
I1202 03:02:21.923693  6391 layer_factory.hpp:77] Creating layer conv4_1/x1/scale
I1202 03:02:21.924010  6391 net.cpp:122] Setting up conv4_1/x1/scale
I1202 03:02:21.924028  6391 net.cpp:129] Top shape: 15 256 28 28 (3010560)
I1202 03:02:21.924036  6391 net.cpp:137] Memory required for data: 3489767100
I1202 03:02:21.924051  6391 layer_factory.hpp:77] Creating layer relu4_1/x1
I1202 03:02:21.924063  6391 net.cpp:84] Creating Layer relu4_1/x1
I1202 03:02:21.924080  6391 net.cpp:406] relu4_1/x1 <- conv4_1/x1
I1202 03:02:21.924109  6391 net.cpp:367] relu4_1/x1 -> conv4_1/x1 (in-place)
I1202 03:02:21.924551  6391 net.cpp:122] Setting up relu4_1/x1
I1202 03:02:21.924576  6391 net.cpp:129] Top shape: 15 256 28 28 (3010560)
I1202 03:02:21.924585  6391 net.cpp:137] Memory required for data: 3501809340
I1202 03:02:21.924597  6391 layer_factory.hpp:77] Creating layer conv4_1/x2
I1202 03:02:21.924621  6391 net.cpp:84] Creating Layer conv4_1/x2
I1202 03:02:21.924633  6391 net.cpp:406] conv4_1/x2 <- conv4_1/x1
I1202 03:02:21.924651  6391 net.cpp:380] conv4_1/x2 -> conv4_1/x2
I1202 03:02:21.946822  6391 net.cpp:122] Setting up conv4_1/x2
I1202 03:02:21.946859  6391 net.cpp:129] Top shape: 15 256 14 14 (752640)
I1202 03:02:21.946871  6391 net.cpp:137] Memory required for data: 3504819900
I1202 03:02:21.946884  6391 layer_factory.hpp:77] Creating layer conv4_1/x2/bn
I1202 03:02:21.946905  6391 net.cpp:84] Creating Layer conv4_1/x2/bn
I1202 03:02:21.946916  6391 net.cpp:406] conv4_1/x2/bn <- conv4_1/x2
I1202 03:02:21.946930  6391 net.cpp:367] conv4_1/x2/bn -> conv4_1/x2 (in-place)
I1202 03:02:21.947407  6391 net.cpp:122] Setting up conv4_1/x2/bn
I1202 03:02:21.947425  6391 net.cpp:129] Top shape: 15 256 14 14 (752640)
I1202 03:02:21.947434  6391 net.cpp:137] Memory required for data: 3507830460
I1202 03:02:21.947464  6391 layer_factory.hpp:77] Creating layer conv4_1/x2/scale
I1202 03:02:21.947482  6391 net.cpp:84] Creating Layer conv4_1/x2/scale
I1202 03:02:21.947494  6391 net.cpp:406] conv4_1/x2/scale <- conv4_1/x2
I1202 03:02:21.947506  6391 net.cpp:367] conv4_1/x2/scale -> conv4_1/x2 (in-place)
I1202 03:02:21.947595  6391 layer_factory.hpp:77] Creating layer conv4_1/x2/scale
I1202 03:02:21.947876  6391 net.cpp:122] Setting up conv4_1/x2/scale
I1202 03:02:21.947897  6391 net.cpp:129] Top shape: 15 256 14 14 (752640)
I1202 03:02:21.947906  6391 net.cpp:137] Memory required for data: 3510841020
I1202 03:02:21.947921  6391 layer_factory.hpp:77] Creating layer relu4_1/x2
I1202 03:02:21.947935  6391 net.cpp:84] Creating Layer relu4_1/x2
I1202 03:02:21.947947  6391 net.cpp:406] relu4_1/x2 <- conv4_1/x2
I1202 03:02:21.947958  6391 net.cpp:367] relu4_1/x2 -> conv4_1/x2 (in-place)
I1202 03:02:21.948369  6391 net.cpp:122] Setting up relu4_1/x2
I1202 03:02:21.948390  6391 net.cpp:129] Top shape: 15 256 14 14 (752640)
I1202 03:02:21.948400  6391 net.cpp:137] Memory required for data: 3513851580
I1202 03:02:21.948410  6391 layer_factory.hpp:77] Creating layer conv4_1/x3
I1202 03:02:21.948429  6391 net.cpp:84] Creating Layer conv4_1/x3
I1202 03:02:21.948441  6391 net.cpp:406] conv4_1/x3 <- conv4_1/x2
I1202 03:02:21.948458  6391 net.cpp:380] conv4_1/x3 -> conv4_1/x3
I1202 03:02:21.960803  6391 net.cpp:122] Setting up conv4_1/x3
I1202 03:02:21.960834  6391 net.cpp:129] Top shape: 15 1024 14 14 (3010560)
I1202 03:02:21.960844  6391 net.cpp:137] Memory required for data: 3525893820
I1202 03:02:21.960857  6391 layer_factory.hpp:77] Creating layer conv4_1/x3/bn
I1202 03:02:21.960892  6391 net.cpp:84] Creating Layer conv4_1/x3/bn
I1202 03:02:21.960902  6391 net.cpp:406] conv4_1/x3/bn <- conv4_1/x3
I1202 03:02:21.960917  6391 net.cpp:367] conv4_1/x3/bn -> conv4_1/x3 (in-place)
I1202 03:02:21.961330  6391 net.cpp:122] Setting up conv4_1/x3/bn
I1202 03:02:21.961349  6391 net.cpp:129] Top shape: 15 1024 14 14 (3010560)
I1202 03:02:21.961356  6391 net.cpp:137] Memory required for data: 3537936060
I1202 03:02:21.961372  6391 layer_factory.hpp:77] Creating layer conv4_1/x3/scale
I1202 03:02:21.961386  6391 net.cpp:84] Creating Layer conv4_1/x3/scale
I1202 03:02:21.961395  6391 net.cpp:406] conv4_1/x3/scale <- conv4_1/x3
I1202 03:02:21.961408  6391 net.cpp:367] conv4_1/x3/scale -> conv4_1/x3 (in-place)
I1202 03:02:21.961483  6391 layer_factory.hpp:77] Creating layer conv4_1/x3/scale
I1202 03:02:21.961715  6391 net.cpp:122] Setting up conv4_1/x3/scale
I1202 03:02:21.961732  6391 net.cpp:129] Top shape: 15 1024 14 14 (3010560)
I1202 03:02:21.961740  6391 net.cpp:137] Memory required for data: 3549978300
I1202 03:02:21.961761  6391 layer_factory.hpp:77] Creating layer conv4_1/x3_conv4_1/x3/scale_0_split
I1202 03:02:21.961792  6391 net.cpp:84] Creating Layer conv4_1/x3_conv4_1/x3/scale_0_split
I1202 03:02:21.961802  6391 net.cpp:406] conv4_1/x3_conv4_1/x3/scale_0_split <- conv4_1/x3
I1202 03:02:21.961827  6391 net.cpp:380] conv4_1/x3_conv4_1/x3/scale_0_split -> conv4_1/x3_conv4_1/x3/scale_0_split_0
I1202 03:02:21.961843  6391 net.cpp:380] conv4_1/x3_conv4_1/x3/scale_0_split -> conv4_1/x3_conv4_1/x3/scale_0_split_1
I1202 03:02:21.961925  6391 net.cpp:122] Setting up conv4_1/x3_conv4_1/x3/scale_0_split
I1202 03:02:21.961940  6391 net.cpp:129] Top shape: 15 1024 14 14 (3010560)
I1202 03:02:21.961951  6391 net.cpp:129] Top shape: 15 1024 14 14 (3010560)
I1202 03:02:21.961957  6391 net.cpp:137] Memory required for data: 3574062780
I1202 03:02:21.961966  6391 layer_factory.hpp:77] Creating layer pool4_1/gap
I1202 03:02:21.961982  6391 net.cpp:84] Creating Layer pool4_1/gap
I1202 03:02:21.961992  6391 net.cpp:406] pool4_1/gap <- conv4_1/x3_conv4_1/x3/scale_0_split_0
I1202 03:02:21.962004  6391 net.cpp:380] pool4_1/gap -> pool4_1/gap
I1202 03:02:21.963426  6391 net.cpp:122] Setting up pool4_1/gap
I1202 03:02:21.963459  6391 net.cpp:129] Top shape: 15 1024 1 1 (15360)
I1202 03:02:21.963469  6391 net.cpp:137] Memory required for data: 3574124220
I1202 03:02:21.963479  6391 layer_factory.hpp:77] Creating layer fc4_1/sqz
I1202 03:02:21.963505  6391 net.cpp:84] Creating Layer fc4_1/sqz
I1202 03:02:21.963515  6391 net.cpp:406] fc4_1/sqz <- pool4_1/gap
I1202 03:02:21.963531  6391 net.cpp:380] fc4_1/sqz -> fc4_1/sqz
I1202 03:02:21.965279  6391 net.cpp:122] Setting up fc4_1/sqz
I1202 03:02:21.965301  6391 net.cpp:129] Top shape: 15 64 (960)
I1202 03:02:21.965308  6391 net.cpp:137] Memory required for data: 3574128060
I1202 03:02:21.965329  6391 layer_factory.hpp:77] Creating layer relu4_1/sqz
I1202 03:02:21.965343  6391 net.cpp:84] Creating Layer relu4_1/sqz
I1202 03:02:21.965353  6391 net.cpp:406] relu4_1/sqz <- fc4_1/sqz
I1202 03:02:21.965365  6391 net.cpp:367] relu4_1/sqz -> fc4_1/sqz (in-place)
I1202 03:02:21.965708  6391 net.cpp:122] Setting up relu4_1/sqz
I1202 03:02:21.965728  6391 net.cpp:129] Top shape: 15 64 (960)
I1202 03:02:21.965736  6391 net.cpp:137] Memory required for data: 3574131900
I1202 03:02:21.965744  6391 layer_factory.hpp:77] Creating layer fc4_1/exc
I1202 03:02:21.965757  6391 net.cpp:84] Creating Layer fc4_1/exc
I1202 03:02:21.965766  6391 net.cpp:406] fc4_1/exc <- fc4_1/sqz
I1202 03:02:21.965782  6391 net.cpp:380] fc4_1/exc -> fc4_1/exc
I1202 03:02:21.967447  6391 net.cpp:122] Setting up fc4_1/exc
I1202 03:02:21.967464  6391 net.cpp:129] Top shape: 15 1024 (15360)
I1202 03:02:21.967471  6391 net.cpp:137] Memory required for data: 3574193340
I1202 03:02:21.967485  6391 layer_factory.hpp:77] Creating layer sigm4_1/gate
I1202 03:02:21.967497  6391 net.cpp:84] Creating Layer sigm4_1/gate
I1202 03:02:21.967505  6391 net.cpp:406] sigm4_1/gate <- fc4_1/exc
I1202 03:02:21.967519  6391 net.cpp:367] sigm4_1/gate -> fc4_1/exc (in-place)
I1202 03:02:21.967869  6391 net.cpp:122] Setting up sigm4_1/gate
I1202 03:02:21.967890  6391 net.cpp:129] Top shape: 15 1024 (15360)
I1202 03:02:21.967897  6391 net.cpp:137] Memory required for data: 3574254780
I1202 03:02:21.967913  6391 layer_factory.hpp:77] Creating layer scale4_1
I1202 03:02:21.967931  6391 net.cpp:84] Creating Layer scale4_1
I1202 03:02:21.967941  6391 net.cpp:406] scale4_1 <- conv4_1/x3_conv4_1/x3/scale_0_split_1
I1202 03:02:21.967952  6391 net.cpp:406] scale4_1 <- fc4_1/exc
I1202 03:02:21.967963  6391 net.cpp:380] scale4_1 -> scale4_1
I1202 03:02:21.968108  6391 net.cpp:122] Setting up scale4_1
I1202 03:02:21.968133  6391 net.cpp:129] Top shape: 15 1024 14 14 (3010560)
I1202 03:02:21.968142  6391 net.cpp:137] Memory required for data: 3586297020
I1202 03:02:21.968149  6391 layer_factory.hpp:77] Creating layer block_4_1
I1202 03:02:21.968165  6391 net.cpp:84] Creating Layer block_4_1
I1202 03:02:21.968175  6391 net.cpp:406] block_4_1 <- conv4_1/prj
I1202 03:02:21.968199  6391 net.cpp:406] block_4_1 <- scale4_1
I1202 03:02:21.968238  6391 net.cpp:380] block_4_1 -> block_4_1
I1202 03:02:21.968294  6391 net.cpp:122] Setting up block_4_1
I1202 03:02:21.968310  6391 net.cpp:129] Top shape: 15 1024 14 14 (3010560)
I1202 03:02:21.968318  6391 net.cpp:137] Memory required for data: 3598339260
I1202 03:02:21.968327  6391 layer_factory.hpp:77] Creating layer relu4_1
I1202 03:02:21.968338  6391 net.cpp:84] Creating Layer relu4_1
I1202 03:02:21.968348  6391 net.cpp:406] relu4_1 <- block_4_1
I1202 03:02:21.968361  6391 net.cpp:367] relu4_1 -> block_4_1 (in-place)
I1202 03:02:21.968691  6391 net.cpp:122] Setting up relu4_1
I1202 03:02:21.968713  6391 net.cpp:129] Top shape: 15 1024 14 14 (3010560)
I1202 03:02:21.968721  6391 net.cpp:137] Memory required for data: 3610381500
I1202 03:02:21.968729  6391 layer_factory.hpp:77] Creating layer block_4_1_relu4_1_0_split
I1202 03:02:21.968744  6391 net.cpp:84] Creating Layer block_4_1_relu4_1_0_split
I1202 03:02:21.970401  6391 net.cpp:406] block_4_1_relu4_1_0_split <- block_4_1
I1202 03:02:21.970423  6391 net.cpp:380] block_4_1_relu4_1_0_split -> block_4_1_relu4_1_0_split_0
I1202 03:02:21.970443  6391 net.cpp:380] block_4_1_relu4_1_0_split -> block_4_1_relu4_1_0_split_1
I1202 03:02:21.970532  6391 net.cpp:122] Setting up block_4_1_relu4_1_0_split
I1202 03:02:21.970549  6391 net.cpp:129] Top shape: 15 1024 14 14 (3010560)
I1202 03:02:21.970559  6391 net.cpp:129] Top shape: 15 1024 14 14 (3010560)
I1202 03:02:21.970567  6391 net.cpp:137] Memory required for data: 3634465980
I1202 03:02:21.970584  6391 layer_factory.hpp:77] Creating layer conv4_2/x1
I1202 03:02:21.970605  6391 net.cpp:84] Creating Layer conv4_2/x1
I1202 03:02:21.970615  6391 net.cpp:406] conv4_2/x1 <- block_4_1_relu4_1_0_split_0
I1202 03:02:21.970631  6391 net.cpp:380] conv4_2/x1 -> conv4_2/x1
I1202 03:02:21.978435  6391 net.cpp:122] Setting up conv4_2/x1
I1202 03:02:21.978464  6391 net.cpp:129] Top shape: 15 256 14 14 (752640)
I1202 03:02:21.978472  6391 net.cpp:137] Memory required for data: 3637476540
I1202 03:02:21.978493  6391 layer_factory.hpp:77] Creating layer conv4_2/x1/bn
I1202 03:02:21.978508  6391 net.cpp:84] Creating Layer conv4_2/x1/bn
I1202 03:02:21.978518  6391 net.cpp:406] conv4_2/x1/bn <- conv4_2/x1
I1202 03:02:21.978533  6391 net.cpp:367] conv4_2/x1/bn -> conv4_2/x1 (in-place)
I1202 03:02:21.978905  6391 net.cpp:122] Setting up conv4_2/x1/bn
I1202 03:02:21.978921  6391 net.cpp:129] Top shape: 15 256 14 14 (752640)
I1202 03:02:21.978929  6391 net.cpp:137] Memory required for data: 3640487100
I1202 03:02:21.978945  6391 layer_factory.hpp:77] Creating layer conv4_2/x1/scale
I1202 03:02:21.978956  6391 net.cpp:84] Creating Layer conv4_2/x1/scale
I1202 03:02:21.978965  6391 net.cpp:406] conv4_2/x1/scale <- conv4_2/x1
I1202 03:02:21.978976  6391 net.cpp:367] conv4_2/x1/scale -> conv4_2/x1 (in-place)
I1202 03:02:21.979055  6391 layer_factory.hpp:77] Creating layer conv4_2/x1/scale
I1202 03:02:21.979260  6391 net.cpp:122] Setting up conv4_2/x1/scale
I1202 03:02:21.979275  6391 net.cpp:129] Top shape: 15 256 14 14 (752640)
I1202 03:02:21.979285  6391 net.cpp:137] Memory required for data: 3643497660
I1202 03:02:21.979296  6391 layer_factory.hpp:77] Creating layer relu4_2/x1
I1202 03:02:21.979316  6391 net.cpp:84] Creating Layer relu4_2/x1
I1202 03:02:21.979326  6391 net.cpp:406] relu4_2/x1 <- conv4_2/x1
I1202 03:02:21.979338  6391 net.cpp:367] relu4_2/x1 -> conv4_2/x1 (in-place)
I1202 03:02:21.981465  6391 net.cpp:122] Setting up relu4_2/x1
I1202 03:02:21.981503  6391 net.cpp:129] Top shape: 15 256 14 14 (752640)
I1202 03:02:21.981513  6391 net.cpp:137] Memory required for data: 3646508220
I1202 03:02:21.981523  6391 layer_factory.hpp:77] Creating layer conv4_2/x2
I1202 03:02:21.981544  6391 net.cpp:84] Creating Layer conv4_2/x2
I1202 03:02:21.981554  6391 net.cpp:406] conv4_2/x2 <- conv4_2/x1
I1202 03:02:21.981570  6391 net.cpp:380] conv4_2/x2 -> conv4_2/x2
I1202 03:02:22.002151  6391 net.cpp:122] Setting up conv4_2/x2
I1202 03:02:22.002189  6391 net.cpp:129] Top shape: 15 256 14 14 (752640)
I1202 03:02:22.002208  6391 net.cpp:137] Memory required for data: 3649518780
I1202 03:02:22.002246  6391 layer_factory.hpp:77] Creating layer conv4_2/x2/bn
I1202 03:02:22.002267  6391 net.cpp:84] Creating Layer conv4_2/x2/bn
I1202 03:02:22.002276  6391 net.cpp:406] conv4_2/x2/bn <- conv4_2/x2
I1202 03:02:22.002290  6391 net.cpp:367] conv4_2/x2/bn -> conv4_2/x2 (in-place)
I1202 03:02:22.002734  6391 net.cpp:122] Setting up conv4_2/x2/bn
I1202 03:02:22.002751  6391 net.cpp:129] Top shape: 15 256 14 14 (752640)
I1202 03:02:22.002758  6391 net.cpp:137] Memory required for data: 3652529340
I1202 03:02:22.002774  6391 layer_factory.hpp:77] Creating layer conv4_2/x2/scale
I1202 03:02:22.002794  6391 net.cpp:84] Creating Layer conv4_2/x2/scale
I1202 03:02:22.002804  6391 net.cpp:406] conv4_2/x2/scale <- conv4_2/x2
I1202 03:02:22.002882  6391 net.cpp:367] conv4_2/x2/scale -> conv4_2/x2 (in-place)
I1202 03:02:22.003073  6391 layer_factory.hpp:77] Creating layer conv4_2/x2/scale
I1202 03:02:22.003361  6391 net.cpp:122] Setting up conv4_2/x2/scale
I1202 03:02:22.003386  6391 net.cpp:129] Top shape: 15 256 14 14 (752640)
I1202 03:02:22.003396  6391 net.cpp:137] Memory required for data: 3655539900
I1202 03:02:22.003412  6391 layer_factory.hpp:77] Creating layer relu4_2/x2
I1202 03:02:22.003439  6391 net.cpp:84] Creating Layer relu4_2/x2
I1202 03:02:22.003453  6391 net.cpp:406] relu4_2/x2 <- conv4_2/x2
I1202 03:02:22.003468  6391 net.cpp:367] relu4_2/x2 -> conv4_2/x2 (in-place)
I1202 03:02:22.003959  6391 net.cpp:122] Setting up relu4_2/x2
I1202 03:02:22.003984  6391 net.cpp:129] Top shape: 15 256 14 14 (752640)
I1202 03:02:22.003995  6391 net.cpp:137] Memory required for data: 3658550460
I1202 03:02:22.004006  6391 layer_factory.hpp:77] Creating layer conv4_2/x3
I1202 03:02:22.004029  6391 net.cpp:84] Creating Layer conv4_2/x3
I1202 03:02:22.004040  6391 net.cpp:406] conv4_2/x3 <- conv4_2/x2
I1202 03:02:22.004076  6391 net.cpp:380] conv4_2/x3 -> conv4_2/x3
I1202 03:02:22.015013  6391 net.cpp:122] Setting up conv4_2/x3
I1202 03:02:22.015046  6391 net.cpp:129] Top shape: 15 1024 14 14 (3010560)
I1202 03:02:22.015058  6391 net.cpp:137] Memory required for data: 3670592700
I1202 03:02:22.015072  6391 layer_factory.hpp:77] Creating layer conv4_2/x3/bn
I1202 03:02:22.015091  6391 net.cpp:84] Creating Layer conv4_2/x3/bn
I1202 03:02:22.015101  6391 net.cpp:406] conv4_2/x3/bn <- conv4_2/x3
I1202 03:02:22.015115  6391 net.cpp:367] conv4_2/x3/bn -> conv4_2/x3 (in-place)
I1202 03:02:22.015555  6391 net.cpp:122] Setting up conv4_2/x3/bn
I1202 03:02:22.015573  6391 net.cpp:129] Top shape: 15 1024 14 14 (3010560)
I1202 03:02:22.015583  6391 net.cpp:137] Memory required for data: 3682634940
I1202 03:02:22.015599  6391 layer_factory.hpp:77] Creating layer conv4_2/x3/scale
I1202 03:02:22.015615  6391 net.cpp:84] Creating Layer conv4_2/x3/scale
I1202 03:02:22.015625  6391 net.cpp:406] conv4_2/x3/scale <- conv4_2/x3
I1202 03:02:22.015637  6391 net.cpp:367] conv4_2/x3/scale -> conv4_2/x3 (in-place)
I1202 03:02:22.015719  6391 layer_factory.hpp:77] Creating layer conv4_2/x3/scale
I1202 03:02:22.015991  6391 net.cpp:122] Setting up conv4_2/x3/scale
I1202 03:02:22.016010  6391 net.cpp:129] Top shape: 15 1024 14 14 (3010560)
I1202 03:02:22.016019  6391 net.cpp:137] Memory required for data: 3694677180
I1202 03:02:22.016043  6391 layer_factory.hpp:77] Creating layer conv4_2/x3_conv4_2/x3/scale_0_split
I1202 03:02:22.016062  6391 net.cpp:84] Creating Layer conv4_2/x3_conv4_2/x3/scale_0_split
I1202 03:02:22.016072  6391 net.cpp:406] conv4_2/x3_conv4_2/x3/scale_0_split <- conv4_2/x3
I1202 03:02:22.016085  6391 net.cpp:380] conv4_2/x3_conv4_2/x3/scale_0_split -> conv4_2/x3_conv4_2/x3/scale_0_split_0
I1202 03:02:22.016103  6391 net.cpp:380] conv4_2/x3_conv4_2/x3/scale_0_split -> conv4_2/x3_conv4_2/x3/scale_0_split_1
I1202 03:02:22.016191  6391 net.cpp:122] Setting up conv4_2/x3_conv4_2/x3/scale_0_split
I1202 03:02:22.016206  6391 net.cpp:129] Top shape: 15 1024 14 14 (3010560)
I1202 03:02:22.016217  6391 net.cpp:129] Top shape: 15 1024 14 14 (3010560)
I1202 03:02:22.016237  6391 net.cpp:137] Memory required for data: 3718761660
I1202 03:02:22.016269  6391 layer_factory.hpp:77] Creating layer pool4_2/gap
I1202 03:02:22.016284  6391 net.cpp:84] Creating Layer pool4_2/gap
I1202 03:02:22.016294  6391 net.cpp:406] pool4_2/gap <- conv4_2/x3_conv4_2/x3/scale_0_split_0
I1202 03:02:22.016311  6391 net.cpp:380] pool4_2/gap -> pool4_2/gap
I1202 03:02:22.016721  6391 net.cpp:122] Setting up pool4_2/gap
I1202 03:02:22.016743  6391 net.cpp:129] Top shape: 15 1024 1 1 (15360)
I1202 03:02:22.016752  6391 net.cpp:137] Memory required for data: 3718823100
I1202 03:02:22.016760  6391 layer_factory.hpp:77] Creating layer fc4_2/sqz
I1202 03:02:22.016782  6391 net.cpp:84] Creating Layer fc4_2/sqz
I1202 03:02:22.016793  6391 net.cpp:406] fc4_2/sqz <- pool4_2/gap
I1202 03:02:22.016806  6391 net.cpp:380] fc4_2/sqz -> fc4_2/sqz
I1202 03:02:22.018622  6391 net.cpp:122] Setting up fc4_2/sqz
I1202 03:02:22.018642  6391 net.cpp:129] Top shape: 15 64 (960)
I1202 03:02:22.018651  6391 net.cpp:137] Memory required for data: 3718826940
I1202 03:02:22.018666  6391 layer_factory.hpp:77] Creating layer relu4_2/sqz
I1202 03:02:22.018678  6391 net.cpp:84] Creating Layer relu4_2/sqz
I1202 03:02:22.018689  6391 net.cpp:406] relu4_2/sqz <- fc4_2/sqz
I1202 03:02:22.018704  6391 net.cpp:367] relu4_2/sqz -> fc4_2/sqz (in-place)
I1202 03:02:22.019068  6391 net.cpp:122] Setting up relu4_2/sqz
I1202 03:02:22.019088  6391 net.cpp:129] Top shape: 15 64 (960)
I1202 03:02:22.019098  6391 net.cpp:137] Memory required for data: 3718830780
I1202 03:02:22.019114  6391 layer_factory.hpp:77] Creating layer fc4_2/exc
I1202 03:02:22.019132  6391 net.cpp:84] Creating Layer fc4_2/exc
I1202 03:02:22.019142  6391 net.cpp:406] fc4_2/exc <- fc4_2/sqz
I1202 03:02:22.019157  6391 net.cpp:380] fc4_2/exc -> fc4_2/exc
I1202 03:02:22.020942  6391 net.cpp:122] Setting up fc4_2/exc
I1202 03:02:22.020962  6391 net.cpp:129] Top shape: 15 1024 (15360)
I1202 03:02:22.020970  6391 net.cpp:137] Memory required for data: 3718892220
I1202 03:02:22.020984  6391 layer_factory.hpp:77] Creating layer sigm4_2/gate
I1202 03:02:22.020997  6391 net.cpp:84] Creating Layer sigm4_2/gate
I1202 03:02:22.021005  6391 net.cpp:406] sigm4_2/gate <- fc4_2/exc
I1202 03:02:22.021016  6391 net.cpp:367] sigm4_2/gate -> fc4_2/exc (in-place)
I1202 03:02:22.021353  6391 net.cpp:122] Setting up sigm4_2/gate
I1202 03:02:22.021370  6391 net.cpp:129] Top shape: 15 1024 (15360)
I1202 03:02:22.021378  6391 net.cpp:137] Memory required for data: 3718953660
I1202 03:02:22.021385  6391 layer_factory.hpp:77] Creating layer scale4_2
I1202 03:02:22.021399  6391 net.cpp:84] Creating Layer scale4_2
I1202 03:02:22.021409  6391 net.cpp:406] scale4_2 <- conv4_2/x3_conv4_2/x3/scale_0_split_1
I1202 03:02:22.021420  6391 net.cpp:406] scale4_2 <- fc4_2/exc
I1202 03:02:22.021435  6391 net.cpp:380] scale4_2 -> scale4_2
I1202 03:02:22.021576  6391 net.cpp:122] Setting up scale4_2
I1202 03:02:22.021592  6391 net.cpp:129] Top shape: 15 1024 14 14 (3010560)
I1202 03:02:22.021600  6391 net.cpp:137] Memory required for data: 3730995900
I1202 03:02:22.021607  6391 layer_factory.hpp:77] Creating layer block_4_2
I1202 03:02:22.021634  6391 net.cpp:84] Creating Layer block_4_2
I1202 03:02:22.021644  6391 net.cpp:406] block_4_2 <- block_4_1_relu4_1_0_split_1
I1202 03:02:22.021656  6391 net.cpp:406] block_4_2 <- scale4_2
I1202 03:02:22.021667  6391 net.cpp:380] block_4_2 -> block_4_2
I1202 03:02:22.021721  6391 net.cpp:122] Setting up block_4_2
I1202 03:02:22.021735  6391 net.cpp:129] Top shape: 15 1024 14 14 (3010560)
I1202 03:02:22.021744  6391 net.cpp:137] Memory required for data: 3743038140
I1202 03:02:22.021751  6391 layer_factory.hpp:77] Creating layer relu4_2
I1202 03:02:22.021764  6391 net.cpp:84] Creating Layer relu4_2
I1202 03:02:22.021773  6391 net.cpp:406] relu4_2 <- block_4_2
I1202 03:02:22.021786  6391 net.cpp:367] relu4_2 -> block_4_2 (in-place)
I1202 03:02:22.023177  6391 net.cpp:122] Setting up relu4_2
I1202 03:02:22.023206  6391 net.cpp:129] Top shape: 15 1024 14 14 (3010560)
I1202 03:02:22.023222  6391 net.cpp:137] Memory required for data: 3755080380
I1202 03:02:22.023247  6391 layer_factory.hpp:77] Creating layer block_4_2_relu4_2_0_split
I1202 03:02:22.023262  6391 net.cpp:84] Creating Layer block_4_2_relu4_2_0_split
I1202 03:02:22.023272  6391 net.cpp:406] block_4_2_relu4_2_0_split <- block_4_2
I1202 03:02:22.023288  6391 net.cpp:380] block_4_2_relu4_2_0_split -> block_4_2_relu4_2_0_split_0
I1202 03:02:22.023305  6391 net.cpp:380] block_4_2_relu4_2_0_split -> block_4_2_relu4_2_0_split_1
I1202 03:02:22.023399  6391 net.cpp:122] Setting up block_4_2_relu4_2_0_split
I1202 03:02:22.023416  6391 net.cpp:129] Top shape: 15 1024 14 14 (3010560)
I1202 03:02:22.023427  6391 net.cpp:129] Top shape: 15 1024 14 14 (3010560)
I1202 03:02:22.023433  6391 net.cpp:137] Memory required for data: 3779164860
I1202 03:02:22.023442  6391 layer_factory.hpp:77] Creating layer conv4_3/x1
I1202 03:02:22.023461  6391 net.cpp:84] Creating Layer conv4_3/x1
I1202 03:02:22.023471  6391 net.cpp:406] conv4_3/x1 <- block_4_2_relu4_2_0_split_0
I1202 03:02:22.023484  6391 net.cpp:380] conv4_3/x1 -> conv4_3/x1
I1202 03:02:22.031769  6391 net.cpp:122] Setting up conv4_3/x1
I1202 03:02:22.031837  6391 net.cpp:129] Top shape: 15 256 14 14 (752640)
I1202 03:02:22.031847  6391 net.cpp:137] Memory required for data: 3782175420
I1202 03:02:22.031860  6391 layer_factory.hpp:77] Creating layer conv4_3/x1/bn
I1202 03:02:22.031888  6391 net.cpp:84] Creating Layer conv4_3/x1/bn
I1202 03:02:22.031899  6391 net.cpp:406] conv4_3/x1/bn <- conv4_3/x1
I1202 03:02:22.031914  6391 net.cpp:367] conv4_3/x1/bn -> conv4_3/x1 (in-place)
I1202 03:02:22.032322  6391 net.cpp:122] Setting up conv4_3/x1/bn
I1202 03:02:22.032338  6391 net.cpp:129] Top shape: 15 256 14 14 (752640)
I1202 03:02:22.032347  6391 net.cpp:137] Memory required for data: 3785185980
I1202 03:02:22.032362  6391 layer_factory.hpp:77] Creating layer conv4_3/x1/scale
I1202 03:02:22.032374  6391 net.cpp:84] Creating Layer conv4_3/x1/scale
I1202 03:02:22.032382  6391 net.cpp:406] conv4_3/x1/scale <- conv4_3/x1
I1202 03:02:22.032394  6391 net.cpp:367] conv4_3/x1/scale -> conv4_3/x1 (in-place)
I1202 03:02:22.032470  6391 layer_factory.hpp:77] Creating layer conv4_3/x1/scale
I1202 03:02:22.032680  6391 net.cpp:122] Setting up conv4_3/x1/scale
I1202 03:02:22.032696  6391 net.cpp:129] Top shape: 15 256 14 14 (752640)
I1202 03:02:22.032704  6391 net.cpp:137] Memory required for data: 3788196540
I1202 03:02:22.032716  6391 layer_factory.hpp:77] Creating layer relu4_3/x1
I1202 03:02:22.032729  6391 net.cpp:84] Creating Layer relu4_3/x1
I1202 03:02:22.032737  6391 net.cpp:406] relu4_3/x1 <- conv4_3/x1
I1202 03:02:22.032749  6391 net.cpp:367] relu4_3/x1 -> conv4_3/x1 (in-place)
I1202 03:02:22.033066  6391 net.cpp:122] Setting up relu4_3/x1
I1202 03:02:22.033085  6391 net.cpp:129] Top shape: 15 256 14 14 (752640)
I1202 03:02:22.033093  6391 net.cpp:137] Memory required for data: 3791207100
I1202 03:02:22.033102  6391 layer_factory.hpp:77] Creating layer conv4_3/x2
I1202 03:02:22.033121  6391 net.cpp:84] Creating Layer conv4_3/x2
I1202 03:02:22.033130  6391 net.cpp:406] conv4_3/x2 <- conv4_3/x1
I1202 03:02:22.033143  6391 net.cpp:380] conv4_3/x2 -> conv4_3/x2
I1202 03:02:22.053719  6391 net.cpp:122] Setting up conv4_3/x2
I1202 03:02:22.053745  6391 net.cpp:129] Top shape: 15 256 14 14 (752640)
I1202 03:02:22.053750  6391 net.cpp:137] Memory required for data: 3794217660
I1202 03:02:22.053761  6391 layer_factory.hpp:77] Creating layer conv4_3/x2/bn
I1202 03:02:22.053774  6391 net.cpp:84] Creating Layer conv4_3/x2/bn
I1202 03:02:22.053781  6391 net.cpp:406] conv4_3/x2/bn <- conv4_3/x2
I1202 03:02:22.053791  6391 net.cpp:367] conv4_3/x2/bn -> conv4_3/x2 (in-place)
I1202 03:02:22.054111  6391 net.cpp:122] Setting up conv4_3/x2/bn
I1202 03:02:22.054122  6391 net.cpp:129] Top shape: 15 256 14 14 (752640)
I1202 03:02:22.054127  6391 net.cpp:137] Memory required for data: 3797228220
I1202 03:02:22.054137  6391 layer_factory.hpp:77] Creating layer conv4_3/x2/scale
I1202 03:02:22.054150  6391 net.cpp:84] Creating Layer conv4_3/x2/scale
I1202 03:02:22.054163  6391 net.cpp:406] conv4_3/x2/scale <- conv4_3/x2
I1202 03:02:22.054185  6391 net.cpp:367] conv4_3/x2/scale -> conv4_3/x2 (in-place)
I1202 03:02:22.054253  6391 layer_factory.hpp:77] Creating layer conv4_3/x2/scale
I1202 03:02:22.054409  6391 net.cpp:122] Setting up conv4_3/x2/scale
I1202 03:02:22.054419  6391 net.cpp:129] Top shape: 15 256 14 14 (752640)
I1202 03:02:22.054424  6391 net.cpp:137] Memory required for data: 3800238780
I1202 03:02:22.054431  6391 layer_factory.hpp:77] Creating layer relu4_3/x2
I1202 03:02:22.054440  6391 net.cpp:84] Creating Layer relu4_3/x2
I1202 03:02:22.054446  6391 net.cpp:406] relu4_3/x2 <- conv4_3/x2
I1202 03:02:22.054453  6391 net.cpp:367] relu4_3/x2 -> conv4_3/x2 (in-place)
I1202 03:02:22.054728  6391 net.cpp:122] Setting up relu4_3/x2
I1202 03:02:22.054739  6391 net.cpp:129] Top shape: 15 256 14 14 (752640)
I1202 03:02:22.054745  6391 net.cpp:137] Memory required for data: 3803249340
I1202 03:02:22.054750  6391 layer_factory.hpp:77] Creating layer conv4_3/x3
I1202 03:02:22.054765  6391 net.cpp:84] Creating Layer conv4_3/x3
I1202 03:02:22.054771  6391 net.cpp:406] conv4_3/x3 <- conv4_3/x2
I1202 03:02:22.054780  6391 net.cpp:380] conv4_3/x3 -> conv4_3/x3
I1202 03:02:22.070340  6391 net.cpp:122] Setting up conv4_3/x3
I1202 03:02:22.070374  6391 net.cpp:129] Top shape: 15 1024 14 14 (3010560)
I1202 03:02:22.070384  6391 net.cpp:137] Memory required for data: 3815291580
I1202 03:02:22.070475  6391 layer_factory.hpp:77] Creating layer conv4_3/x3/bn
I1202 03:02:22.070530  6391 net.cpp:84] Creating Layer conv4_3/x3/bn
I1202 03:02:22.070544  6391 net.cpp:406] conv4_3/x3/bn <- conv4_3/x3
I1202 03:02:22.070564  6391 net.cpp:367] conv4_3/x3/bn -> conv4_3/x3 (in-place)
I1202 03:02:22.071069  6391 net.cpp:122] Setting up conv4_3/x3/bn
I1202 03:02:22.071090  6391 net.cpp:129] Top shape: 15 1024 14 14 (3010560)
I1202 03:02:22.071099  6391 net.cpp:137] Memory required for data: 3827333820
I1202 03:02:22.071118  6391 layer_factory.hpp:77] Creating layer conv4_3/x3/scale
I1202 03:02:22.071135  6391 net.cpp:84] Creating Layer conv4_3/x3/scale
I1202 03:02:22.071144  6391 net.cpp:406] conv4_3/x3/scale <- conv4_3/x3
I1202 03:02:22.071158  6391 net.cpp:367] conv4_3/x3/scale -> conv4_3/x3 (in-place)
I1202 03:02:22.071246  6391 layer_factory.hpp:77] Creating layer conv4_3/x3/scale
I1202 03:02:22.071499  6391 net.cpp:122] Setting up conv4_3/x3/scale
I1202 03:02:22.071521  6391 net.cpp:129] Top shape: 15 1024 14 14 (3010560)
I1202 03:02:22.071528  6391 net.cpp:137] Memory required for data: 3839376060
I1202 03:02:22.071543  6391 layer_factory.hpp:77] Creating layer conv4_3/x3_conv4_3/x3/scale_0_split
I1202 03:02:22.071558  6391 net.cpp:84] Creating Layer conv4_3/x3_conv4_3/x3/scale_0_split
I1202 03:02:22.071568  6391 net.cpp:406] conv4_3/x3_conv4_3/x3/scale_0_split <- conv4_3/x3
I1202 03:02:22.071581  6391 net.cpp:380] conv4_3/x3_conv4_3/x3/scale_0_split -> conv4_3/x3_conv4_3/x3/scale_0_split_0
I1202 03:02:22.071600  6391 net.cpp:380] conv4_3/x3_conv4_3/x3/scale_0_split -> conv4_3/x3_conv4_3/x3/scale_0_split_1
I1202 03:02:22.071686  6391 net.cpp:122] Setting up conv4_3/x3_conv4_3/x3/scale_0_split
I1202 03:02:22.071702  6391 net.cpp:129] Top shape: 15 1024 14 14 (3010560)
I1202 03:02:22.071712  6391 net.cpp:129] Top shape: 15 1024 14 14 (3010560)
I1202 03:02:22.071720  6391 net.cpp:137] Memory required for data: 3863460540
I1202 03:02:22.071730  6391 layer_factory.hpp:77] Creating layer pool4_3/gap
I1202 03:02:22.071758  6391 net.cpp:84] Creating Layer pool4_3/gap
I1202 03:02:22.071769  6391 net.cpp:406] pool4_3/gap <- conv4_3/x3_conv4_3/x3/scale_0_split_0
I1202 03:02:22.071784  6391 net.cpp:380] pool4_3/gap -> pool4_3/gap
I1202 03:02:22.072279  6391 net.cpp:122] Setting up pool4_3/gap
I1202 03:02:22.072304  6391 net.cpp:129] Top shape: 15 1024 1 1 (15360)
I1202 03:02:22.072314  6391 net.cpp:137] Memory required for data: 3863521980
I1202 03:02:22.072322  6391 layer_factory.hpp:77] Creating layer fc4_3/sqz
I1202 03:02:22.072340  6391 net.cpp:84] Creating Layer fc4_3/sqz
I1202 03:02:22.072360  6391 net.cpp:406] fc4_3/sqz <- pool4_3/gap
I1202 03:02:22.072398  6391 net.cpp:380] fc4_3/sqz -> fc4_3/sqz
I1202 03:02:22.074228  6391 net.cpp:122] Setting up fc4_3/sqz
…
I1202 03:02:22.967242  6391 net.cpp:129] Top shape: 5 1024 14 14 (1003520)
I1202 03:02:22.967247  6391 net.cpp:137] Memory required for data: 1396392400
I1202 03:02:22.967252  6391 layer_factory.hpp:77] Creating layer block_4_5_relu4_5_0_split
I1202 03:02:22.967260  6391 net.cpp:84] Creating Layer block_4_5_relu4_5_0_split
I1202 03:02:22.967265  6391 net.cpp:406] block_4_5_relu4_5_0_split <- block_4_5
I1202 03:02:22.967274  6391 net.cpp:380] block_4_5_relu4_5_0_split -> block_4_5_relu4_5_0_split_0
I1202 03:02:22.967284  6391 net.cpp:380] block_4_5_relu4_5_0_split -> block_4_5_relu4_5_0_split_1
I1202 03:02:22.967336  6391 net.cpp:122] Setting up block_4_5_relu4_5_0_split
I1202 03:02:22.967344  6391 net.cpp:129] Top shape: 5 1024 14 14 (1003520)
I1202 03:02:22.967350  6391 net.cpp:129] Top shape: 5 1024 14 14 (1003520)
I1202 03:02:22.967355  6391 net.cpp:137] Memory required for data: 1404420560
I1202 03:02:22.967360  6391 layer_factory.hpp:77] Creating layer conv4_6/x1
I1202 03:02:22.967371  6391 net.cpp:84] Creating Layer conv4_6/x1
I1202 03:02:22.967377  6391 net.cpp:406] conv4_6/x1 <- block_4_5_relu4_5_0_split_0
I1202 03:02:22.967386  6391 net.cpp:380] conv4_6/x1 -> conv4_6/x1
I1202 03:02:22.975016  6391 net.cpp:122] Setting up conv4_6/x1
I1202 03:02:22.975051  6391 net.cpp:129] Top shape: 5 256 14 14 (250880)
I1202 03:02:22.975060  6391 net.cpp:137] Memory required for data: 1405424080
I1202 03:02:22.975073  6391 layer_factory.hpp:77] Creating layer conv4_6/x1/bn
I1202 03:02:22.975090  6391 net.cpp:84] Creating Layer conv4_6/x1/bn
I1202 03:02:22.975100  6391 net.cpp:406] conv4_6/x1/bn <- conv4_6/x1
I1202 03:02:22.975111  6391 net.cpp:367] conv4_6/x1/bn -> conv4_6/x1 (in-place)
I1202 03:02:22.975471  6391 net.cpp:122] Setting up conv4_6/x1/bn
I1202 03:02:22.975486  6391 net.cpp:129] Top shape: 5 256 14 14 (250880)
I1202 03:02:22.975492  6391 net.cpp:137] Memory required for data: 1406427600
I1202 03:02:22.975507  6391 layer_factory.hpp:77] Creating layer conv4_6/x1/scale
I1202 03:02:22.975519  6391 net.cpp:84] Creating Layer conv4_6/x1/scale
I1202 03:02:22.975527  6391 net.cpp:406] conv4_6/x1/scale <- conv4_6/x1
I1202 03:02:22.975538  6391 net.cpp:367] conv4_6/x1/scale -> conv4_6/x1 (in-place)
I1202 03:02:22.975610  6391 layer_factory.hpp:77] Creating layer conv4_6/x1/scale
I1202 03:02:22.975847  6391 net.cpp:122] Setting up conv4_6/x1/scale
I1202 03:02:22.975863  6391 net.cpp:129] Top shape: 5 256 14 14 (250880)
I1202 03:02:22.975870  6391 net.cpp:137] Memory required for data: 1407431120
I1202 03:02:22.975881  6391 layer_factory.hpp:77] Creating layer relu4_6/x1
I1202 03:02:22.975895  6391 net.cpp:84] Creating Layer relu4_6/x1
I1202 03:02:22.975903  6391 net.cpp:406] relu4_6/x1 <- conv4_6/x1
I1202 03:02:22.975914  6391 net.cpp:367] relu4_6/x1 -> conv4_6/x1 (in-place)
I1202 03:02:22.976346  6391 net.cpp:122] Setting up relu4_6/x1
I1202 03:02:22.976366  6391 net.cpp:129] Top shape: 5 256 14 14 (250880)
I1202 03:02:22.976374  6391 net.cpp:137] Memory required for data: 1408434640
I1202 03:02:22.976382  6391 layer_factory.hpp:77] Creating layer conv4_6/x2
I1202 03:02:22.976402  6391 net.cpp:84] Creating Layer conv4_6/x2
I1202 03:02:22.976413  6391 net.cpp:406] conv4_6/x2 <- conv4_6/x1
I1202 03:02:22.976429  6391 net.cpp:380] conv4_6/x2 -> conv4_6/x2
I1202 03:02:22.997690  6391 net.cpp:122] Setting up conv4_6/x2
I1202 03:02:22.997721  6391 net.cpp:129] Top shape: 5 256 14 14 (250880)
I1202 03:02:22.997731  6391 net.cpp:137] Memory required for data: 1409438160
I1202 03:02:22.997745  6391 layer_factory.hpp:77] Creating layer conv4_6/x2/bn
I1202 03:02:22.997761  6391 net.cpp:84] Creating Layer conv4_6/x2/bn
I1202 03:02:22.997771  6391 net.cpp:406] conv4_6/x2/bn <- conv4_6/x2
I1202 03:02:22.997786  6391 net.cpp:367] conv4_6/x2/bn -> conv4_6/x2 (in-place)
I1202 03:02:22.998185  6391 net.cpp:122] Setting up conv4_6/x2/bn
I1202 03:02:22.998225  6391 net.cpp:129] Top shape: 5 256 14 14 (250880)
I1202 03:02:22.998234  6391 net.cpp:137] Memory required for data: 1410441680
I1202 03:02:22.998250  6391 layer_factory.hpp:77] Creating layer conv4_6/x2/scale
I1202 03:02:22.998263  6391 net.cpp:84] Creating Layer conv4_6/x2/scale
I1202 03:02:22.998271  6391 net.cpp:406] conv4_6/x2/scale <- conv4_6/x2
I1202 03:02:22.998286  6391 net.cpp:367] conv4_6/x2/scale -> conv4_6/x2 (in-place)
I1202 03:02:22.998368  6391 layer_factory.hpp:77] Creating layer conv4_6/x2/scale
I1202 03:02:22.998575  6391 net.cpp:122] Setting up conv4_6/x2/scale
I1202 03:02:22.998594  6391 net.cpp:129] Top shape: 5 256 14 14 (250880)
I1202 03:02:22.998602  6391 net.cpp:137] Memory required for data: 1411445200
I1202 03:02:22.998615  6391 layer_factory.hpp:77] Creating layer relu4_6/x2
I1202 03:02:22.998626  6391 net.cpp:84] Creating Layer relu4_6/x2
I1202 03:02:22.998634  6391 net.cpp:406] relu4_6/x2 <- conv4_6/x2
I1202 03:02:22.998644  6391 net.cpp:367] relu4_6/x2 -> conv4_6/x2 (in-place)
I1202 03:02:22.999069  6391 net.cpp:122] Setting up relu4_6/x2
I1202 03:02:22.999089  6391 net.cpp:129] Top shape: 5 256 14 14 (250880)
I1202 03:02:22.999097  6391 net.cpp:137] Memory required for data: 1412448720
I1202 03:02:22.999104  6391 layer_factory.hpp:77] Creating layer conv4_6/x3
I1202 03:02:22.999122  6391 net.cpp:84] Creating Layer conv4_6/x3
I1202 03:02:22.999130  6391 net.cpp:406] conv4_6/x3 <- conv4_6/x2
I1202 03:02:22.999146  6391 net.cpp:380] conv4_6/x3 -> conv4_6/x3
I1202 03:02:23.009676  6391 net.cpp:122] Setting up conv4_6/x3
I1202 03:02:23.009711  6391 net.cpp:129] Top shape: 5 1024 14 14 (1003520)
I1202 03:02:23.009718  6391 net.cpp:137] Memory required for data: 1416462800
I1202 03:02:23.009729  6391 layer_factory.hpp:77] Creating layer conv4_6/x3/bn
I1202 03:02:23.009742  6391 net.cpp:84] Creating Layer conv4_6/x3/bn
I1202 03:02:23.009752  6391 net.cpp:406] conv4_6/x3/bn <- conv4_6/x3
I1202 03:02:23.009765  6391 net.cpp:367] conv4_6/x3/bn -> conv4_6/x3 (in-place)
I1202 03:02:23.010174  6391 net.cpp:122] Setting up conv4_6/x3/bn
I1202 03:02:23.010190  6391 net.cpp:129] Top shape: 5 1024 14 14 (1003520)
I1202 03:02:23.010197  6391 net.cpp:137] Memory required for data: 1420476880
I1202 03:02:23.010210  6391 layer_factory.hpp:77] Creating layer conv4_6/x3/scale
I1202 03:02:23.010222  6391 net.cpp:84] Creating Layer conv4_6/x3/scale
I1202 03:02:23.010231  6391 net.cpp:406] conv4_6/x3/scale <- conv4_6/x3
I1202 03:02:23.010241  6391 net.cpp:367] conv4_6/x3/scale -> conv4_6/x3 (in-place)
I1202 03:02:23.010326  6391 layer_factory.hpp:77] Creating layer conv4_6/x3/scale
I1202 03:02:23.010556  6391 net.cpp:122] Setting up conv4_6/x3/scale
I1202 03:02:23.010571  6391 net.cpp:129] Top shape: 5 1024 14 14 (1003520)
I1202 03:02:23.010579  6391 net.cpp:137] Memory required for data: 1424490960
I1202 03:02:23.010591  6391 layer_factory.hpp:77] Creating layer conv4_6/x3_conv4_6/x3/scale_0_split
I1202 03:02:23.010604  6391 net.cpp:84] Creating Layer conv4_6/x3_conv4_6/x3/scale_0_split
I1202 03:02:23.010612  6391 net.cpp:406] conv4_6/x3_conv4_6/x3/scale_0_split <- conv4_6/x3
I1202 03:02:23.010625  6391 net.cpp:380] conv4_6/x3_conv4_6/x3/scale_0_split -> conv4_6/x3_conv4_6/x3/scale_0_split_0
I1202 03:02:23.010640  6391 net.cpp:380] conv4_6/x3_conv4_6/x3/scale_0_split -> conv4_6/x3_conv4_6/x3/scale_0_split_1
I1202 03:02:23.010709  6391 net.cpp:122] Setting up conv4_6/x3_conv4_6/x3/scale_0_split
I1202 03:02:23.010720  6391 net.cpp:129] Top shape: 5 1024 14 14 (1003520)
I1202 03:02:23.010730  6391 net.cpp:129] Top shape: 5 1024 14 14 (1003520)
I1202 03:02:23.010736  6391 net.cpp:137] Memory required for data: 1432519120
I1202 03:02:23.010743  6391 layer_factory.hpp:77] Creating layer pool4_6/gap
I1202 03:02:23.010754  6391 net.cpp:84] Creating Layer pool4_6/gap
I1202 03:02:23.010763  6391 net.cpp:406] pool4_6/gap <- conv4_6/x3_conv4_6/x3/scale_0_split_0
I1202 03:02:23.010776  6391 net.cpp:380] pool4_6/gap -> pool4_6/gap
I1202 03:02:23.011200  6391 net.cpp:122] Setting up pool4_6/gap
I1202 03:02:23.011237  6391 net.cpp:129] Top shape: 5 1024 1 1 (5120)
I1202 03:02:23.011247  6391 net.cpp:137] Memory required for data: 1432539600
I1202 03:02:23.011255  6391 layer_factory.hpp:77] Creating layer fc4_6/sqz
I1202 03:02:23.011267  6391 net.cpp:84] Creating Layer fc4_6/sqz
I1202 03:02:23.011276  6391 net.cpp:406] fc4_6/sqz <- pool4_6/gap
I1202 03:02:23.011291  6391 net.cpp:380] fc4_6/sqz -> fc4_6/sqz
I1202 03:02:23.012923  6391 net.cpp:122] Setting up fc4_6/sqz
I1202 03:02:23.012938  6391 net.cpp:129] Top shape: 5 64 (320)
I1202 03:02:23.012944  6391 net.cpp:137] Memory required for data: 1432540880
I1202 03:02:23.012956  6391 layer_factory.hpp:77] Creating layer relu4_6/sqz
I1202 03:02:23.012967  6391 net.cpp:84] Creating Layer relu4_6/sqz
I1202 03:02:23.012974  6391 net.cpp:406] relu4_6/sqz <- fc4_6/sqz
I1202 03:02:23.012984  6391 net.cpp:367] relu4_6/sqz -> fc4_6/sqz (in-place)
I1202 03:02:23.014518  6391 net.cpp:122] Setting up relu4_6/sqz
I1202 03:02:23.014541  6391 net.cpp:129] Top shape: 5 64 (320)
I1202 03:02:23.014549  6391 net.cpp:137] Memory required for data: 1432542160
I1202 03:02:23.014555  6391 layer_factory.hpp:77] Creating layer fc4_6/exc
I1202 03:02:23.014572  6391 net.cpp:84] Creating Layer fc4_6/exc
I1202 03:02:23.014580  6391 net.cpp:406] fc4_6/exc <- fc4_6/sqz
I1202 03:02:23.014593  6391 net.cpp:380] fc4_6/exc -> fc4_6/exc
I1202 03:02:23.016194  6391 net.cpp:122] Setting up fc4_6/exc
I1202 03:02:23.016209  6391 net.cpp:129] Top shape: 5 1024 (5120)
I1202 03:02:23.016216  6391 net.cpp:137] Memory required for data: 1432562640
I1202 03:02:23.016227  6391 layer_factory.hpp:77] Creating layer sigm4_6/gate
I1202 03:02:23.016242  6391 net.cpp:84] Creating Layer sigm4_6/gate
I1202 03:02:23.016249  6391 net.cpp:406] sigm4_6/gate <- fc4_6/exc
I1202 03:02:23.016258  6391 net.cpp:367] sigm4_6/gate -> fc4_6/exc (in-place)
I1202 03:02:23.016623  6391 net.cpp:122] Setting up sigm4_6/gate
I1202 03:02:23.016638  6391 net.cpp:129] Top shape: 5 1024 (5120)
I1202 03:02:23.016645  6391 net.cpp:137] Memory required for data: 1432583120
I1202 03:02:23.016652  6391 layer_factory.hpp:77] Creating layer scale4_6
I1202 03:02:23.016665  6391 net.cpp:84] Creating Layer scale4_6
I1202 03:02:23.016672  6391 net.cpp:406] scale4_6 <- conv4_6/x3_conv4_6/x3/scale_0_split_1
I1202 03:02:23.016683  6391 net.cpp:406] scale4_6 <- fc4_6/exc
I1202 03:02:23.016693  6391 net.cpp:380] scale4_6 -> scale4_6
I1202 03:02:23.016815  6391 net.cpp:122] Setting up scale4_6
I1202 03:02:23.016829  6391 net.cpp:129] Top shape: 5 1024 14 14 (1003520)
I1202 03:02:23.016836  6391 net.cpp:137] Memory required for data: 1436597200
I1202 03:02:23.016844  6391 layer_factory.hpp:77] Creating layer block_4_6
I1202 03:02:23.016852  6391 net.cpp:84] Creating Layer block_4_6
I1202 03:02:23.016861  6391 net.cpp:406] block_4_6 <- block_4_5_relu4_5_0_split_1
I1202 03:02:23.016870  6391 net.cpp:406] block_4_6 <- scale4_6
I1202 03:02:23.016880  6391 net.cpp:380] block_4_6 -> block_4_6
I1202 03:02:23.016921  6391 net.cpp:122] Setting up block_4_6
I1202 03:02:23.016932  6391 net.cpp:129] Top shape: 5 1024 14 14 (1003520)
I1202 03:02:23.016940  6391 net.cpp:137] Memory required for data: 1440611280
I1202 03:02:23.016947  6391 layer_factory.hpp:77] Creating layer relu4_6
I1202 03:02:23.016957  6391 net.cpp:84] Creating Layer relu4_6
I1202 03:02:23.016964  6391 net.cpp:406] relu4_6 <- block_4_6
I1202 03:02:23.016974  6391 net.cpp:367] relu4_6 -> block_4_6 (in-place)
I1202 03:02:23.017318  6391 net.cpp:122] Setting up relu4_6
I1202 03:02:23.017335  6391 net.cpp:129] Top shape: 5 1024 14 14 (1003520)
I1202 03:02:23.017341  6391 net.cpp:137] Memory required for data: 1444625360
I1202 03:02:23.017349  6391 layer_factory.hpp:77] Creating layer block_4_6_relu4_6_0_split
I1202 03:02:23.017359  6391 net.cpp:84] Creating Layer block_4_6_relu4_6_0_split
I1202 03:02:23.017366  6391 net.cpp:406] block_4_6_relu4_6_0_split <- block_4_6
I1202 03:02:23.017377  6391 net.cpp:380] block_4_6_relu4_6_0_split -> block_4_6_relu4_6_0_split_0
I1202 03:02:23.017400  6391 net.cpp:380] block_4_6_relu4_6_0_split -> block_4_6_relu4_6_0_split_1
I1202 03:02:23.017493  6391 net.cpp:122] Setting up block_4_6_relu4_6_0_split
I1202 03:02:23.017504  6391 net.cpp:129] Top shape: 5 1024 14 14 (1003520)
I1202 03:02:23.017513  6391 net.cpp:129] Top shape: 5 1024 14 14 (1003520)
I1202 03:02:23.017519  6391 net.cpp:137] Memory required for data: 1452653520
I1202 03:02:23.017526  6391 layer_factory.hpp:77] Creating layer conv5_1/prj
I1202 03:02:23.017542  6391 net.cpp:84] Creating Layer conv5_1/prj
I1202 03:02:23.017550  6391 net.cpp:406] conv5_1/prj <- block_4_6_relu4_6_0_split_0
I1202 03:02:23.017565  6391 net.cpp:380] conv5_1/prj -> conv5_1/prj
I1202 03:02:23.066723  6391 net.cpp:122] Setting up conv5_1/prj
I1202 03:02:23.066764  6391 net.cpp:129] Top shape: 5 2048 7 7 (501760)
I1202 03:02:23.066774  6391 net.cpp:137] Memory required for data: 1454660560
I1202 03:02:23.066790  6391 layer_factory.hpp:77] Creating layer conv5_1/prj/bn
I1202 03:02:23.066807  6391 net.cpp:84] Creating Layer conv5_1/prj/bn
I1202 03:02:23.066817  6391 net.cpp:406] conv5_1/prj/bn <- conv5_1/prj
I1202 03:02:23.066833  6391 net.cpp:367] conv5_1/prj/bn -> conv5_1/prj (in-place)
I1202 03:02:23.067356  6391 net.cpp:122] Setting up conv5_1/prj/bn
I1202 03:02:23.067374  6391 net.cpp:129] Top shape: 5 2048 7 7 (501760)
I1202 03:02:23.067382  6391 net.cpp:137] Memory required for data: 1456667600
I1202 03:02:23.067399  6391 layer_factory.hpp:77] Creating layer conv5_1/prj/scale
I1202 03:02:23.067414  6391 net.cpp:84] Creating Layer conv5_1/prj/scale
I1202 03:02:23.067423  6391 net.cpp:406] conv5_1/prj/scale <- conv5_1/prj
I1202 03:02:23.067437  6391 net.cpp:367] conv5_1/prj/scale -> conv5_1/prj (in-place)
I1202 03:02:23.067536  6391 layer_factory.hpp:77] Creating layer conv5_1/prj/scale
I1202 03:02:23.067828  6391 net.cpp:122] Setting up conv5_1/prj/scale
I1202 03:02:23.067845  6391 net.cpp:129] Top shape: 5 2048 7 7 (501760)
I1202 03:02:23.067854  6391 net.cpp:137] Memory required for data: 1458674640
I1202 03:02:23.067867  6391 layer_factory.hpp:77] Creating layer conv5_1/x1
I1202 03:02:23.067891  6391 net.cpp:84] Creating Layer conv5_1/x1
I1202 03:02:23.067903  6391 net.cpp:406] conv5_1/x1 <- block_4_6_relu4_6_0_split_1
I1202 03:02:23.067919  6391 net.cpp:380] conv5_1/x1 -> conv5_1/x1
I1202 03:02:23.086361  6391 net.cpp:122] Setting up conv5_1/x1
I1202 03:02:23.086405  6391 net.cpp:129] Top shape: 5 512 14 14 (501760)
I1202 03:02:23.086416  6391 net.cpp:137] Memory required for data: 1460681680
I1202 03:02:23.086427  6391 layer_factory.hpp:77] Creating layer conv5_1/x1/bn
I1202 03:02:23.086443  6391 net.cpp:84] Creating Layer conv5_1/x1/bn
I1202 03:02:23.086454  6391 net.cpp:406] conv5_1/x1/bn <- conv5_1/x1
I1202 03:02:23.086469  6391 net.cpp:367] conv5_1/x1/bn -> conv5_1/x1 (in-place)
I1202 03:02:23.086915  6391 net.cpp:122] Setting up conv5_1/x1/bn
I1202 03:02:23.086930  6391 net.cpp:129] Top shape: 5 512 14 14 (501760)
I1202 03:02:23.086940  6391 net.cpp:137] Memory required for data: 1462688720
I1202 03:02:23.086956  6391 layer_factory.hpp:77] Creating layer conv5_1/x1/scale
I1202 03:02:23.086971  6391 net.cpp:84] Creating Layer conv5_1/x1/scale
I1202 03:02:23.086978  6391 net.cpp:406] conv5_1/x1/scale <- conv5_1/x1
I1202 03:02:23.086990  6391 net.cpp:367] conv5_1/x1/scale -> conv5_1/x1 (in-place)
I1202 03:02:23.087085  6391 layer_factory.hpp:77] Creating layer conv5_1/x1/scale
I1202 03:02:23.087332  6391 net.cpp:122] Setting up conv5_1/x1/scale
I1202 03:02:23.087347  6391 net.cpp:129] Top shape: 5 512 14 14 (501760)
I1202 03:02:23.087355  6391 net.cpp:137] Memory required for data: 1464695760
I1202 03:02:23.087366  6391 layer_factory.hpp:77] Creating layer relu5_1/x1
I1202 03:02:23.087378  6391 net.cpp:84] Creating Layer relu5_1/x1
I1202 03:02:23.087385  6391 net.cpp:406] relu5_1/x1 <- conv5_1/x1
I1202 03:02:23.087399  6391 net.cpp:367] relu5_1/x1 -> conv5_1/x1 (in-place)
I1202 03:02:23.089161  6391 net.cpp:122] Setting up relu5_1/x1
I1202 03:02:23.089200  6391 net.cpp:129] Top shape: 5 512 14 14 (501760)
I1202 03:02:23.089217  6391 net.cpp:137] Memory required for data: 1466702800
I1202 03:02:23.089249  6391 layer_factory.hpp:77] Creating layer conv5_1/x2
I1202 03:02:23.089270  6391 net.cpp:84] Creating Layer conv5_1/x2
I1202 03:02:23.089280  6391 net.cpp:406] conv5_1/x2 <- conv5_1/x1
I1202 03:02:23.089296  6391 net.cpp:380] conv5_1/x2 -> conv5_1/x2
I1202 03:02:23.145154  6391 net.cpp:122] Setting up conv5_1/x2
I1202 03:02:23.145200  6391 net.cpp:129] Top shape: 5 512 7 7 (125440)
I1202 03:02:23.145206  6391 net.cpp:137] Memory required for data: 1467204560
I1202 03:02:23.145220  6391 layer_factory.hpp:77] Creating layer conv5_1/x2/bn
I1202 03:02:23.145237  6391 net.cpp:84] Creating Layer conv5_1/x2/bn
I1202 03:02:23.145246  6391 net.cpp:406] conv5_1/x2/bn <- conv5_1/x2
I1202 03:02:23.145257  6391 net.cpp:367] conv5_1/x2/bn -> conv5_1/x2 (in-place)
I1202 03:02:23.145593  6391 net.cpp:122] Setting up conv5_1/x2/bn
I1202 03:02:23.145606  6391 net.cpp:129] Top shape: 5 512 7 7 (125440)
I1202 03:02:23.145612  6391 net.cpp:137] Memory required for data: 1467706320
I1202 03:02:23.145623  6391 layer_factory.hpp:77] Creating layer conv5_1/x2/scale
I1202 03:02:23.145634  6391 net.cpp:84] Creating Layer conv5_1/x2/scale
I1202 03:02:23.145642  6391 net.cpp:406] conv5_1/x2/scale <- conv5_1/x2
I1202 03:02:23.145649  6391 net.cpp:367] conv5_1/x2/scale -> conv5_1/x2 (in-place)
I1202 03:02:23.145726  6391 layer_factory.hpp:77] Creating layer conv5_1/x2/scale
I1202 03:02:23.145902  6391 net.cpp:122] Setting up conv5_1/x2/scale
I1202 03:02:23.145915  6391 net.cpp:129] Top shape: 5 512 7 7 (125440)
I1202 03:02:23.145920  6391 net.cpp:137] Memory required for data: 1468208080
I1202 03:02:23.145929  6391 layer_factory.hpp:77] Creating layer relu5_1/x2
I1202 03:02:23.145939  6391 net.cpp:84] Creating Layer relu5_1/x2
I1202 03:02:23.145946  6391 net.cpp:406] relu5_1/x2 <- conv5_1/x2
I1202 03:02:23.145954  6391 net.cpp:367] relu5_1/x2 -> conv5_1/x2 (in-place)
I1202 03:02:23.146260  6391 net.cpp:122] Setting up relu5_1/x2
I1202 03:02:23.146275  6391 net.cpp:129] Top shape: 5 512 7 7 (125440)
I1202 03:02:23.146281  6391 net.cpp:137] Memory required for data: 1468709840
I1202 03:02:23.146286  6391 layer_factory.hpp:77] Creating layer conv5_1/x3
I1202 03:02:23.146301  6391 net.cpp:84] Creating Layer conv5_1/x3
I1202 03:02:23.146307  6391 net.cpp:406] conv5_1/x3 <- conv5_1/x2
I1202 03:02:23.146322  6391 net.cpp:380] conv5_1/x3 -> conv5_1/x3
I1202 03:02:23.168412  6391 net.cpp:122] Setting up conv5_1/x3
I1202 03:02:23.168439  6391 net.cpp:129] Top shape: 5 2048 7 7 (501760)
I1202 03:02:23.168447  6391 net.cpp:137] Memory required for data: 1470716880
I1202 03:02:23.168457  6391 layer_factory.hpp:77] Creating layer conv5_1/x3/bn
I1202 03:02:23.168469  6391 net.cpp:84] Creating Layer conv5_1/x3/bn
I1202 03:02:23.168478  6391 net.cpp:406] conv5_1/x3/bn <- conv5_1/x3
I1202 03:02:23.168485  6391 net.cpp:367] conv5_1/x3/bn -> conv5_1/x3 (in-place)
I1202 03:02:23.168810  6391 net.cpp:122] Setting up conv5_1/x3/bn
I1202 03:02:23.168822  6391 net.cpp:129] Top shape: 5 2048 7 7 (501760)
I1202 03:02:23.168828  6391 net.cpp:137] Memory required for data: 1472723920
I1202 03:02:23.168838  6391 layer_factory.hpp:77] Creating layer conv5_1/x3/scale
I1202 03:02:23.168848  6391 net.cpp:84] Creating Layer conv5_1/x3/scale
I1202 03:02:23.168853  6391 net.cpp:406] conv5_1/x3/scale <- conv5_1/x3
I1202 03:02:23.168861  6391 net.cpp:367] conv5_1/x3/scale -> conv5_1/x3 (in-place)
I1202 03:02:23.168931  6391 layer_factory.hpp:77] Creating layer conv5_1/x3/scale
I1202 03:02:23.169106  6391 net.cpp:122] Setting up conv5_1/x3/scale
I1202 03:02:23.169117  6391 net.cpp:129] Top shape: 5 2048 7 7 (501760)
I1202 03:02:23.169122  6391 net.cpp:137] Memory required for data: 1474730960
I1202 03:02:23.169131  6391 layer_factory.hpp:77] Creating layer conv5_1/x3_conv5_1/x3/scale_0_split
I1202 03:02:23.169142  6391 net.cpp:84] Creating Layer conv5_1/x3_conv5_1/x3/scale_0_split
I1202 03:02:23.169147  6391 net.cpp:406] conv5_1/x3_conv5_1/x3/scale_0_split <- conv5_1/x3
I1202 03:02:23.169167  6391 net.cpp:380] conv5_1/x3_conv5_1/x3/scale_0_split -> conv5_1/x3_conv5_1/x3/scale_0_split_0
I1202 03:02:23.169203  6391 net.cpp:380] conv5_1/x3_conv5_1/x3/scale_0_split -> conv5_1/x3_conv5_1/x3/scale_0_split_1
I1202 03:02:23.169261  6391 net.cpp:122] Setting up conv5_1/x3_conv5_1/x3/scale_0_split
I1202 03:02:23.169271  6391 net.cpp:129] Top shape: 5 2048 7 7 (501760)
I1202 03:02:23.169277  6391 net.cpp:129] Top shape: 5 2048 7 7 (501760)
I1202 03:02:23.169281  6391 net.cpp:137] Memory required for data: 1478745040
I1202 03:02:23.169287  6391 layer_factory.hpp:77] Creating layer pool5_1/gap
I1202 03:02:23.169297  6391 net.cpp:84] Creating Layer pool5_1/gap
I1202 03:02:23.169303  6391 net.cpp:406] pool5_1/gap <- conv5_1/x3_conv5_1/x3/scale_0_split_0
I1202 03:02:23.169313  6391 net.cpp:380] pool5_1/gap -> pool5_1/gap
I1202 03:02:23.169631  6391 net.cpp:122] Setting up pool5_1/gap
I1202 03:02:23.169648  6391 net.cpp:129] Top shape: 5 2048 1 1 (10240)
I1202 03:02:23.169654  6391 net.cpp:137] Memory required for data: 1478786000
I1202 03:02:23.169659  6391 layer_factory.hpp:77] Creating layer fc5_1/sqz
I1202 03:02:23.169672  6391 net.cpp:84] Creating Layer fc5_1/sqz
I1202 03:02:23.169677  6391 net.cpp:406] fc5_1/sqz <- pool5_1/gap
I1202 03:02:23.169688  6391 net.cpp:380] fc5_1/sqz -> fc5_1/sqz
I1202 03:02:23.174257  6391 net.cpp:122] Setting up fc5_1/sqz
I1202 03:02:23.174270  6391 net.cpp:129] Top shape: 5 128 (640)
I1202 03:02:23.174275  6391 net.cpp:137] Memory required for data: 1478788560
I1202 03:02:23.174284  6391 layer_factory.hpp:77] Creating layer relu5_1/sqz
I1202 03:02:23.174293  6391 net.cpp:84] Creating Layer relu5_1/sqz
I1202 03:02:23.174299  6391 net.cpp:406] relu5_1/sqz <- fc5_1/sqz
I1202 03:02:23.174306  6391 net.cpp:367] relu5_1/sqz -> fc5_1/sqz (in-place)
I1202 03:02:23.175544  6391 net.cpp:122] Setting up relu5_1/sqz
I1202 03:02:23.175564  6391 net.cpp:129] Top shape: 5 128 (640)
I1202 03:02:23.175570  6391 net.cpp:137] Memory required for data: 1478791120
I1202 03:02:23.175575  6391 layer_factory.hpp:77] Creating layer fc5_1/exc
I1202 03:02:23.175587  6391 net.cpp:84] Creating Layer fc5_1/exc
I1202 03:02:23.175593  6391 net.cpp:406] fc5_1/exc <- fc5_1/sqz
I1202 03:02:23.175606  6391 net.cpp:380] fc5_1/exc -> fc5_1/exc
I1202 03:02:23.181475  6391 net.cpp:122] Setting up fc5_1/exc
I1202 03:02:23.181495  6391 net.cpp:129] Top shape: 5 2048 (10240)
I1202 03:02:23.181500  6391 net.cpp:137] Memory required for data: 1478832080
I1202 03:02:23.181510  6391 layer_factory.hpp:77] Creating layer sigm5_1/gate
I1202 03:02:23.181521  6391 net.cpp:84] Creating Layer sigm5_1/gate
I1202 03:02:23.181527  6391 net.cpp:406] sigm5_1/gate <- fc5_1/exc
I1202 03:02:23.181535  6391 net.cpp:367] sigm5_1/gate -> fc5_1/exc (in-place)
I1202 03:02:23.181826  6391 net.cpp:122] Setting up sigm5_1/gate
I1202 03:02:23.181839  6391 net.cpp:129] Top shape: 5 2048 (10240)
I1202 03:02:23.181843  6391 net.cpp:137] Memory required for data: 1478873040
I1202 03:02:23.181849  6391 layer_factory.hpp:77] Creating layer scale5_1
I1202 03:02:23.181859  6391 net.cpp:84] Creating Layer scale5_1
I1202 03:02:23.181866  6391 net.cpp:406] scale5_1 <- conv5_1/x3_conv5_1/x3/scale_0_split_1
I1202 03:02:23.181874  6391 net.cpp:406] scale5_1 <- fc5_1/exc
I1202 03:02:23.181884  6391 net.cpp:380] scale5_1 -> scale5_1
I1202 03:02:23.181983  6391 net.cpp:122] Setting up scale5_1
I1202 03:02:23.181993  6391 net.cpp:129] Top shape: 5 2048 7 7 (501760)
I1202 03:02:23.181998  6391 net.cpp:137] Memory required for data: 1480880080
I1202 03:02:23.182003  6391 layer_factory.hpp:77] Creating layer block_5_1
I1202 03:02:23.182011  6391 net.cpp:84] Creating Layer block_5_1
I1202 03:02:23.182016  6391 net.cpp:406] block_5_1 <- conv5_1/prj
I1202 03:02:23.182024  6391 net.cpp:406] block_5_1 <- scale5_1
I1202 03:02:23.182034  6391 net.cpp:380] block_5_1 -> block_5_1
I1202 03:02:23.182066  6391 net.cpp:122] Setting up block_5_1
I1202 03:02:23.182075  6391 net.cpp:129] Top shape: 5 2048 7 7 (501760)
I1202 03:02:23.182080  6391 net.cpp:137] Memory required for data: 1482887120
I1202 03:02:23.182090  6391 layer_factory.hpp:77] Creating layer relu5_1
I1202 03:02:23.182112  6391 net.cpp:84] Creating Layer relu5_1
I1202 03:02:23.182118  6391 net.cpp:406] relu5_1 <- block_5_1
I1202 03:02:23.182126  6391 net.cpp:367] relu5_1 -> block_5_1 (in-place)
I1202 03:02:23.182395  6391 net.cpp:122] Setting up relu5_1
I1202 03:02:23.182410  6391 net.cpp:129] Top shape: 5 2048 7 7 (501760)
I1202 03:02:23.182413  6391 net.cpp:137] Memory required for data: 1484894160
I1202 03:02:23.182418  6391 layer_factory.hpp:77] Creating layer block_5_1_relu5_1_0_split
I1202 03:02:23.182428  6391 net.cpp:84] Creating Layer block_5_1_relu5_1_0_split
I1202 03:02:23.182435  6391 net.cpp:406] block_5_1_relu5_1_0_split <- block_5_1
I1202 03:02:23.182445  6391 net.cpp:380] block_5_1_relu5_1_0_split -> block_5_1_relu5_1_0_split_0
I1202 03:02:23.182454  6391 net.cpp:380] block_5_1_relu5_1_0_split -> block_5_1_relu5_1_0_split_1
I1202 03:02:23.182509  6391 net.cpp:122] Setting up block_5_1_relu5_1_0_split
I1202 03:02:23.182521  6391 net.cpp:129] Top shape: 5 2048 7 7 (501760)
I1202 03:02:23.182528  6391 net.cpp:129] Top shape: 5 2048 7 7 (501760)
I1202 03:02:23.182531  6391 net.cpp:137] Memory required for data: 1488908240
I1202 03:02:23.182536  6391 layer_factory.hpp:77] Creating layer conv5_2/x1
I1202 03:02:23.182549  6391 net.cpp:84] Creating Layer conv5_2/x1
I1202 03:02:23.182555  6391 net.cpp:406] conv5_2/x1 <- block_5_1_relu5_1_0_split_0
I1202 03:02:23.182564  6391 net.cpp:380] conv5_2/x1 -> conv5_2/x1
I1202 03:02:23.203085  6391 net.cpp:122] Setting up conv5_2/x1
I1202 03:02:23.203111  6391 net.cpp:129] Top shape: 5 512 7 7 (125440)
I1202 03:02:23.203117  6391 net.cpp:137] Memory required for data: 1489410000
I1202 03:02:23.203125  6391 layer_factory.hpp:77] Creating layer conv5_2/x1/bn
I1202 03:02:23.203135  6391 net.cpp:84] Creating Layer conv5_2/x1/bn
I1202 03:02:23.203142  6391 net.cpp:406] conv5_2/x1/bn <- conv5_2/x1
I1202 03:02:23.203155  6391 net.cpp:367] conv5_2/x1/bn -> conv5_2/x1 (in-place)
I1202 03:02:23.203450  6391 net.cpp:122] Setting up conv5_2/x1/bn
I1202 03:02:23.203461  6391 net.cpp:129] Top shape: 5 512 7 7 (125440)
I1202 03:02:23.203467  6391 net.cpp:137] Memory required for data: 1489911760
I1202 03:02:23.203477  6391 layer_factory.hpp:77] Creating layer conv5_2/x1/scale
I1202 03:02:23.203485  6391 net.cpp:84] Creating Layer conv5_2/x1/scale
I1202 03:02:23.203491  6391 net.cpp:406] conv5_2/x1/scale <- conv5_2/x1
I1202 03:02:23.203500  6391 net.cpp:367] conv5_2/x1/scale -> conv5_2/x1 (in-place)
I1202 03:02:23.203562  6391 layer_factory.hpp:77] Creating layer conv5_2/x1/scale
I1202 03:02:23.203727  6391 net.cpp:122] Setting up conv5_2/x1/scale
I1202 03:02:23.203737  6391 net.cpp:129] Top shape: 5 512 7 7 (125440)
I1202 03:02:23.203743  6391 net.cpp:137] Memory required for data: 1490413520
I1202 03:02:23.203752  6391 layer_factory.hpp:77] Creating layer relu5_2/x1
I1202 03:02:23.203760  6391 net.cpp:84] Creating Layer relu5_2/x1
I1202 03:02:23.203766  6391 net.cpp:406] relu5_2/x1 <- conv5_2/x1
I1202 03:02:23.203773  6391 net.cpp:367] relu5_2/x1 -> conv5_2/x1 (in-place)
I1202 03:02:23.204064  6391 net.cpp:122] Setting up relu5_2/x1
I1202 03:02:23.204077  6391 net.cpp:129] Top shape: 5 512 7 7 (125440)
I1202 03:02:23.204082  6391 net.cpp:137] Memory required for data: 1490915280
I1202 03:02:23.204087  6391 layer_factory.hpp:77] Creating layer conv5_2/x2
I1202 03:02:23.204102  6391 net.cpp:84] Creating Layer conv5_2/x2
I1202 03:02:23.204107  6391 net.cpp:406] conv5_2/x2 <- conv5_2/x1
I1202 03:02:23.204114  6391 net.cpp:380] conv5_2/x2 -> conv5_2/x2
I1202 03:02:23.245138  6391 net.cpp:122] Setting up conv5_2/x2
I1202 03:02:23.245177  6391 net.cpp:129] Top shape: 5 512 7 7 (125440)
I1202 03:02:23.245182  6391 net.cpp:137] Memory required for data: 1491417040
I1202 03:02:23.245193  6391 layer_factory.hpp:77] Creating layer conv5_2/x2/bn
I1202 03:02:23.245210  6391 net.cpp:84] Creating Layer conv5_2/x2/bn
I1202 03:02:23.245218  6391 net.cpp:406] conv5_2/x2/bn <- conv5_2/x2
I1202 03:02:23.245240  6391 net.cpp:367] conv5_2/x2/bn -> conv5_2/x2 (in-place)
I1202 03:02:23.245573  6391 net.cpp:122] Setting up conv5_2/x2/bn
I1202 03:02:23.245584  6391 net.cpp:129] Top shape: 5 512 7 7 (125440)
I1202 03:02:23.245589  6391 net.cpp:137] Memory required for data: 1491918800
I1202 03:02:23.245599  6391 layer_factory.hpp:77] Creating layer conv5_2/x2/scale
I1202 03:02:23.245609  6391 net.cpp:84] Creating Layer conv5_2/x2/scale
I1202 03:02:23.245615  6391 net.cpp:406] conv5_2/x2/scale <- conv5_2/x2
I1202 03:02:23.245622  6391 net.cpp:367] conv5_2/x2/scale -> conv5_2/x2 (in-place)
I1202 03:02:23.245692  6391 layer_factory.hpp:77] Creating layer conv5_2/x2/scale
I1202 03:02:23.245854  6391 net.cpp:122] Setting up conv5_2/x2/scale
I1202 03:02:23.245865  6391 net.cpp:129] Top shape: 5 512 7 7 (125440)
I1202 03:02:23.245869  6391 net.cpp:137] Memory required for data: 1492420560
I1202 03:02:23.245877  6391 layer_factory.hpp:77] Creating layer relu5_2/x2
I1202 03:02:23.245885  6391 net.cpp:84] Creating Layer relu5_2/x2
I1202 03:02:23.245892  6391 net.cpp:406] relu5_2/x2 <- conv5_2/x2
I1202 03:02:23.245898  6391 net.cpp:367] relu5_2/x2 -> conv5_2/x2 (in-place)
I1202 03:02:23.247062  6391 net.cpp:122] Setting up relu5_2/x2
I1202 03:02:23.247083  6391 net.cpp:129] Top shape: 5 512 7 7 (125440)
I1202 03:02:23.247089  6391 net.cpp:137] Memory required for data: 1492922320
I1202 03:02:23.247094  6391 layer_factory.hpp:77] Creating layer conv5_2/x3
I1202 03:02:23.247109  6391 net.cpp:84] Creating Layer conv5_2/x3
I1202 03:02:23.247115  6391 net.cpp:406] conv5_2/x3 <- conv5_2/x2
I1202 03:02:23.247124  6391 net.cpp:380] conv5_2/x3 -> conv5_2/x3
I1202 03:02:23.266806  6391 net.cpp:122] Setting up conv5_2/x3
I1202 03:02:23.266830  6391 net.cpp:129] Top shape: 5 2048 7 7 (501760)
I1202 03:02:23.266835  6391 net.cpp:137] Memory required for data: 1494929360
I1202 03:02:23.266844  6391 layer_factory.hpp:77] Creating layer conv5_2/x3/bn
I1202 03:02:23.266854  6391 net.cpp:84] Creating Layer conv5_2/x3/bn
I1202 03:02:23.266860  6391 net.cpp:406] conv5_2/x3/bn <- conv5_2/x3
I1202 03:02:23.266868  6391 net.cpp:367] conv5_2/x3/bn -> conv5_2/x3 (in-place)
I1202 03:02:23.267166  6391 net.cpp:122] Setting up conv5_2/x3/bn
I1202 03:02:23.267176  6391 net.cpp:129] Top shape: 5 2048 7 7 (501760)
I1202 03:02:23.267180  6391 net.cpp:137] Memory required for data: 1496936400
I1202 03:02:23.267190  6391 layer_factory.hpp:77] Creating layer conv5_2/x3/scale
I1202 03:02:23.267199  6391 net.cpp:84] Creating Layer conv5_2/x3/scale
I1202 03:02:23.267204  6391 net.cpp:406] conv5_2/x3/scale <- conv5_2/x3
I1202 03:02:23.267213  6391 net.cpp:367] conv5_2/x3/scale -> conv5_2/x3 (in-place)
I1202 03:02:23.267277  6391 layer_factory.hpp:77] Creating layer conv5_2/x3/scale
I1202 03:02:23.267447  6391 net.cpp:122] Setting up conv5_2/x3/scale
I1202 03:02:23.267458  6391 net.cpp:129] Top shape: 5 2048 7 7 (501760)
I1202 03:02:23.267462  6391 net.cpp:137] Memory required for data: 1498943440
I1202 03:02:23.267470  6391 layer_factory.hpp:77] Creating layer conv5_2/x3_conv5_2/x3/scale_0_split
I1202 03:02:23.267480  6391 net.cpp:84] Creating Layer conv5_2/x3_conv5_2/x3/scale_0_split
I1202 03:02:23.267485  6391 net.cpp:406] conv5_2/x3_conv5_2/x3/scale_0_split <- conv5_2/x3
I1202 03:02:23.267494  6391 net.cpp:380] conv5_2/x3_conv5_2/x3/scale_0_split -> conv5_2/x3_conv5_2/x3/scale_0_split_0
I1202 03:02:23.267504  6391 net.cpp:380] conv5_2/x3_conv5_2/x3/scale_0_split -> conv5_2/x3_conv5_2/x3/scale_0_split_1
I1202 03:02:23.267554  6391 net.cpp:122] Setting up conv5_2/x3_conv5_2/x3/scale_0_split
I1202 03:02:23.267563  6391 net.cpp:129] Top shape: 5 2048 7 7 (501760)
I1202 03:02:23.267568  6391 net.cpp:129] Top shape: 5 2048 7 7 (501760)
I1202 03:02:23.267572  6391 net.cpp:137] Memory required for data: 1502957520
I1202 03:02:23.267577  6391 layer_factory.hpp:77] Creating layer pool5_2/gap
I1202 03:02:23.267588  6391 net.cpp:84] Creating Layer pool5_2/gap
I1202 03:02:23.267593  6391 net.cpp:406] pool5_2/gap <- conv5_2/x3_conv5_2/x3/scale_0_split_0
I1202 03:02:23.267602  6391 net.cpp:380] pool5_2/gap -> pool5_2/gap
I1202 03:02:23.267920  6391 net.cpp:122] Setting up pool5_2/gap
I1202 03:02:23.267946  6391 net.cpp:129] Top shape: 5 2048 1 1 (10240)
I1202 03:02:23.267952  6391 net.cpp:137] Memory required for data: 1502998480
I1202 03:02:23.267956  6391 layer_factory.hpp:77] Creating layer fc5_2/sqz
I1202 03:02:23.267968  6391 net.cpp:84] Creating Layer fc5_2/sqz
I1202 03:02:23.267974  6391 net.cpp:406] fc5_2/sqz <- pool5_2/gap
I1202 03:02:23.267987  6391 net.cpp:380] fc5_2/sqz -> fc5_2/sqz
I1202 03:02:23.272074  6391 net.cpp:122] Setting up fc5_2/sqz
I1202 03:02:23.272086  6391 net.cpp:129] Top shape: 5 128 (640)
I1202 03:02:23.272091  6391 net.cpp:137] Memory required for data: 1503001040
I1202 03:02:23.272099  6391 layer_factory.hpp:77] Creating layer relu5_2/sqz
I1202 03:02:23.272107  6391 net.cpp:84] Creating Layer relu5_2/sqz
I1202 03:02:23.272114  6391 net.cpp:406] relu5_2/sqz <- fc5_2/sqz
I1202 03:02:23.272121  6391 net.cpp:367] relu5_2/sqz -> fc5_2/sqz (in-place)
I1202 03:02:23.272392  6391 net.cpp:122] Setting up relu5_2/sqz
I1202 03:02:23.272403  6391 net.cpp:129] Top shape: 5 128 (640)
I1202 03:02:23.272408  6391 net.cpp:137] Memory required for data: 1503003600
I1202 03:02:23.272413  6391 layer_factory.hpp:77] Creating layer fc5_2/exc
I1202 03:02:23.272423  6391 net.cpp:84] Creating Layer fc5_2/exc
I1202 03:02:23.272428  6391 net.cpp:406] fc5_2/exc <- fc5_2/sqz
I1202 03:02:23.272438  6391 net.cpp:380] fc5_2/exc -> fc5_2/exc
I1202 03:02:23.277834  6391 net.cpp:122] Setting up fc5_2/exc
I1202 03:02:23.277853  6391 net.cpp:129] Top shape: 5 2048 (10240)
I1202 03:02:23.277858  6391 net.cpp:137] Memory required for data: 1503044560
I1202 03:02:23.277866  6391 layer_factory.hpp:77] Creating layer sigm5_2/gate
I1202 03:02:23.277874  6391 net.cpp:84] Creating Layer sigm5_2/gate
I1202 03:02:23.277880  6391 net.cpp:406] sigm5_2/gate <- fc5_2/exc
I1202 03:02:23.277891  6391 net.cpp:367] sigm5_2/gate -> fc5_2/exc (in-place)
I1202 03:02:23.278169  6391 net.cpp:122] Setting up sigm5_2/gate
I1202 03:02:23.278182  6391 net.cpp:129] Top shape: 5 2048 (10240)
I1202 03:02:23.278187  6391 net.cpp:137] Memory required for data: 1503085520
I1202 03:02:23.278190  6391 layer_factory.hpp:77] Creating layer scale5_2
I1202 03:02:23.278199  6391 net.cpp:84] Creating Layer scale5_2
I1202 03:02:23.278205  6391 net.cpp:406] scale5_2 <- conv5_2/x3_conv5_2/x3/scale_0_split_1
I1202 03:02:23.278213  6391 net.cpp:406] scale5_2 <- fc5_2/exc
I1202 03:02:23.278223  6391 net.cpp:380] scale5_2 -> scale5_2
I1202 03:02:23.278321  6391 net.cpp:122] Setting up scale5_2
I1202 03:02:23.278329  6391 net.cpp:129] Top shape: 5 2048 7 7 (501760)
I1202 03:02:23.278333  6391 net.cpp:137] Memory required for data: 1505092560
I1202 03:02:23.278337  6391 layer_factory.hpp:77] Creating layer block_5_2
I1202 03:02:23.278348  6391 net.cpp:84] Creating Layer block_5_2
I1202 03:02:23.278355  6391 net.cpp:406] block_5_2 <- block_5_1_relu5_1_0_split_1
I1202 03:02:23.278362  6391 net.cpp:406] block_5_2 <- scale5_2
I1202 03:02:23.278369  6391 net.cpp:380] block_5_2 -> block_5_2
I1202 03:02:23.278404  6391 net.cpp:122] Setting up block_5_2
I1202 03:02:23.278412  6391 net.cpp:129] Top shape: 5 2048 7 7 (501760)
I1202 03:02:23.278417  6391 net.cpp:137] Memory required for data: 1507099600
I1202 03:02:23.278421  6391 layer_factory.hpp:77] Creating layer relu5_2
I1202 03:02:23.278429  6391 net.cpp:84] Creating Layer relu5_2
I1202 03:02:23.278434  6391 net.cpp:406] relu5_2 <- block_5_2
I1202 03:02:23.278441  6391 net.cpp:367] relu5_2 -> block_5_2 (in-place)
I1202 03:02:23.283763  6391 net.cpp:122] Setting up relu5_2
I1202 03:02:23.283787  6391 net.cpp:129] Top shape: 5 2048 7 7 (501760)
I1202 03:02:23.283815  6391 net.cpp:137] Memory required for data: 1509106640
I1202 03:02:23.283821  6391 layer_factory.hpp:77] Creating layer block_5_2_relu5_2_0_split
I1202 03:02:23.283833  6391 net.cpp:84] Creating Layer block_5_2_relu5_2_0_split
I1202 03:02:23.283840  6391 net.cpp:406] block_5_2_relu5_2_0_split <- block_5_2
I1202 03:02:23.283849  6391 net.cpp:380] block_5_2_relu5_2_0_split -> block_5_2_relu5_2_0_split_0
I1202 03:02:23.283885  6391 net.cpp:380] block_5_2_relu5_2_0_split -> block_5_2_relu5_2_0_split_1
I1202 03:02:23.283949  6391 net.cpp:122] Setting up block_5_2_relu5_2_0_split
I1202 03:02:23.283959  6391 net.cpp:129] Top shape: 5 2048 7 7 (501760)
I1202 03:02:23.283965  6391 net.cpp:129] Top shape: 5 2048 7 7 (501760)
I1202 03:02:23.283970  6391 net.cpp:137] Memory required for data: 1513120720
I1202 03:02:23.283974  6391 layer_factory.hpp:77] Creating layer conv5_3/x1
I1202 03:02:23.283988  6391 net.cpp:84] Creating Layer conv5_3/x1
I1202 03:02:23.283994  6391 net.cpp:406] conv5_3/x1 <- block_5_2_relu5_2_0_split_0
I1202 03:02:23.284004  6391 net.cpp:380] conv5_3/x1 -> conv5_3/x1
I1202 03:02:23.302700  6391 net.cpp:122] Setting up conv5_3/x1
I1202 03:02:23.302723  6391 net.cpp:129] Top shape: 5 512 7 7 (125440)
I1202 03:02:23.302729  6391 net.cpp:137] Memory required for data: 1513622480
I1202 03:02:23.302737  6391 layer_factory.hpp:77] Creating layer conv5_3/x1/bn
I1202 03:02:23.302748  6391 net.cpp:84] Creating Layer conv5_3/x1/bn
I1202 03:02:23.302755  6391 net.cpp:406] conv5_3/x1/bn <- conv5_3/x1
I1202 03:02:23.302763  6391 net.cpp:367] conv5_3/x1/bn -> conv5_3/x1 (in-place)
I1202 03:02:23.303056  6391 net.cpp:122] Setting up conv5_3/x1/bn
I1202 03:02:23.303066  6391 net.cpp:129] Top shape: 5 512 7 7 (125440)
I1202 03:02:23.303071  6391 net.cpp:137] Memory required for data: 1514124240
I1202 03:02:23.303081  6391 layer_factory.hpp:77] Creating layer conv5_3/x1/scale
I1202 03:02:23.303092  6391 net.cpp:84] Creating Layer conv5_3/x1/scale
I1202 03:02:23.303097  6391 net.cpp:406] conv5_3/x1/scale <- conv5_3/x1
I1202 03:02:23.303103  6391 net.cpp:367] conv5_3/x1/scale -> conv5_3/x1 (in-place)
I1202 03:02:23.303167  6391 layer_factory.hpp:77] Creating layer conv5_3/x1/scale
I1202 03:02:23.303335  6391 net.cpp:122] Setting up conv5_3/x1/scale
I1202 03:02:23.303345  6391 net.cpp:129] Top shape: 5 512 7 7 (125440)
I1202 03:02:23.303350  6391 net.cpp:137] Memory required for data: 1514626000
I1202 03:02:23.303359  6391 layer_factory.hpp:77] Creating layer relu5_3/x1
I1202 03:02:23.303367  6391 net.cpp:84] Creating Layer relu5_3/x1
I1202 03:02:23.303372  6391 net.cpp:406] relu5_3/x1 <- conv5_3/x1
I1202 03:02:23.303380  6391 net.cpp:367] relu5_3/x1 -> conv5_3/x1 (in-place)
I1202 03:02:23.305140  6391 net.cpp:122] Setting up relu5_3/x1
I1202 03:02:23.305163  6391 net.cpp:129] Top shape: 5 512 7 7 (125440)
I1202 03:02:23.305169  6391 net.cpp:137] Memory required for data: 1515127760
I1202 03:02:23.305176  6391 layer_factory.hpp:77] Creating layer conv5_3/x2
I1202 03:02:23.305189  6391 net.cpp:84] Creating Layer conv5_3/x2
I1202 03:02:23.305197  6391 net.cpp:406] conv5_3/x2 <- conv5_3/x1
I1202 03:02:23.305207  6391 net.cpp:380] conv5_3/x2 -> conv5_3/x2
I1202 03:02:23.346124  6391 net.cpp:122] Setting up conv5_3/x2
I1202 03:02:23.346148  6391 net.cpp:129] Top shape: 5 512 7 7 (125440)
I1202 03:02:23.346153  6391 net.cpp:137] Memory required for data: 1515629520
I1202 03:02:23.346161  6391 layer_factory.hpp:77] Creating layer conv5_3/x2/bn
I1202 03:02:23.346174  6391 net.cpp:84] Creating Layer conv5_3/x2/bn
I1202 03:02:23.346180  6391 net.cpp:406] conv5_3/x2/bn <- conv5_3/x2
I1202 03:02:23.346189  6391 net.cpp:367] conv5_3/x2/bn -> conv5_3/x2 (in-place)
I1202 03:02:23.346485  6391 net.cpp:122] Setting up conv5_3/x2/bn
I1202 03:02:23.346498  6391 net.cpp:129] Top shape: 5 512 7 7 (125440)
I1202 03:02:23.346501  6391 net.cpp:137] Memory required for data: 1516131280
I1202 03:02:23.346511  6391 layer_factory.hpp:77] Creating layer conv5_3/x2/scale
I1202 03:02:23.346523  6391 net.cpp:84] Creating Layer conv5_3/x2/scale
I1202 03:02:23.346529  6391 net.cpp:406] conv5_3/x2/scale <- conv5_3/x2
I1202 03:02:23.346535  6391 net.cpp:367] conv5_3/x2/scale -> conv5_3/x2 (in-place)
I1202 03:02:23.346599  6391 layer_factory.hpp:77] Creating layer conv5_3/x2/scale
I1202 03:02:23.346766  6391 net.cpp:122] Setting up conv5_3/x2/scale
I1202 03:02:23.346776  6391 net.cpp:129] Top shape: 5 512 7 7 (125440)
I1202 03:02:23.346789  6391 net.cpp:137] Memory required for data: 1516633040
I1202 03:02:23.346820  6391 layer_factory.hpp:77] Creating layer relu5_3/x2
I1202 03:02:23.346828  6391 net.cpp:84] Creating Layer relu5_3/x2
I1202 03:02:23.346834  6391 net.cpp:406] relu5_3/x2 <- conv5_3/x2
I1202 03:02:23.346844  6391 net.cpp:367] relu5_3/x2 -> conv5_3/x2 (in-place)
I1202 03:02:23.347108  6391 net.cpp:122] Setting up relu5_3/x2
I1202 03:02:23.347121  6391 net.cpp:129] Top shape: 5 512 7 7 (125440)
I1202 03:02:23.347126  6391 net.cpp:137] Memory required for data: 1517134800
I1202 03:02:23.347131  6391 layer_factory.hpp:77] Creating layer conv5_3/x3
I1202 03:02:23.347142  6391 net.cpp:84] Creating Layer conv5_3/x3
I1202 03:02:23.347148  6391 net.cpp:406] conv5_3/x3 <- conv5_3/x2
I1202 03:02:23.347158  6391 net.cpp:380] conv5_3/x3 -> conv5_3/x3
I1202 03:02:23.366772  6391 net.cpp:122] Setting up conv5_3/x3
I1202 03:02:23.366793  6391 net.cpp:129] Top shape: 5 2048 7 7 (501760)
I1202 03:02:23.366798  6391 net.cpp:137] Memory required for data: 1519141840
I1202 03:02:23.366807  6391 layer_factory.hpp:77] Creating layer conv5_3/x3/bn
I1202 03:02:23.366818  6391 net.cpp:84] Creating Layer conv5_3/x3/bn
I1202 03:02:23.366824  6391 net.cpp:406] conv5_3/x3/bn <- conv5_3/x3
I1202 03:02:23.366832  6391 net.cpp:367] conv5_3/x3/bn -> conv5_3/x3 (in-place)
I1202 03:02:23.367131  6391 net.cpp:122] Setting up conv5_3/x3/bn
I1202 03:02:23.367141  6391 net.cpp:129] Top shape: 5 2048 7 7 (501760)
I1202 03:02:23.367146  6391 net.cpp:137] Memory required for data: 1521148880
I1202 03:02:23.367156  6391 layer_factory.hpp:77] Creating layer conv5_3/x3/scale
I1202 03:02:23.367164  6391 net.cpp:84] Creating Layer conv5_3/x3/scale
I1202 03:02:23.367171  6391 net.cpp:406] conv5_3/x3/scale <- conv5_3/x3
I1202 03:02:23.367177  6391 net.cpp:367] conv5_3/x3/scale -> conv5_3/x3 (in-place)
I1202 03:02:23.367241  6391 layer_factory.hpp:77] Creating layer conv5_3/x3/scale
I1202 03:02:23.367411  6391 net.cpp:122] Setting up conv5_3/x3/scale
I1202 03:02:23.367421  6391 net.cpp:129] Top shape: 5 2048 7 7 (501760)
I1202 03:02:23.367426  6391 net.cpp:137] Memory required for data: 1523155920
I1202 03:02:23.367435  6391 layer_factory.hpp:77] Creating layer conv5_3/x3_conv5_3/x3/scale_0_split
I1202 03:02:23.367446  6391 net.cpp:84] Creating Layer conv5_3/x3_conv5_3/x3/scale_0_split
I1202 03:02:23.367451  6391 net.cpp:406] conv5_3/x3_conv5_3/x3/scale_0_split <- conv5_3/x3
I1202 03:02:23.367460  6391 net.cpp:380] conv5_3/x3_conv5_3/x3/scale_0_split -> conv5_3/x3_conv5_3/x3/scale_0_split_0
I1202 03:02:23.367470  6391 net.cpp:380] conv5_3/x3_conv5_3/x3/scale_0_split -> conv5_3/x3_conv5_3/x3/scale_0_split_1
I1202 03:02:23.367521  6391 net.cpp:122] Setting up conv5_3/x3_conv5_3/x3/scale_0_split
I1202 03:02:23.367528  6391 net.cpp:129] Top shape: 5 2048 7 7 (501760)
I1202 03:02:23.367534  6391 net.cpp:129] Top shape: 5 2048 7 7 (501760)
I1202 03:02:23.367538  6391 net.cpp:137] Memory required for data: 1527170000
I1202 03:02:23.367543  6391 layer_factory.hpp:77] Creating layer pool5_3/gap
I1202 03:02:23.367552  6391 net.cpp:84] Creating Layer pool5_3/gap
I1202 03:02:23.367558  6391 net.cpp:406] pool5_3/gap <- conv5_3/x3_conv5_3/x3/scale_0_split_0
I1202 03:02:23.367568  6391 net.cpp:380] pool5_3/gap -> pool5_3/gap
I1202 03:02:23.367883  6391 net.cpp:122] Setting up pool5_3/gap
I1202 03:02:23.367897  6391 net.cpp:129] Top shape: 5 2048 1 1 (10240)
I1202 03:02:23.367902  6391 net.cpp:137] Memory required for data: 1527210960
I1202 03:02:23.367905  6391 layer_factory.hpp:77] Creating layer fc5_3/sqz
I1202 03:02:23.367918  6391 net.cpp:84] Creating Layer fc5_3/sqz
I1202 03:02:23.367924  6391 net.cpp:406] fc5_3/sqz <- pool5_3/gap
I1202 03:02:23.367933  6391 net.cpp:380] fc5_3/sqz -> fc5_3/sqz
I1202 03:02:23.372010  6391 net.cpp:122] Setting up fc5_3/sqz
I1202 03:02:23.372023  6391 net.cpp:129] Top shape: 5 128 (640)
I1202 03:02:23.372028  6391 net.cpp:137] Memory required for data: 1527213520
I1202 03:02:23.372035  6391 layer_factory.hpp:77] Creating layer relu5_3/sqz
I1202 03:02:23.372051  6391 net.cpp:84] Creating Layer relu5_3/sqz
I1202 03:02:23.372076  6391 net.cpp:406] relu5_3/sqz <- fc5_3/sqz
I1202 03:02:23.372083  6391 net.cpp:367] relu5_3/sqz -> fc5_3/sqz (in-place)
I1202 03:02:23.372361  6391 net.cpp:122] Setting up relu5_3/sqz
I1202 03:02:23.372375  6391 net.cpp:129] Top shape: 5 128 (640)
I1202 03:02:23.372380  6391 net.cpp:137] Memory required for data: 1527216080
I1202 03:02:23.372385  6391 layer_factory.hpp:77] Creating layer fc5_3/exc
I1202 03:02:23.372392  6391 net.cpp:84] Creating Layer fc5_3/exc
I1202 03:02:23.372397  6391 net.cpp:406] fc5_3/exc <- fc5_3/sqz
I1202 03:02:23.372409  6391 net.cpp:380] fc5_3/exc -> fc5_3/exc
I1202 03:02:23.380084  6391 net.cpp:122] Setting up fc5_3/exc
I1202 03:02:23.380136  6391 net.cpp:129] Top shape: 5 2048 (10240)
I1202 03:02:23.380146  6391 net.cpp:137] Memory required for data: 1527257040
I1202 03:02:23.380163  6391 layer_factory.hpp:77] Creating layer sigm5_3/gate
I1202 03:02:23.380182  6391 net.cpp:84] Creating Layer sigm5_3/gate
I1202 03:02:23.380194  6391 net.cpp:406] sigm5_3/gate <- fc5_3/exc
I1202 03:02:23.380206  6391 net.cpp:367] sigm5_3/gate -> fc5_3/exc (in-place)
I1202 03:02:23.384153  6391 net.cpp:122] Setting up sigm5_3/gate
I1202 03:02:23.384186  6391 net.cpp:129] Top shape: 5 2048 (10240)
I1202 03:02:23.384194  6391 net.cpp:137] Memory required for data: 1527298000
I1202 03:02:23.384203  6391 layer_factory.hpp:77] Creating layer scale5_3
I1202 03:02:23.384223  6391 net.cpp:84] Creating Layer scale5_3
I1202 03:02:23.384234  6391 net.cpp:406] scale5_3 <- conv5_3/x3_conv5_3/x3/scale_0_split_1
I1202 03:02:23.384248  6391 net.cpp:406] scale5_3 <- fc5_3/exc
I1202 03:02:23.384268  6391 net.cpp:380] scale5_3 -> scale5_3
I1202 03:02:23.384455  6391 net.cpp:122] Setting up scale5_3
I1202 03:02:23.384471  6391 net.cpp:129] Top shape: 5 2048 7 7 (501760)
I1202 03:02:23.384479  6391 net.cpp:137] Memory required for data: 1529305040
I1202 03:02:23.384487  6391 layer_factory.hpp:77] Creating layer block_5_3
I1202 03:02:23.384501  6391 net.cpp:84] Creating Layer block_5_3
I1202 03:02:23.384512  6391 net.cpp:406] block_5_3 <- block_5_2_relu5_2_0_split_1
I1202 03:02:23.384523  6391 net.cpp:406] block_5_3 <- scale5_3
I1202 03:02:23.384538  6391 net.cpp:380] block_5_3 -> block_5_3
I1202 03:02:23.384598  6391 net.cpp:122] Setting up block_5_3
I1202 03:02:23.384611  6391 net.cpp:129] Top shape: 5 2048 7 7 (501760)
I1202 03:02:23.384619  6391 net.cpp:137] Memory required for data: 1531312080
I1202 03:02:23.384626  6391 layer_factory.hpp:77] Creating layer relu5_3
I1202 03:02:23.384644  6391 net.cpp:84] Creating Layer relu5_3
I1202 03:02:23.384652  6391 net.cpp:406] relu5_3 <- block_5_3
I1202 03:02:23.384663  6391 net.cpp:367] relu5_3 -> block_5_3 (in-place)
I1202 03:02:23.385103  6391 net.cpp:122] Setting up relu5_3
I1202 03:02:23.385123  6391 net.cpp:129] Top shape: 5 2048 7 7 (501760)
I1202 03:02:23.385131  6391 net.cpp:137] Memory required for data: 1533319120
I1202 03:02:23.385139  6391 layer_factory.hpp:77] Creating layer pool5
I1202 03:02:23.385155  6391 net.cpp:84] Creating Layer pool5
I1202 03:02:23.385166  6391 net.cpp:406] pool5 <- block_5_3
I1202 03:02:23.385181  6391 net.cpp:380] pool5 -> pool5
I1202 03:02:23.385653  6391 net.cpp:122] Setting up pool5
I1202 03:02:23.385673  6391 net.cpp:129] Top shape: 5 2048 1 1 (10240)
I1202 03:02:23.385682  6391 net.cpp:137] Memory required for data: 1533360080
I1202 03:02:23.385690  6391 layer_factory.hpp:77] Creating layer classifier_re
I1202 03:02:23.385705  6391 net.cpp:84] Creating Layer classifier_re
I1202 03:02:23.385715  6391 net.cpp:406] classifier_re <- pool5
I1202 03:02:23.385733  6391 net.cpp:380] classifier_re -> classifier_re
I1202 03:02:23.390136  6391 net.cpp:122] Setting up classifier_re
I1202 03:02:23.390156  6391 net.cpp:129] Top shape: 5 80 (400)
I1202 03:02:23.390163  6391 net.cpp:137] Memory required for data: 1533361680
I1202 03:02:23.390177  6391 layer_factory.hpp:77] Creating layer classifier_re_classifier_re_0_split
I1202 03:02:23.390190  6391 net.cpp:84] Creating Layer classifier_re_classifier_re_0_split
I1202 03:02:23.390211  6391 net.cpp:406] classifier_re_classifier_re_0_split <- classifier_re
I1202 03:02:23.390254  6391 net.cpp:380] classifier_re_classifier_re_0_split -> classifier_re_classifier_re_0_split_0
I1202 03:02:23.390272  6391 net.cpp:380] classifier_re_classifier_re_0_split -> classifier_re_classifier_re_0_split_1
I1202 03:02:23.390287  6391 net.cpp:380] classifier_re_classifier_re_0_split -> classifier_re_classifier_re_0_split_2
I1202 03:02:23.390391  6391 net.cpp:122] Setting up classifier_re_classifier_re_0_split
I1202 03:02:23.390403  6391 net.cpp:129] Top shape: 5 80 (400)
I1202 03:02:23.390413  6391 net.cpp:129] Top shape: 5 80 (400)
I1202 03:02:23.390421  6391 net.cpp:129] Top shape: 5 80 (400)
I1202 03:02:23.390429  6391 net.cpp:137] Memory required for data: 1533366480
I1202 03:02:23.390435  6391 layer_factory.hpp:77] Creating layer accuracy_top_3
I1202 03:02:23.390451  6391 net.cpp:84] Creating Layer accuracy_top_3
I1202 03:02:23.390460  6391 net.cpp:406] accuracy_top_3 <- classifier_re_classifier_re_0_split_0
I1202 03:02:23.390471  6391 net.cpp:406] accuracy_top_3 <- label_data_1_split_0
…
